models/model_final_cpu.pt (torch, 816906 bytes, 11 tensors)

y_embedding.weight f4 [4, 16]
00000000: ef64 89be b90b 87bb 4ff2 b13e e243 beba
00000010: 7fee b3ba 9b49 6cba 9604 033e 2b64 8f3b
00000020: 3b62 113e 7455 333b 15a6 29bc 0640 9b3a
00000030: 80bd c13b aa10 043e 3d84 07be e991 9dbe
00000040: 08fb 1cbf c0da 90b9 69ce 953e 9bb0 77be
00000050: 2d8b 453a 48f9 17b8 64dc aebc 85c3 08b8
00000060: 4bae 7e3e 6478 863f a99f 78bb 632d 56bb
00000070: ce84 e539 bd34 d53e c4d1 ad3e 4c17 5d3f
00000080: 6228 06bf 18dc 053b 1474 acbf eb62 2a3c
00000090: 66ff 773b c2e8 c4bb d0fd e4bc 0f40 94bb
000000a0: 5a12 413e 30de 453f 7c9c b83b 8273 02bc
000000b0: a07f 0ebc a8d0 37bf a852 0a3e 9cc1 04be
000000c0: 387d bfbe cba5 a73b 19f9 7bbe 6c30 843d
000000d0: 08e7 313b ca82 9bbb 0109 69bf f2c7 e8bb
000000e0: f7d9 fbbe e9d6 a33e 89a3 bd3b cfbc a2bb
000000f0: 3bcd c4bb 29eb b13d f78a 18bf 5acd 7d3e
-0.2683482 -0.0041212705 0.3475518 -0.001451608 -0.0013727694 -0.00090136536 0.12794718 0.0043759546
0.14197628 0.0027364166 -0.010354538 0.0011844642 0.0059124827 0.12896982 -0.13234039 -0.30775383
-0.61320543 -0.00027628802 0.2925904 -0.24188463 0.00075356924 -3.6233367e-05 -0.021345325 -3.260702e-05
0.24871175 1.050549 -0.0037936962 -0.0032680861 0.0004377723 0.416418 0.339491 0.86363673
-0.5240537 0.0020425376 -1.3472924 0.01039956 0.0037841438 -0.006009192 -0.027953058 -0.004524238
0.18854657 0.77292156 0.0056338888 -0.0079621095 -0.00869742 -0.7180276 0.13508093 -0.12964481
-0.37400222 0.0051161996 -0.24606742 0.06454548 0.0027145762 -0.004745816 -0.91029364 -0.0071039135
-0.4918973 0.319999 0.005787317 -0.0049663554 -0.0060059107 0.08687431 -0.59587044 0.24785367

net.0.weight f4 [256, 19]
00000000: e11b a2bb d836 01bc 6657 fa3a e09d 01bd
00000010: 0930 16bd 6178 7e3d 59d8 343e aba5 f1bc
00000020: d792 d1bd 9795 f83c ac98 b63d 022e 6f3d
00000030: 1bd7 cbbd 4834 cebc d8f4 3e3d 8a3e ba3d
00000040: a528 1bbe 2e1f 91bc b91a 163e 8661 573c
00000050: 9a7e 2c3c d62f 983b ac9c 01be 00ac c1bc
00000060: d294 b83c 087e b63d f2a6 b7bc e9ca 03be
00000070: 7206 d63d bd4f 28bd f586 50be 38a1 47be
00000080: 0bd2 4dbd 2d10 c33d 70ea 853d 3f71 33be
00000090: 101e d23d 3ebf 443e 34eb 12bf ea34 d6be
000000a0: 8ca7 55bd 469b ab3d 450d e63d 34d0 bb3d
000000b0: 5169 fc3e ec45 af3e 5f64 5abd d198 18be
000000c0: 8cb9 523e ee4b 8ebe 6e08 03bf 6578 393d
000000d0: 829e e4bd c4d9 a23d ef9b e2be 6a76 ffba
000000e0: 5c4b 98be 204e 983b c774 f93b 98e1 143b
000000f0: 3009 853d ed6f 0b3d 5bf4 843d 1c57 1a3e
00000100: 9548 b3bd a63d 18bd e47b c73b 6f52 1dbc
00000110: adf3 b33d 995c 473e bd9b bcbc 88f7 253c
00000120: 2dda 853d 9efd 61bc bcca 21be 4aa1 7dbd
00000130: f717 32be 62f7 8abd cef5 b23f 846e 8a3d
00000140: 89b5 b7bd 04b6 b43b d5cd 0b3e de34 e83d
00000150: 69ad 2c3e b724 bc3d cbf9 593e 6adb dd3d
00000160: 205e 7abe 732b ebbd acec b73c ffaf 2c3c
00000170: 6135 60be d652 05be 6503 41bc bbbf 463c
00000180: d6d3 133a c3a6 d93b 0e13 1ebe 7ee2 9abc
00000190: 7d8e e43d bcc9 eb3d 5a4f 153e 28c9 55bc
000001a0: a717 23be dfbc 58bd 3ad9 8b3d 19c6 d73d
000001b0: 9101 063e fba1 e53d 2733 2ebc 633c d4bd
000001c0: 368b 753d 590e f4bd 7e84 423e c594 d2bd
000001d0: f24c 05bf 5c4c 323e af8b ee3c c57f 843e
000001e0: 86ad bcbe 5240 47bc a7a6 cdbc 495c c73e
000001f0: 424b e6bd fe51 d23e 1025 42be 0406 bd3a
00000200: 40b7 08bd 4b52 72be b3b9 d13e fe6c 4c3e
00000210: d468 403d 5b9f c4bb f3a4 3ebe aed5 073f
00000220: 6abb 343e 79fd 9c3d ee50 b33d a8c5 3fbe
00000230: de1b cbbe 04e2 5abd b1eb 203e 5d34 6fbd
00000240: 61f2 72bd 1e0e 60bd 9e30 043b 477d a03c
00000250: b5ff ea3d 7f18 693d 03d3 a03e c599 b53d
00000260: d5c6 38ba 2ae3 78ba 86bf fabb f90b 7a3d
00000270: 17d6 01be 5207 793c 607a 8dbd b9c5 443d
00000280: 3a59 e4bd c362 b8bd cc37 4a3d d9a4 b5bc
00000290: 03f8 f73b 98e5 22be 59f4 4c3e e224 0c3d
000002a0: 59ad b3bc 2117 0c3e 670d 79bd 456e d6bb
000002b0: 747b d6bb 351b dfbb be1c b53d 705b e4bd
000002c0: 4817 86bd 2590 87be f9f4 d03d 9274 86bc
000002d0: eadf 7cbc 0209 e0bd 48a1 f73c 388f 493d
000002e0: 01ff b4bb 9008 353d 8545 b2bd 2815 003e
000002f0: c397 4bbd 684a b9bd 6508 0c3b 56c1 92bb
00000300: 624f d83b 702a b9bd cb36 f53b 0239 09be
00000310: 26c3 d53b b609 6fbc 9a51 c3bc c6e9 c1bb
00000320: f6e6 f83b 4945 9a3e 4beb 74bd ce25 973d
00000330: ceef e93d afa7 963d 48dd 283e 5d6e 60be
00000340: ca27 3c3d ea49 943a 2990 893c 8c68 c43e
00000350: 9d0f 3e3e c1fa c9bd 8e0e c53d 4114 1cbd
00000360: 52e3 de3d 2142 d3bb 1025 0e3e d7d7 4e3e
00000370: daca 0e3e f720 683c 4216 4fbe e592 73be
00000380: de9e efbc ff14 79be cf9b 09be 323d 003e
00000390: 418b 42bc 24ce 0a3b 3c41 40bc be7c 163e
000003a0: 83bb 083c 7ed3 603d 16e8 39be c3f7 19be
000003b0: 56b8 c33d 3e0c f5bc 104c 35bd d60d 91bb
000003c0: 8877 0b3d fae7 4a3b d004 f7bc 5d5c ccbd
000003d0: 6be2 a1bd ff9a cbbb 4263 9dbb c579 813e
000003e0: 2a37 a73e 55db 763c 0d50 fa3c c2dc a23d
000003f0: d2e7 193e 886e cfbe 19e2 2e3e 8391 8d3d
-0.004947171 -0.007886611 0.0019099533 -0.031644702 -0.036666904 0.06212652 0.17660655 -0.029497942
-0.102330856 0.030344767 0.089158386 0.058393486 -0.099531375 -0.025171414 0.04662022 0.0909396
-0.15152223 -0.017715063 0.14658631 0.01314581 0.010528231 0.0046443744 -0.12657422 -0.023641586
0.0225319 0.08910757 -0.022418473 -0.12870373 0.10450448 -0.04109167 -0.20363982 -0.19495094
-0.05024914 0.0952457 0.06538856 -0.17523669 0.1025964 0.19213578 -0.5739014 -0.41837245
-0.05216174 0.083792254 0.11233 0.09170571 0.492991 0.34233034 -0.053318378 -0.14902045
0.20578593 -0.27792305 -0.5118474 0.045280833 -0.111630455 0.07951692 -0.44259593 -0.0019490246
-0.29744995 0.004647985 0.007612798 0.0022717472 0.06495893 0.034042288 0.064919196 0.15072292
-0.08754078 -0.037168168 0.006087767 -0.009602173 0.08786712 0.19468917 -0.02302348 0.010129817
0.06535754 -0.013793377 -0.15799993 -0.061921395 -0.17391954 -0.06785466 1.3981264 0.067593604
-0.08970172 0.005514862 0.13652737 0.113382086 0.16863026 0.0918669 0.21286695 0.108328655
-0.24449968 -0.11482897 0.022451721 0.010540008 -0.21895362 -0.1301988 -0.0117805945 0.012130673
0.0005639171 0.006642194 -0.15436956 -0.018906828 0.1115999 0.11513087 0.14581051 -0.013048448
-0.15926991 -0.052914497 0.06828542 0.10535831 0.13086535 0.11212536 -0.010632313 -0.1036308
0.059947215 -0.11916799 0.18995854 -0.10282282 -0.52070534 0.17411941 0.02911934 0.2587873
-0.36851138 -0.012161331 -0.02510388 0.38937595 -0.11244823 0.4107818 -0.1895945 0.0014421348
-0.033377886 -0.23664205 0.4096199 0.19963452 0.046974972 -0.006000442 -0.1861761 0.53060424
0.17649618 0.076655336 0.087556705 -0.18727744 -0.39669698 -0.0534382 0.15714909 -0.058399547
-0.05931318 -0.054700963 0.002017058 0.019590987 0.114745535 0.056908127 0.3141099 0.0886722
-0.0007048671 -0.00094942993 -0.007652226 0.061046574 -0.12679325 0.015199499 -0.06908107 0.048040126
-0.11149831 -0.09003212 0.04936962 -0.022173332 0.007567407 -0.15907896 0.20015086 0.03421486
-0.021933245 0.13680698 -0.060803797 -0.006543907 -0.0065454785 -0.0068086633 0.08843373 -0.11150253
-0.06547409 -0.2647716 0.10202975 -0.016413007 -0.015434245 -0.10939218 0.030228272 0.04920885
-0.005523563 0.04419762 -0.08704666 0.1250807 -0.049705278 -0.09047395 0.0021367308 -0.004478614
0.00660126 -0.090412974 0.0074833385 -0.13400653 0.0065235076 -0.014589718 -0.023842622 -0.0059177605
0.007595892 0.30130985 -0.059794705 0.073802575 0.11422692 0.07356202 0.16490662 -0.219171
0.045936383 0.0011313532 0.016792374 0.38361013 0.18560643 -0.09862281 0.09621917 -0.038105253
0.10883202 -0.006447092 0.13881326 0.20199524 0.13944569 0.014168016 -0.20223334 -0.23786505
-0.029250558 -0.24324416 -0.13438343 0.12523344 -0.011874021 0.0021179998 -0.011734303 0.14696023
0.0083454875 0.054889195 -0.1815494 -0.1503592 0.09556644 -0.029913064 -0.044261992 -0.004426698
0.03404954 0.0030961023 -0.030153662 -0.099785544 -0.07904514 -0.0062135453 -0.004803092 0.25288215
0.32659274 0.015066941 0.03055575 0.079522625 0.15029839 -0.40514016 0.17078437 0.0691252

net.0.bias f4 [256]
00000000: 3e2b 033d a9b5 8f3d cd4e acbe 47cb 6fbd
00000010: 6865 fabd ed06 9bbd cc6b d43c 2834 32be
00000020: d84c d53c dae8 96bc 0384 1dbd abe1 1fbe
00000030: ecc2 633c e70f 77be 3e2c bfbe b0d7 8b3e
00000040: d885 b43b 97fc be3d f00d 9ebe 9dfc ba3d
00000050: 09f0 babd df65 fbbc 9c99 57be 88a8 293d
00000060: b0c6 82be 263d 003d 15c9 f2bd 6796 3a3d
00000070: d5c2 473b 004f cd3c fe95 97bd 7ecd 343e
00000080: 6cc5 5abd d68e bcbd 40c4 ba3c eef3 99be
00000090: 7be7 013e 05af a2be 26a4 493d 38e8 c6bd
000000a0: 2ff0 c63d 8a9d 0f3d aa7a 4a3c 0e37 36be
000000b0: 554e c93b f74a eb3d 6676 eabe 62be 54bd
000000c0: b7f4 9fbd b8de d5bd ee43 54bd 6e3b b23d
000000d0: e875 dabd 56b8 fb3c 0ba8 4fbd 45f5 533d
000000e0: 892f adbe 7a35 373d 5981 91bd 1716 fc3b
000000f0: 8c75 ad3c 8741 283d b2b1 813e 2a74 5a3d
00000100: 9f01 10bd aebe 0e3c f9db e33d 0f79 10bd
00000110: e375 9abe 0e4a a13e a7a2 b73d 3776 863e
00000120: 79ba a6bd ca04 1cbd 8325 de3c eb84 193d
00000130: d002 703e 2f4f a23d 0aec 08bc 746b cb3e
00000140: 9416 99bd 90e6 40be ec41 ffbd 6a0b 12bc
00000150: d64b 5cbd e02c 443d 9419 b0be e961 34be
00000160: 4847 143f 0117 cdbc 5cc0 5cbe ca18 043c
00000170: a8a4 9bbc ae20 bebe 1d02 a7be b8f8 923b
00000180: 4b0b aebd 767b a3be 5ff5 88be 4f63 4fbd
00000190: c23c e2bd e5e7 acbc bd4d 9dbe c253 febd
000001a0: 7f10 b63d 239c 003f 53f3 5ebc d812 e0bd
000001b0: 327e 7cbc 4aaa c1be ff88 73bd 0588 4a3e
000001c0: 971f 2bbe eb30 a5be 2415 f03d 6f91 33bd
000001d0: 38d8 1dbd a303 d3bd 4585 85be 088a 0f3d
000001e0: 760a 5bbc e467 843c 962e f8ba 2ae6 a539
000001f0: 208c 793d cb34 70bd 5877 c0bd a4c3 b4be
00000200: 6e8a c73c f94e 83be de82 38be 5683 a0be
00000210: e4fc 523c eac0 4ebe 52be d5be 693a 26be
00000220: 77e2 9a3e 39ca edbb 9799 483d 32b5 11be
00000230: ecb6 e33c b9f9 1c3e 8d37 55be d9b0 253d
00000240: 06aa 833c 0c6c 01bd c39c e23c 2f88 763e
00000250: c3b1 f63d 87b6 5b3d 5994 c83c 6f89 c73c
00000260: a2bd b73d 7d42 e23d 9414 e5bd fda6 46be
00000270: 66c8 a1be 9f0c 08be 0c9d b03e fb97 22be
00000280: 492b 40bd 2989 053f a8ba 2c3d 276c 603e
00000290: 543f b63d 25bd 823c a4ab 32bd 861a d83d
000002a0: 35c8 58bb bfbd ffbc e4c2 523d dc93 1bbe
000002b0: 6580 05be e67c 083e a52d 53be f4aa c9be
000002c0: 8351 c13e b468 4d3c c42a 1dbe b5aa acbe
000002d0: 8a77 0f3d d802 c0be 88ff c93e c753 5d3d
000002e0: e323 15bb 5097 03bd 142b 1d3e 8f20 0cbd
000002f0: 8c1b 0f3d d16e 3fbe 2be9 383d 90c4 ca3c
00000300: f131 913d db2e 9c3a adbc f33a 4728 12be
00000310: c83d be3c 793e c3be 3417 7b3d 2b37 233d
00000320: 80ff dd3d 28a3 ab3c fc6a 863c a3ed f8bd
00000330: 8aa4 863d a9c6 ac3d ed53 1a3d 8699 80bd
00000340: e918 28bc 9f80 3dbe b58b a93b cd72 76be
00000350: adb5 dabe ad5d e0bc 93db 413e 7d04 a3bd
00000360: 4a76 3cbd 85a8 f2bd 423f 55bd 3f58 e4be
00000370: b69a 16bd c66e 79be b942 803d 8e6b 31be
00000380: d465 843e 4d6b 9dbe 07a8 713e 4921 7ebe
00000390: 22c6 a43e 2979 7ebe 8329 9d3c 960e b53d
000003a0: fcc2 d73d 6eff bbbe 69e9 073e a712 a1bd
000003b0: 8101 d93d a9a4 933c 8b1c c1bd bdca d8be
000003c0: d280 a7bd 3221 a6bc 6cf7 943d ef9b 11bc
000003d0: 390d a1bb 8670 c23d cc7a 4f3d ac38 bd3d
000003e0: 20d9 1d3b acf5 5fbe 253b 34bb 1f7e dcbd
000003f0: 6998 fd3c 1198 493b f943 bd3d abe5 5cbd
0.03202366 0.07017071 -0.3365387 -0.05854347 -0.12226373 -0.0756968 0.025930308 -0.17402709
0.026037619 -0.01842158 -0.038455974 -0.15613429 0.013901453 -0.2412716 -0.37338442 0.27312994
0.0055091195 0.093255214 -0.30870008 0.091302134 -0.09127814 -0.030688224 -0.21054691 0.04142049
-0.25542212 0.031308316 -0.118547596 0.04555359 0.003048112 0.025062084 -0.074016556 0.17656514
-0.053410932 -0.09206931 0.022798657 -0.30068916 0.12685959 -0.31774154 0.04922881 -0.09712261
0.0971378 0.03506235 0.012358347 -0.17794439 0.006143371 0.11488908 -0.45793456 -0.051939376
-0.078103475 -0.10442871 -0.051822595 0.087027416 -0.1066702 0.030727547 -0.050697368 0.05174758
-0.3382533 0.044728734 -0.07104749 0.007693063 0.021174215 0.041078117 0.25330883 0.05333344
-0.035157796 0.008712454 0.11125941 -0.0352717 -0.30168065 0.31501812 0.0896657 0.26262066
-0.081410356 -0.038090505 0.027117496 0.037480276 0.23438573 0.07925259 -0.008357057 0.39730418
-0.074750096 -0.18837953 -0.124637455 -0.008913854 -0.05378326 0.04789436 -0.34394515 -0.17615475
0.57921267 -0.025035383 -0.21557754 0.008062551 -0.018999413 -0.37134308 -0.326188 0.004485216
-0.08498248 -0.3193013 -0.26749703 -0.050631817 -0.11046745 -0.02110667 -0.30723372 -0.12418319
0.08889865 0.50238246 -0.013607818 -0.10941094 -0.015410947 -0.37825233 -0.05945682 0.1977845
-0.1671127 -0.32263884 0.11722782 -0.04383987 -0.03853628 -0.10303428 -0.2607824 0.035043746
-0.013369193 0.01616282 -0.0018934782 0.00031642738 0.06092465 -0.058644097 -0.09397763 -0.35305512
0.024358 -0.2564619 -0.18018672 -0.313502 0.012877677 -0.20190778 -0.41746765 -0.16233219
0.30250904 -0.007256773 0.0489746 -0.14229277 0.027797185 0.15329637 -0.20821972 0.04045186
0.016072284 -0.031597182 0.02766264 0.24075387 0.12045624 0.05364087 0.0244848 0.024357526
0.089717165 0.11047838 -0.111855656 -0.19399638 -0.31598204 -0.13286065 0.34494817 -0.15878288
-0.04691628 0.52162415 0.042170197 0.21916257 0.08898798 0.015959332 -0.04362072 0.10551934
-0.0033078317 -0.031218408 0.051455393 -0.15193123 -0.1303726 0.13328895 -0.20622881 -0.3938824
0.377575 0.01253717 -0.15348345 -0.3372399 0.03502611 -0.3750217 0.39452767 0.054034974
-0.0022756986 -0.032126725 0.15348464 -0.034210738 0.03493838 -0.18694617 0.04514424 0.024751931
0.07089604 0.001191582 0.0018595658 -0.14273177 0.023222819 -0.381336 0.061301425 0.039847534
0.108397484 0.020951822 0.016408436 -0.121547006 0.06574352 0.08436329 0.037677694 -0.06279282
-0.010259845 -0.18506096 0.005174125 -0.2406723 -0.42716733 -0.027388418 0.18931417 -0.079598404
-0.046011247 -0.11848549 -0.05206228 -0.44598576 -0.036768638 -0.24358663 0.06262726 -0.17326185
0.2585894 -0.30745926 0.23599254 -0.24817385 0.32182413 -0.24850906 0.019184833 0.08840673
0.10535237 -0.36718315 0.13272633 -0.07864886 0.1059599 0.018022852 -0.09429272 -0.42342177
-0.081788674 -0.0202795 0.072737545 -0.008887275 -0.0049149063 0.094941184 0.050654218 0.09239325
0.0024085715 -0.2187106 -0.0027501073 -0.10766243 0.030956464 0.0030760805 0.092414804 -0.053929966

net.2.weight f4 [256, 256]
00000000: 2a60 a53d 2ec2 98bc 4565 043d 5526 cbbc
00000010: 166b 4a3c 03ef 0ebd 077f bcbd 74cc 4cbe
00000020: 0821 27bd f469 993c 07c6 10bd c498 173c
00000030: 01a9 953d af89 9dbd 1d11 933c d3ea 2fbd
00000040: 6480 b03c c6e6 e53a 69ca da3c 69ad dabc
00000050: 7dc7 e33d 2756 1b3c f53c 263e 86e9 4abd
00000060: fcb0 fa3d a392 8b3c f0c9 b33d cf5e 2b3d
00000070: 5066 b9be e577 963d 3c42 a0bc 54c4 88bc
00000080: 12e1 45bc 4c0a 9c3d c219 223d 4463 96bd
00000090: 7450 533d d125 fb3d 4c8b dbbc f31a 76bd
000000a0: 1e53 2b3d 93a8 0f3c f492 6e3d b463 acbb
000000b0: 955c 8c3d ed9a b03d 7c2d b3be 40bf f33c
000000c0: 4ff1 ab3d a1aa 52bd e6fb 88ba f36d 9b3c
000000d0: 782f 013c cc7d 45bc 0300 54bc 5841 5d3d
000000e0: 7019 e7bc 15f6 81bc 1b6f c1bc 6b12 f0bd
000000f0: c8d5 6e3b ab01 ec3c 91ef b43d 91d0 17bd
00000100: 0c99 b2bc e03f 943c fa8c d33d 5b0e 233c
00000110: 0139 bfbd ecc1 223d ac17 9e3d 8ad0 ad3d
00000120: f5d1 343c 1a57 bbbd f883 78bc b7ca d9bc
00000130: eb7e e3bd 62a6 813d 450e 8bbc 1e35 b8bd
00000140: 095d 78bd 0a72 943d 1fd2 f23a e65a 023d
00000150: 73e8 b13c cff7 4f3d 5fa4 94bd 9edb e43b
00000160: f3d1 43be 1cf3 7fbc f351 143e a582 0abd
00000170: 44ee afbb 7fa4 183c 06b8 1fbe 3bad 92bc
00000180: 47cb 2a3c df3a c0be c5eb aa3d 81be d73c
00000190: c8e1 ba3b 4009 8e3d 4b98 6bbd 7b36 893d
000001a0: e010 813a 5b52 453d 1c59 29bd 51db 253d
000001b0: d211 293c a71b 763e b8a6 4abd af91 bc3d
000001c0: a8ac 08be 830a 683d 9c63 2ebd 2ca7 68bd
000001d0: 2b43 71bb 94de ec3c 1b43 4fbd d1d6 82bd
000001e0: 38dd dc3c e4e2 95bd 101c d23c 7492 9e39
000001f0: 53ed 983d 99d2 e5bc 6244 e2bd 0133 a9bb
00000200: 4b69 883a 08c6 7abd 11d6 f03d 7c22 d8bd
00000210: 9c9a 2dbd 7802 2f3e ea09 d43c fcad 123e
00000220: cade a9bd 7c89 1dbc b90c 90be 777c 193c
00000230: aacc 433c 9bc2 13bc 24b1 cebc 32df d33c
00000240: 2358 383d 587f a03c 54da cebc f904 af3d
00000250: 5c79 34ba fcdd 21be da1e 893b d71f a73c
00000260: 20ec 6fbc ad81 15bd 4ac3 b2bc e359 0fbe
00000270: 1dd0 e6bd 4361 a23b 48a1 0c3e 3dd9 553d
00000280: 18c1 1d3c e3e0 b9bb b366 4dbe acec c43c
00000290: d730 b73c 2ae6 afbc e7e2 ec3d d9c2 e7bc
000002a0: 5c42 3f39 90d7 9cbb ac8a 663a 4a80 ccbc
000002b0: 6910 14bd 9f8d 6ebd d7ad 263e d328 223d
000002c0: 4c91 c2bd 163f 983a a176 9a3c 2ab5 b43d
000002d0: f707 d8bc c53c d03d 0166 0d3e 75d8 f3bc
000002e0: 43fe cabc bd6d 47bd 3e92 9c3d a1de 8ebd
000002f0: f773 aebb f334 453d 56f3 ac3a f7b1 e53c
00000300: 7635 afbd 0552 d23d d605 10bd 6e8e 083e
00000310: dceb 99bb 47b1 08be df70 93bd 75e0 853c
00000320: 23c6 54bc 0858 a93c 182b a5bc d245 123e
00000330: 88df 2b3c e4c5 ccbd 8455 95bd 5a04 09bd
00000340: 7914 033c 25f1 a4bd 7731 573c 0c89 7fbc
00000350: b660 c1bd 9883 c23b 62de 8b3a 184c 653d
00000360: 79a6 033c cc0e aa3c 1958 823b 2849 4e3e
00000370: 7ae0 bd3b 11b1 68be 1528 60bc 24e5 3a3d
00000380: 1852 813b 0543 033e cfc3 19bd dbc3 4b3e
00000390: 7884 3c3c 1c6a e7bb a430 043e 0bc8 433d
000003a0: 2b22 423e 861c b13c d17f adbc 8101 043d
000003b0: b0a8 923b c833 8ebc 2bba 18bd ad14 4fbe
000003c0: f77a 6a3c 394a 6cbb 494e 263e 5e22 d73b
000003d0: 2a87 0abb e11a 1cbd fd0d 6abd 6463 993d
000003e0: 2f61 993c 14a8 8ebc 26ef 50bd 92c7 4a3d
000003f0: e537 00bd 04f7 333e 2485 cc3b 6337 d7bb
0.080749825 -0.01864728 0.03232314 -0.024798552 0.012354633 -0.034895908 -0.09203916 -0.19999868
-0.040802985 0.01872728 -0.035345104 0.009252731 0.073076256 -0.07692277 0.017952496 -0.042948555
0.021545596 0.0017540089 0.026707845 -0.026694017 0.11122034 0.00948099 0.16234191 -0.04953911
0.12240788 0.017037695 0.08778751 0.041838463 -0.3621087 0.07347087 -0.019562833 -0.016695179
-0.012077587 0.076191515 0.039575346 -0.07343152 0.051590398 0.12263072 -0.02679982 -0.060084295
0.041827314 0.008768219 0.058245614 -0.005260909 0.06853596 0.086233 -0.3499564 0.029754281
0.08395635 -0.051432256 -0.0010451048 0.018973326 0.007884853 -0.012053918 -0.012939456 0.054017395
-0.028210372 -0.015864411 -0.02361255 -0.11722263 0.0036443342 0.02880939 0.08834756 -0.03706414
-0.021801494 0.018096864 0.103296235 0.009952153 -0.093370445 0.03973572 0.07719359 0.08487041
0.011036386 -0.09147473 -0.015168183 -0.02658592 -0.11108192 0.06330563 -0.016974578 -0.08994506
-0.0606356 0.07248314 0.0018525756 0.03182497 0.021717286 0.050773438 -0.07257914 0.006984188
-0.19123058 -0.015621927 0.14484386 -0.033816 -0.0053689796 0.009316563 -0.15597543 -0.017904868
0.010424442 -0.37544915 0.08345751 0.026335957 0.0057031848 0.06935358 -0.057518285 0.066998444
0.0009846948 0.048174243 -0.041344747 0.04049236 0.01031919 0.24033986 -0.0494754 0.092074744
-0.13347113 0.05665065 -0.042575464 -0.056800053 -0.0036813717 0.028914727 -0.050601106 -0.06388629
0.026960954 -0.073186666 0.025648147 0.00030245224 0.07467141 -0.028054522 -0.11048199 -0.005163551
0.0010407356 -0.061224014 0.1175958 -0.105534524 -0.042383775 0.17090786 0.025883634 0.14324182
-0.08294447 -0.009615298 -0.28134707 0.009368054 0.011950651 -0.0090185655 -0.025230952 0.025863264
0.04500593 0.019591972 -0.025250591 0.0854587 -0.0006884539 -0.15807337 0.004184586 0.020400925
-0.014643699 -0.03650062 -0.021821637 -0.13999133 -0.11270163 0.004955442 0.13733399 0.052209128
0.009628557 -0.0056725605 -0.20058708 0.024038635 0.022362156 -0.021472055 0.11566716 -0.028291153
0.000182399 -0.0047864392 0.00087944674 -0.024963517 -0.036148462 -0.05824053 0.16277252 0.039589714
-0.095003694 0.0011615481 0.018855395 0.08823617 -0.026370985 0.10167841 0.13808443 -0.0297663
-0.024779445 -0.04868864 0.07645081 -0.06976057 -0.0053238827 0.0481462 0.0013195078 0.028038962
-0.08555119 0.1026955 -0.035161816 0.13335583 -0.004697306 -0.13348876 -0.07199263 0.016342381
-0.012986693 0.02067186 -0.02016215 0.14284447 0.010490306 -0.09998682 -0.072917014 -0.033451416
0.0080004865 -0.08053807 0.013134352 -0.015596639 -0.09442274 0.0059360974 0.0010671134 0.05598077
0.008035296 0.020759009 0.003977787 0.20145094 0.005794582 -0.22723795 -0.013681431 0.04562868
0.003946554 0.12818535 -0.037540253 0.19898932 0.011506192 -0.00706221 0.1290918 0.047798198
0.18958347 0.021620046 -0.021179112 0.032227997 0.0044756755 -0.017358676 -0.03728692 -0.20222731
0.014311544 -0.0036054982 0.16240801 0.006565376 -0.0021137693 -0.03811157 -0.057142247 0.074896604
0.018723099 -0.01741413 -0.05100932 0.04950673 -0.031303305 0.17574698 0.0062414575 -0.006567882

net.2.bias f4 [256]
00000000: 6532 aebc 5ba0 b6bb dc7e 4dbe be5a 1bbf
00000010: 3080 8a3c 0413 4fbe 76d8 13bd 1cc6 60bd
00000020: b6a6 9a3c 846b 79be 28bf 113d 285d 343d
00000030: 7cbc e2be caef 6bbc 3499 dbbe 4704 e53c
00000040: a1d3 f4bc dbb6 f0bc 0075 65bc a2e6 07be
00000050: 8609 a3bc 0e0c f439 7b19 893c 3637 52bd
00000060: 2a50 5ebe 81b5 52bd bddf 96ba 00ae e4bb
00000070: 09c0 56b7 6f49 cd3d a772 48bd a487 8abe
00000080: 1d06 08bb 65f2 c7bc e692 b83b 1416 87bc
00000090: bea5 343d bcc2 9fbe d524 00be 1f3a 04bd
000000a0: 9a04 edbe 84eb a7bd 0d7f 88bd 8a68 b9bd
000000b0: bb6e cfbd 785e 333d eea2 6fbc 9723 ddbd
000000c0: 374a 90bc d792 06bf ff5c bcbc 691e 0c3d
000000d0: bc3a dabc c837 00be d798 52bd c0e4 8abb
000000e0: 626a 183c ee9d 093d d05b 223d eaba dc3b
000000f0: 8234 fcbc a063 133c deab dabc 5e1f 193d
00000100: c0f9 1d3b 178b 1abc ed00 543c 794c 9d3b
00000110: e2b1 a5be a019 113d 6e38 2f3d c7eb babe
00000120: 800a a0bc e00a fcbc ac6e 08bd 9b03 e6bc
00000130: 831f 48be a3db 11be 676a f4bd 0595 40bd
00000140: 0c2c 96ba af7b 7cbd 0883 36bd c1d2 30bc
00000150: f875 023d 25a9 0fbe 87c3 34bc a235 d0bc
00000160: 7436 14bf 8e96 73bd 854b 11bd 9e02 a4bc
00000170: 1cdf b33c c8c9 aabc e45c 1ebd 745f 8abc
00000180: 3194 793d 55af c73b 6387 6dbe b302 c2be
00000190: 5fba 02bd 3f6f d2bc d2e7 2e3c 48a8 4b3c
000001a0: 942c 833d c128 47bd d77a b1bc 8216 a53c
000001b0: e5a5 69bd 9c9d 04bd f988 a0bc 0ec9 cdbc
000001c0: 6b0d 09bd 7cca a13b d359 11be 68b5 d2bd
000001d0: 1458 fabc 815e 76bd 20eb a6bb f879 8bbe
000001e0: 6f1b c6be b345 9bbd d3b8 35bd 1bac c5bd
000001f0: 91d2 77bd 84a0 c3be 1330 013d b475 d9bc
00000200: 1420 b0bc dc95 18bd 0c91 1b3d 2cab d2bc
00000210: 7178 88bd 6ee2 27be 8fc5 de3a 9100 24bd
00000220: 6b61 dabc 25ca d0be b0d8 7b3b 9919 dc3c
00000230: b3fb 43bb eb3a a23b a2a4 b3bc bbd9 27ba
00000240: 4dce 1cbc bf0c 6cbc 654c 74bd a22b 2dbd
00000250: 0e4d 2cbd 2b1d 75be e78b b4bc 7041 d5be
00000260: 1a89 3a3c 990e f4bc cad1 41bd 3eb7 86bd
00000270: f673 a1bc 6dc8 503c aa1a c8bc ee2a ab3c
00000280: 122e 74bc 2259 a6ba 42b1 a63c c90e 5abc
00000290: efe7 8fbd 4681 5d3d bf38 73bd 5159 49bb
000002a0: 5df0 c5bd 70e1 90be 4f71 cb3c e4ab ea3c
000002b0: 8178 6fbe 5b20 abbe 04f5 76be 95b4 303c
000002c0: 8067 44bd 4255 e6be b330 9eba fe44 8dbc
000002d0: e0a8 ecbb 63d4 e0bd afe9 23bd d973 e8bb
000002e0: d5c7 d0bc 67cb d13c 2464 2bbd 0a22 98be
000002f0: 326a 25bd afee 503c 1bed a1be 0181 e23c
00000300: 3525 1abf f273 c0bc f121 9fbe 7dd7 41be
00000310: bfb6 ae3c 0cd6 a1bd 061d 91be 6bf9 05bc
00000320: c87f 613c d406 81bc 8db1 683b c1c2 efbc
00000330: 16e5 ffbe f916 d23b 2aa4 d5be 686f b13b
00000340: d893 cebe c8b3 bdbd 7794 743e 30fd c23c
00000350: 5d2f 033d 5eb1 173c a031 333d 4c8c dcbe
00000360: 39a2 29be ad5e 7dbe 8d8b 6c3d 16ee 0abd
00000370: 9215 99bc bb57 d2bc 2a63 68bd ab49 4bbb
00000380: b7c8 a03c 8ee8 c0be cc1c 81bc a3fd 23bd
00000390: 8a8a 65bd c813 e1be b063 f4be c715 45bd
000003a0: 3a63 6ebd 6caf c13c bb86 cabc 3f7f 29bd
000003b0: 04d4 6b3c 525b 05bc d8b8 0ebd e283 313d
000003c0: a884 38bd 267c 89bd e94c 5bbd 17ff a4bd
000003d0: 11e5 f8bc 2fbb c6bd aa0c 2cbd 2aaa 37bd
000003e0: ca7a 19bd 0ec7 0dbd a0a1 5dbc 08af ca3d
000003f0: c589 54bd 4d9d b4bd 06bc bebd 977b 74bc
-0.021264264 -0.005573315 -0.20067924 -0.60685337 0.016906828 -0.20222098 -0.036095105 -0.05487643
0.018878322 -0.2435742 0.03558269 0.044034153 -0.44284427 -0.014400432 -0.42890322 0.027956141
-0.029886069 -0.029384067 -0.014004946 -0.13271573 -0.019902002 0.00046548288 0.016735783 -0.051322185
-0.21710268 -0.051442627 -0.0011510771 -0.00697875 -1.2800106e-05 0.10023772 -0.048937466 -0.2705661
-0.0020755597 -0.024407575 0.005632746 -0.01649002 0.044103377 -0.31203258 -0.1251405 -0.03228199
-0.46292573 -0.08199218 -0.06664858 -0.09053142 -0.10128542 0.043791264 -0.014626248 -0.10797804
-0.017613513 -0.5256781 -0.022993563 0.03420869 -0.026639335 -0.12521279 -0.05141529 -0.004238695
0.009302707 0.03359788 0.03963834 0.006736149 -0.030786756 0.00899592 -0.02669328 0.03738343
0.0024105161 -0.009432576 0.012939674 0.004800376 -0.32362276 0.03542483 0.042778425 -0.3650801
-0.019536257 -0.030766904 -0.03330867 -0.028077891 -0.19543271 -0.14243941 -0.11934357 -0.047017116
-0.0011457219 -0.06164139 -0.044558555 -0.010792435 0.031850785 -0.14029367 -0.0110329455 -0.0254162
-0.5789559 -0.059469752 -0.03547241 -0.02002078 0.021956973 -0.02084817 -0.038662806 -0.016891219
0.060932342 0.0060938993 -0.23196177 -0.37892684 -0.03191602 -0.025687812 0.010675387 0.012430258
0.06404987 -0.04862285 -0.02166502 0.020152334 -0.057042975 -0.03237687 -0.019596564 -0.025120284
-0.033460062 0.004937468 -0.14194421 -0.10288507 -0.030559577 -0.06014872 -0.005093947 -0.27241492
-0.38692805 -0.075816534 -0.044365715 -0.09651967 -0.060503546 -0.382084 0.031539988 -0.026545383
-0.021499671 -0.037252292 0.037980124 -0.025716387 -0.066635974 -0.1639497 0.0016996133 -0.040039603
-0.02665778 -0.40779224 0.0038428716 0.026867675 -0.0029904663 0.004950871 -0.021929089 -0.0006402989
-0.00957067 -0.014407336 -0.059643168 -0.04227794 -0.042065673 -0.23936908 -0.022039367 -0.41651487
0.011385227 -0.029792117 -0.04731921 -0.065779194 -0.019708615 0.012743098 -0.024426777 0.020894494
-0.014903562 -0.0012691359 0.020348195 -0.013309189 -0.0702666 0.054078363 -0.05938029 -0.0030723403
-0.09664986 -0.28296995 0.024834303 0.028646417 -0.23385812 -0.33423123 -0.24116904 0.010785242
-0.047950268 -0.44986922 -0.0012068957 -0.017244812 -0.00722228 -0.109780096 -0.04001778 -0.0070938882
-0.025485912 0.025609685 -0.04184355 -0.2971347 -0.04038448 0.012752219 -0.3162621 0.027649404
-0.60213023 -0.023492787 -0.31080583 -0.18929859 0.021327375 -0.07902154 -0.28342456 -0.008177142
0.013763376 -0.015750326 0.003550622 -0.02926767 -0.49979466 0.00641143 -0.4172681 0.005414892
-0.4034717 -0.09262806 0.2388476 0.02380237 0.03202759 0.009258596 0.043748498 -0.43075788
-0.1656579 -0.24743147 0.057750273 -0.033918463 -0.018687043 -0.025676599 -0.056735195 -0.0031019251
0.019626958 -0.37677425 -0.015760802 -0.04003681 -0.056040324 -0.43960404 -0.47732306 -0.04811647
-0.0582001 0.023643218 -0.024722448 -0.041381117 0.01439381 -0.008139448 -0.03484425 0.043338664
-0.045048386 -0.067131326 -0.053540144 -0.08056467 -0.030382665 -0.09703671 -0.042004265 -0.044840015
-0.037470616 -0.03461366 -0.013527304 0.09896666 -0.0518892 -0.08819065 -0.093132064 -0.014922044

net.4.weight f4 [256, 256]
00000000: 662b de3c 0aa7 b43d 0c35 723d 9b10 b73d
00000010: 2ea8 663d b820 813e 2e75 cfbc 80ad aebb
00000020: 163e bdbb 98aa 2fbe 0967 823c 523d 8e3d
00000030: 35d7 35be db10 92bc 9b80 90be 26d7 c03d
00000040: 29a9 013d 5c0a febc 7f94 373d c871 c8be
00000050: e0b0 c03d 97fb 953d 2b7c cc3b a988 8dbc
00000060: 57c1 c8bd 6352 81bd 8408 773b b195 713c
00000070: a353 8e3d 2064 b83d 18ff 853d 49af 93be
00000080: ddfb 383d 36a7 ab3d bee9 53bb 6bd7 3b3d
00000090: e03c be3d c190 5dbe 4e15 7c3b 8c62 043d
000000a0: 2396 cfbd 6472 9cbc d961 f4bc 26dd 4f3c
000000b0: dcd0 4dbc 41d1 143d 7c7a 753d 6ad5 35be
000000c0: 704a 293d 638b 213e 7c8d 8b3d 196b 473d
000000d0: d06e 53bd 6a9f aabd b3bc a73c 35c0 813d
000000e0: c0c8 5ebb 6967 4abc 006e 8cbc 6ccc 913d
000000f0: 3271 0b3d 214c b13d 5fb2 b7bd 644d 323d
00000100: 7ec6 d93c 0c0b d23d a7c5 903d 437e 4d3d
00000110: 452c e9bd 3337 b13d 5bac a33d cb6b 943d
00000120: 8c35 a23c 5fd0 3f3c d6cd 223d 30d8 4b3d
00000130: 556d 3fbe 76d7 383e ae52 c23d 17c6 8dbc
00000140: a5c1 7b3d c42c 9f3d 5ee0 bc3d 9a13 1f3a
00000150: 2168 8c3c cd27 3b3d 340f 1d3d 036b 043d
00000160: c7db 763e aff7 a0ba 6612 363b 1450 653d
00000170: c6ac 6d3a b689 3abd a261 943b c1f7 b73c
00000180: f0b8 833d 84a8 613d 8bb5 863c 68ea 0abe
00000190: 13e9 5d3d 298b 24bc 9d91 573d f13b 223b
000001a0: 5386 aa3d 370a d4bc 0bef 4b3d 73be be3d
000001b0: ed8f 2ebd ac65 753d 003a 22bd 5a2c 263c
000001c0: b98b d4bd 5f30 ae3d 19a1 413b 65eb 173d
000001d0: eb74 613b cf98 423c 47dd 4abd 8139 f23d
000001e0: 1241 1e3d 2227 163d 52a2 9e3c 7fda ecbd
000001f0: 6638 c3bc 1304 84be fd14 e63d 9fe9 8b3c
00000200: 0e30 c4bc dffa df3d ee53 45be 6307 46bd
00000210: 69ce 403d 538d f53d 8edf 573d f80d dabc
00000220: 7ad1 ecbd b7dc 923d d2a9 c0bc 939a 00bd
00000230: 106c 9c3d 0f2e d63d b4f5 573c e1a1 f33c
00000240: 99f5 df3d f0e0 b03c 37ea 0a3c 4ff4 fcbc
00000250: d1e6 e0bb eecf febe 3f62 21bd 1232 8ebe
00000260: 6c0b 593d 298a 253c f477 da3c 66ad 5f3d
00000270: 70e6 383d 0f9d c53d 43a6 f93d 9972 623c
00000280: c9d5 c9bb e35c 12bd ef6a e73c b5d4 14bd
00000290: 31c0 edbc 3046 b73d 8d5e 4abd e9e2 873d
000002a0: 967d 673d 3548 87be 0c39 513d 3cd5 54bb
000002b0: 6b61 18be d421 7c3e 7e45 dcbe 1c80 c43c
000002c0: 5c66 74bb 00d7 4e3e b90d 33bd f4c4 0dbb
000002d0: 125b 293d 02b5 8a3d c95f a03c 3bfd bd3d
000002e0: 0c9f 74bc fb8f 533d 0e2e 293d d391 ddbd
000002f0: baf0 7bbc 01ed 313d 0c78 cfbc f96b ad3d
00000300: a69a 13bd 84da 5a3c f0ea 17bd 1465 9fbd
00000310: 2073 d7bc daa8 fe3d b5d5 83bd 5dce 523d
00000320: 0b22 453b a546 2c3d 20b5 ce3c e1ac aa3b
00000330: 5044 3abe a55e c73c 3750 2d3e 62d6 723d
00000340: bb8d d8be bc68 473d 537e 013e 3cdc c83c
00000350: e56f 75bc d868 24bd 3a92 2fbf 87ee 7ebd
00000360: 8eda 5c3d 3ad0 0ebe c93c 79bc ff91 56bc
00000370: 0296 3abd c870 333b 75ea b33c 8020 8a3b
00000380: 6d29 853d c933 b4bd 1e7c 093d 40bb 70bb
00000390: 5aed 853d f80c 03bd c9a5 673e e33d 0c3d
000003a0: f565 ad3c 75ed cf3d 2189 40bc 7380 f13c
000003b0: be58 863d 20dc ddbd d610 8c3d 1ddf e33d
000003c0: eba5 c7bc a12a 833d 08d6 d8bc 8c96 303d
000003d0: c8a4 fabc 8ba9 323e 3b01 ceba 260d 82bc
000003e0: 1af4 f93c 8e51 613d cf8a 40bd 6a43 133e
000003f0: 9bfa f6bc ac70 b43d fbd2 12bc f8a3 2bbd
0.027120303 0.08820923 0.05913262 0.08938714 0.056312732 0.25220275 -0.02532443 -0.0053307414
-0.0057752235 -0.1715492 0.015918272 0.0694529 -0.17757876 -0.017830303 -0.28223118 0.09416036
0.031655464 -0.0310108 0.04481935 -0.39149308 0.09408736 0.073233776 0.006240388 -0.017277079
-0.09802502 -0.06314542 0.0037694285 0.014745162 0.06949546 0.09003472 0.06542796 -0.2884467
0.04516207 0.08381502 -0.0032335366 0.045859735 0.09288955 -0.2163725 0.0038464847 0.032320544
-0.10136058 -0.019097514 -0.029831814 0.012687003 -0.012562003 0.036332373 0.059931263 -0.17757192
0.041330755 0.15775828 0.068140954 0.04868612 -0.05161935 -0.08331187 0.020475721 0.06335489
-0.0033994168 -0.012353756 -0.017142296 0.071190685 0.0340435 0.086570986 -0.089695685 0.043530837
0.026583906 0.10256013 0.07068949 0.05016924 -0.11385397 0.086531065 0.079918586 0.072471224
0.019800924 0.011707394 0.03974708 0.04976672 -0.1869405 0.18050942 0.09488426 -0.01730637
0.06146397 0.0777221 0.09222482 0.00060682895 0.017139496 0.045692254 0.038344577 0.032328617
0.24107276 -0.0012280847 0.0027781962 0.05598457 0.0009066578 -0.045541488 0.0045282403 0.022457005
0.064317584 0.05509235 0.016443988 -0.13565981 0.054177355 -0.010042944 0.052629102 0.0024754966
0.083264016 -0.025883777 0.049788516 0.09313669 -0.042617727 0.059911415 -0.039606094 0.01014241
-0.103782125 0.0850532 0.0029545485 0.037089724 0.0034401964 0.011877253 -0.049527433 0.11827374
0.038636275 0.036658414 0.01936451 -0.11565112 -0.023830604 -0.25784358 0.11234472 0.017079173
-0.023948696 0.10936522 -0.19270298 -0.04834689 0.047071848 0.11989846 0.052703433 -0.026617989
-0.11563392 0.07171004 -0.023518477 -0.031397413 0.07637799 0.10458004 0.013181139 0.029740276
0.10935516 0.021591634 0.008478693 -0.030878214 -0.006863453 -0.49768013 -0.039400335 -0.27772576
0.05298941 0.010103741 0.026668526 0.054608725 0.045141637 0.09649097 0.12189915 0.0138212675
-0.0061595184 -0.035733115 0.028249232 -0.036335666 -0.029022308 0.08948934 -0.049406577 0.066350766
0.056516252 -0.26422277 0.051079795 -0.003247573 -0.14880912 0.2462228 -0.43021768 0.023986869
-0.0037292456 0.20199203 -0.04371426 -0.0021632286 0.041346617 0.06772806 0.019576924 0.092768155
-0.014930498 0.051650982 0.041303687 -0.108188294 -0.015377218 0.043438915 -0.025325797 0.0846786
-0.036036156 0.013357762 -0.03708929 -0.07782951 -0.026300013 0.1243455 -0.06437246 0.051466335
0.0030080106 0.04205956 0.025232852 0.005208597 -0.18190122 0.024337122 0.16925131 0.059286483
-0.42295632 0.048683867 0.12645845 0.024519078 -0.014980291 -0.04013905 -0.685825 -0.062239196
0.053919367 -0.1394662 -0.015212246 -0.013096332 -0.045553215 0.0027380455 0.021962384 0.0042153
0.06502042 -0.0879894 0.033565633 -0.0036732703 0.06539412 -0.03199479 0.22621836 0.034238707
0.021166781 0.10152713 -0.011751444 0.029480195 0.06559895 -0.10833001 0.06839149 0.1112654
-0.024371108 0.06404615 -0.026469246 0.043112323 -0.030596152 0.17447488 -0.001571692 -0.01587541
0.030511905 0.055009417 -0.04700738 0.14381185 -0.030148795 0.08810553 -0.0089614345 -0.04190442

net.4.bias f4 [256]
00000000: 01af 75be 1255 1fbd a3c7 a6be 94c6 afbe
00000010: eabc 59bd 7491 80bd 60a4 6dbe 4a92 44be
00000020: 0f64 72bd a289 38bd 74f6 54bd 8bdc 8abc
00000030: 639e bcbe 8875 87be dc00 58ba e6d8 aebe
00000040: 4c17 94bd e4f6 a7be efad 95bd 420d 5abc
00000050: 65d2 14bf cc7a 3cbe c79f babe 84a9 a5be
00000060: 22c8 41be 1d1d 25bb ff4b 94bd b027 653c
00000070: 8b16 3fbd 8965 a2bc 9312 cdbe 11f3 c5be
00000080: 63a9 4b3d 298e e5bd 69ec c5be ada4 d8be
00000090: f185 aabc a171 a5bc 2332 d5be 0ecd bebe
000000a0: 9451 94be 819e 20bf 81a4 713e 3b13 cabe
000000b0: 3950 80be 331e 36bd bb2c b3be c677 b5be
000000c0: b1f9 b8be df43 72bc 8096 85be 7fc0 333b
000000d0: 8017 4fbd ab1b 5ebe 1be9 07bf c941 2bbd
000000e0: 05b1 a7be 8258 4cbc 6faf 2cbd e98e e0be
000000f0: fff4 43bd dbdd bebd 18c7 97bd 1d08 12bd
00000100: aec2 c1be 0343 3f3b 55b8 e8be 0479 853d
00000110: 7362 a8be 8173 b9be 85c9 b33a 3493 24bd
00000120: 61a3 a5be 755b a63d 0296 2ebd 8cee bdbe
00000130: 0531 9fbd f000 71bc c7db 07be 7d33 d4be
00000140: 61fe f5be f53c d3bd 7043 593b e411 8fbe
00000150: 1964 b8be b391 0dbf d079 03bd 0379 f3bd
00000160: 2fe1 2abf bba1 debe 1e4e 04bd 966d 46be
00000170: df4e 4f3d 76bf 00bf 50f0 dfbe 5867 03bf
00000180: d5c0 efbc b50f 7cbd 2bbc 41bd 9597 d9be
00000190: 1720 0b3b 62cc b0bc 1c76 9ebe f0ef cfbb
000001a0: 7a49 22bf 875b b3bc 81b6 0abb d7fc c4be
000001b0: f40d 4bbd a394 cfbe 1444 cc3c 1799 cbbc
000001c0: bacd f2bc 4f3c a4be f02d 50bd 5b79 d4be
000001d0: e10e 05bf 1c41 aebe 844a 02bd 2587 a3be
000001e0: 3287 5dbc 0cdd b5be 5902 8bbe d7b0 cbbe
000001f0: e39c d4be 96b4 a2be fd9f 9cbe ff2f 4b3e
00000200: 8a64 943e c30b 353d c43d 95bc c84e 90bd
00000210: e3ac 2dbd c360 ccbc f69b d6bd 8e5d 48bc
00000220: 7943 1fbf c23b 08be 5052 dabe ddee 84bd
00000230: 0475 a0be 2a0a 66be efea d3be 9395 debe
00000240: fe6c d2be f075 cbbe 3186 d5be 2f2e adbe
00000250: b85e 1dbf 7c41 6ebd b066 aebe afac a5be
00000260: 613c f8be 3bd0 b8be 71e1 f7be e503 89bc
00000270: 9806 a0bd 866b 553b beb2 dbbe c081 a4bd
00000280: 1d1b 06bd dfc1 8cbe c6dc 86be e198 82bd
00000290: 87de 58bc c127 bbbe 3805 2fbd f47a b9be
000002a0: 271f 6dbe 4810 19be 787b 0cbd d4ec a1bd
000002b0: 585f dabe 332c c53b 1a50 d1be eb53 81bd
000002c0: 39fd aabe a44b 05bd b85b b7be d366 d3be
000002d0: 22f1 c8be 20ec 89bd 391b 3ebd 3afd cabe
000002e0: 167d 28bc 74de a5be 56b0 b7be 174d b9be
000002f0: 0c18 d1bc 1c5c 86be 5f1d d9bc d519 c9be
00000300: 1f18 b9be ae01 aabd 2603 d5be 6a8b 143d
00000310: cff8 9cbe 73b9 6ebd 86d5 c2be c2be b9be
00000320: 0299 c2be 0b95 1a3c 6eb2 0cbd 0ae4 fdbe
00000330: e0f0 61bd 1af1 aabe e519 8abe cf86 b9be
00000340: 5f5c f2bd c655 86bd 72d6 c9be 73f1 cfbe
00000350: 79db 5fbe c90a b9be c458 b7be d70d 8abe
00000360: 46bb 6fbd 6d2f bcbe 970f d1bc 26ea d1be
00000370: f4b5 34be e844 7ebd a6ea b5be 3b0b cabe
00000380: 4e98 9cbe b596 7cbe 3bcd a6be c84f 13bd
00000390: ad32 17bd f277 f8be a1d3 66bc 2b18 bfbb
000003a0: dc76 dbbe a988 d4be cd17 01bc a4e7 c1be
000003b0: acad cbbe 64fe 7dbe 2de8 2bbd 9e88 a7be
000003c0: 3250 b7bc 88cf 42bc 7cea 36be eda8 f0bb
000003d0: 73f5 a73c 2c99 86be 2e7c 9dbe 0ea9 4bbf
000003e0: f3da 89be 3289 273e fea7 75bd 84a9 d3be
000003f0: 1949 b2be ddbd c3be 95de 1bbf e0ad 07bc
-0.2399254 -0.03889949 -0.32574186 -0.3433119 -0.053158678 -0.06277743 -0.23207235 -0.1919643
-0.059177455 -0.045053132 -0.05199285 -0.016950866 -0.3683959 -0.26456857 -0.0008239874 -0.34149855
-0.07231006 -0.3280555 -0.07308566 -0.013308825 -0.58133537 -0.18406218 -0.36450025 -0.32355893
-0.18924001 -0.0025194355 -0.072410576 0.013986513 -0.046652358 -0.019823806 -0.40053234 -0.38662007
0.049722087 -0.112087555 -0.3865693 -0.42313138 -0.020815821 -0.020195784 -0.41639814 -0.3726582
-0.2896849 -0.6274186 0.2359791 -0.39467797 -0.25061205 -0.044462394 -0.34995064 -0.35442942
-0.36128 -0.01478669 -0.26091385 0.002742797 -0.05055952 -0.21690242 -0.53090066 -0.041810784
-0.32752243 -0.012472274 -0.042159494 -0.43859032 -0.04784107 -0.09319659 -0.07411021 -0.03565227
-0.3784384 0.002918423 -0.45453134 0.065172225 -0.3288761 -0.36220935 0.0013716674 -0.040179446
-0.3235121 0.08122913 -0.042623527 -0.3709606 -0.077730216 -0.014709696 -0.13267432 -0.41445532
-0.48045638 -0.10314361 0.0033151768 -0.27943337 -0.36013868 -0.55300444 -0.03209859 -0.118883155
-0.6674985 -0.43482766 -0.03230106 -0.19377741 0.050612327 -0.50292146 -0.4373803 -0.51329565
-0.029266754 -0.061538417 -0.04729859 -0.4249846 0.0021228844 -0.021581832 -0.30949485 -0.0063457415
-0.63393366 -0.02189423 -0.002116591 -0.38474151 -0.049573854 -0.40543088 0.024934806 -0.024853272
-0.029639114 -0.32077262 -0.05082506 -0.41498837 -0.5197583 -0.3403405 -0.031809345 -0.31939045
-0.013521003 -0.35520208 -0.2715023 -0.39783356 -0.41525945 -0.317784 -0.3059081 0.19842528
0.28982955 0.04420067 -0.018217929 -0.07046276 -0.042401206 -0.024948483 -0.10478966 -0.012229336
-0.6221233 -0.13304046 -0.42640924 -0.06490872 -0.31339276 -0.22464815 -0.41390178 -0.4347349
-0.4109878 -0.39738417 -0.41703942 -0.33824298 -0.61472654 -0.05816792 -0.3406272 -0.3235831
-0.48483565 -0.36096367 -0.48414186 -0.01672549 -0.07813758 0.003256531 -0.42909807 -0.0803256
-0.0327407 -0.27491662 -0.26340312 -0.063768156 -0.013236648 -0.36553767 -0.042729586 -0.36226618
-0.23156415 -0.14947617 -0.034297436 -0.079064995 -0.42650867 0.006017232 -0.40881425 -0.06314834
-0.3339632 -0.03254284 -0.35812163 -0.41289386 -0.3924647 -0.067344904 -0.04641268 -0.39646322
-0.010283729 -0.3239628 -0.3587672 -0.36191627 -0.025524162 -0.2624215 -0.026503263 -0.3927752
-0.36151215 -0.083011016 -0.41603965 0.036265768 -0.30658576 -0.058282327 -0.3805353 -0.3627835
-0.3800736 0.009434949 -0.03434985 -0.49588042 -0.055161357 -0.3338707 -0.2697288 -0.36235663
-0.11834025 -0.06559329 -0.3942142 -0.406139 -0.21861066 -0.3614104 -0.3580991 -0.26963684
-0.058528207 -0.36754933 -0.02552013 -0.40998954 -0.17647535 -0.062077433 -0.35530585 -0.39461693
-0.3058495 -0.24666865 -0.32578453 -0.035964757 -0.036913563 -0.4852901 -0.014088542 -0.0058317385
-0.4286412 -0.41510513 -0.00787921 -0.3787204 -0.3978094 -0.24804074 -0.041969467 -0.32721418
-0.022377107 -0.0118903 -0.17862886 -0.0073443563 0.020502781 -0.26288736 -0.30758804 -0.7955483
-0.26924857 0.1636093 -0.059974663 -0.41340268 -0.34821394 -0.38230792 -0.6088651 -0.008281201

net.6.weight f4 [256, 256]
00000000: f394 ba3d a2f9 5dbc a886 fbbc 5ab7 d2b9
00000010: 1839 493d 811a be3c 7ac8 59bd 1ade 4bbd
00000020: 1652 213b 444e 05bd 7054 c13d 8c09 e1ba
00000030: a5e7 813c 8744 85bd feb4 1abc 7ed6 133d
00000040: 4a08 033d 65cb a2bd 515e e3bb 4bb0 8ebd
00000050: f509 75bd 6540 0fbd 22ec 56bc b4c8 5cbc
00000060: f927 83bc 4e82 97ba 2b40 793c d02f 0cbc
00000070: 5b0c 55bd f986 ffbb 8436 6bbd 8f41 a63c
00000080: 2546 e5bc 307b 7abd 1ea6 9a39 8d44 8ebc
00000090: a68c 693d d6b7 83bc 422b aabd a944 36bc
000000a0: 3b3f 73bd 44ff f5bd 647f 423c f7cc 2e3d
000000b0: f833 8c3d 4f1f 4c3d b73c 14bd 8a24 bbbc
000000c0: ea7a d1bb d74d 69bd 6da0 c13c 2f0c 88bb
000000d0: 33d4 3bbd 75ad f8bc c9b3 c03d 3feb af3c
000000e0: e7e3 d5bc 8034 e5bc 8e4e 963c a17b cbbc
000000f0: 2398 2ebd 94b4 58bd e033 2bbd 504a 673c
00000100: 3c1f 873c 3cf3 d33c 4fac 1dbd 71e9 dfbc
00000110: e0a1 763d 21b2 93bd 06ed 173d ce19 4abc
00000120: d6db 2a3d 31c4 463c 962a 4ebd 465b c63c
00000130: bde5 e4bc c2bf eabb 63ee efbc 2240 b4bd
00000140: 8a27 58bd 6278 903c 2234 44bc 2eff 4dbd
00000150: f165 e2bc eafc d33d fb15 823c 445a d63c
00000160: b100 99bd 13f8 8a3d 09a3 9cbd 13a0 b5bc
00000170: cea8 02bd ad92 75b9 c3c8 bb3b e2d8 47bc
00000180: 96f6 82bd 0df6 cb3c b99e 383c bd53 543c
00000190: 7d78 9e3c 2124 bfbb bbcd 333d 0fcf e9bb
000001a0: 29f9 163d 8872 b13b c62c 9bbc 52ae bdbc
000001b0: eebd d93c ad56 34bc 454d fbbc 8e1b 53bd
000001c0: 600e 26bd 03ed 3cbd 4a9d 15bd 74a5 fc3c
000001d0: 2cb3 e53c 444d 533d fbb4 56bd 589d 1d3d
000001e0: 1cbc 093b c006 07bc 8412 63bb 2316 2b3d
000001f0: 400b 043d 87fc 83bd 8031 5d3b c223 3b3c
00000200: b9ac c6bc 777a 193c 0146 fdbc e1d3 1e3c
00000210: 02ca 5c3d bcb8 08bb 7a39 803c fd27 7f3c
00000220: 57e7 17bd d827 73bb ec47 293d a42a 343a
00000230: 9036 3a3d 2cd6 1a3d a0c0 8a3c b8da 24bc
00000240: 81fb b43c a837 5f3d e7ca 48bb 1671 b53c
00000250: 77da 753d f3b7 713c 6b9f c2bc a3a7 12bd
00000260: 7814 03bd 17e0 1ebd 3f31 b13c 0e19 b9b9
00000270: 6e90 aebc 8d01 233c 88f2 7fbd 16de 4a3b
00000280: 5e74 af3b 8310 35bd f6cb acbc a671 293d
00000290: 9bdd 7a3b 8b93 54bd 0f49 103d b815 2c3d
000002a0: ecf5 95bd 54b5 9ebc 56f1 49bd 988d 523c
000002b0: 19af a1bc 9826 3a3c 1afc 3b3d 9eb2 98bb
000002c0: 7a15 9e3d 754a bdbc 337d 15bd 1425 12bd
000002d0: 2635 8bbc c361 90bd ecce 33bd 8916 cb3b
000002e0: 89f6 a7bc f1af 083b 2a28 63bd 20c6 24bb
000002f0: 734c 1dbd 290b 95bd 8422 5d3c f7b4 e23d
00000300: 91be 9cbd efc4 303c 8384 583d ac9d b5bb
00000310: 6f5b 29bd ec0f 22ba 0ccc 84bd f5d4 023e
00000320: 60a3 f4bc 4c4c 703c 0733 383c 0f10 82ba
00000330: 0af0 66bb ea72 c9bc 9a32 3bbc a9fc bfbc
00000340: 6277 a0bc a998 abbb b128 9dbc 0c7c d03c
00000350: 2221 ffbc cea1 a63c 52c4 9e3d e8bb d73c
00000360: 42f4 80bc d7d6 adbc 9ba8 dbbb 7fe6 d2bc
00000370: d89a 243c 3876 7ebc f9cd edbc b846 16bd
00000380: 2380 f1bb e359 a03d 1471 5a3c d3cd b03c
00000390: 1a28 7ebd 9145 c7bc aa4e a33c 7d6b 58bd
000003a0: 15ef 63bd 28b6 bf3d c201 613c d4d1 693d
000003b0: 9e5d 253d a438 733c 83ad 9d3c ba60 9ebd
000003c0: 6bd2 4ebb 16ee 9b3c 4c2a 1fb9 c836 69bd
000003d0: 5e64 ec3b f12e 423d 19fb ebbd 94f0 16bb
000003e0: e58b 753d 2a5f 823b 3dd3 273d 39b3 50bc
000003f0: 5979 76bc 70db e53c d305 bb3c 2c50 f9bc
0.09110441 -0.013548287 -0.030703858 -0.0004019093 0.049126714 0.023205997 -0.053169705 -0.04977236
0.0024615577 -0.032545343 0.09439933 -0.0017168983 0.015857527 -0.06507211 -0.009442566 0.036093228
0.031990327 -0.07948951 -0.0069387336 -0.06967219 -0.05982395 -0.03497352 -0.013117822 -0.013475586
-0.016010271 -0.001155922 0.015213053 -0.008556321 -0.052013736 -0.0077980724 -0.057425037 0.020294933
-0.02798755 -0.061152637 0.00029496936 -0.017366672 0.0570189 -0.01607887 -0.08309032 -0.011124768
-0.059386473 -0.12011579 0.011871193 0.04267594 0.0684585 0.049834546 -0.036190715 -0.022844572
-0.0063928263 -0.056959 0.023636067 -0.004151843 -0.045856666 -0.030356148 0.09409291 0.021474479
-0.026109649 -0.027979136 0.018348005 -0.024839224 -0.042625558 -0.052906588 -0.04179752 0.014116839
0.016494386 0.02587282 -0.038494404 -0.027332993 0.06021297 -0.0721171 0.037091278 -0.012335254
0.04171356 0.012131737 -0.050333582 0.024213444 -0.027941579 -0.0071639726 -0.029288476 -0.08801295
-0.052772082 0.017635528 -0.01197532 -0.050292186 -0.0276365 0.10350974 0.015879622 0.026166089
-0.07470835 0.06785598 -0.07648284 -0.022171056 -0.031899266 -0.00023419662 0.00573072 -0.012197705
-0.06394689 0.0248976 0.011268311 0.012959418 0.019344563 -0.0058331643 0.04389737 -0.007135279
0.03685871 0.0054152645 -0.018942248 -0.023154411 0.026579823 -0.011006993 -0.030676493 -0.05153995
-0.040541053 -0.04612447 -0.036526956 0.030840613 0.028039537 0.051587358 -0.05241869 0.038480133
0.0021016663 -0.008241355 -0.0034648487 0.041769158 0.03223729 -0.0644465 0.0033751428 0.0114221
-0.024252282 0.009367577 -0.03091717 0.009694071 0.053903587 -0.0020862063 0.015652407 0.015573499
-0.037085857 -0.0037102606 0.041328356 0.0006872809 0.04546219 0.037801906 0.016937554 -0.010061912
0.022092583 0.054496437 -0.0030638517 0.02214865 0.060022797 0.01475333 -0.023757657 -0.035804402
-0.032001942 -0.038787927 0.021629928 -0.00035304617 -0.021309104 0.0099491 -0.062487155 0.0030955127
0.005354448 -0.0442052 -0.02109335 0.04136815 0.003827906 -0.05189852 0.035225924 0.0420129
-0.073222965 -0.019373573 -0.04930242 0.012851141 -0.019736813 0.0113617405 0.04589472 -0.0046599647
0.0771894 -0.023106793 -0.036496352 -0.03567989 -0.016993117 -0.070498966 -0.043898508 0.0061977548
-0.0205033 0.0020856822 -0.055458225 -0.0025142506 -0.038402986 -0.07277519 0.013496999 0.110696726
-0.07653535 0.01078914 0.052860748 -0.0055424776 -0.041346963 -0.0006182182 -0.06484231 0.12776549
-0.02986306 0.014666628 0.011242635 -0.0009922999 -0.003523829 -0.024590928 -0.011425639 -0.023435907
-0.019588176 -0.0052367044 -0.019184442 0.025449775 -0.031143729 0.020340826 0.07752289 0.026334718
-0.015741471 -0.021220608 -0.006703449 -0.025744675 0.010046683 -0.015531115 -0.02902888 -0.036688536
-0.0073700114 0.078296445 0.013332624 0.02158252 -0.062049963 -0.024325164 0.01993497 -0.052836884
-0.05564793 0.093609154 0.013733329 0.057084873 0.040372483 0.014845047 0.019247776 -0.07733293
-0.0031558524 0.019034427 -0.00015179178 -0.05693701 0.007214113 0.047408048 -0.115225025 -0.002303158
0.059947867 0.0039786296 0.040972937 -0.0127380425 -0.01504358 0.028058738 0.022829926 -0.030433737
