models/model_final.pt (torch, 816966 bytes, 11 tensors)

y_embedding.weight f4 [4, 16]
000000 87 1a 30 3f 63 81 13 40 6b ad d2 3d 31 ec 90 bf
       0.6879048 2.3047721 0.10286983 -1.132208
000010 00 d6 87 3f 33 52 9a 3f 58 fe 45 bf 2b b1 ef be
       1.0612183 1.2056335 -0.7734122 -0.46814856
000020 3b d3 ae 3f 45 8d fe be 78 33 d1 be 34 11 ed be
       1.3658212 -0.49717155 -0.4085958 -0.46302187
000030 6e b3 0e bc e8 dd e3 3f 67 80 ba bf 3a 19 1d bf
       -0.008709772 1.7802095 -1.4570435 -0.6136662
000040 ae 1a 99 3d be 23 9b be 78 95 55 be d7 96 62 3e
       0.07475792 -0.30300707 -0.20857799 0.22127853
000050 0c d8 34 3e 07 2b 9c bf 36 68 15 3f bc 89 8a be
       0.1766054 -1.2200631 0.5836214 -0.27058208
000060 4f 91 94 be a1 46 46 3f 61 b3 38 3f 0e b6 1e 3f
       -0.29017112 0.7745152 0.7214871 0.61996543
000070 7e 53 df 3d d5 5a f7 3e 27 52 f0 be ab e1 93 bd
       0.10904597 0.48311487 -0.46937677 -0.07220777
000080 c5 f4 bc 3f 3d 2a 25 3f 9a fb f0 bf 80 bd 0b 40
       1.4762198 0.64517576 -1.8826783 2.1834412
000090 56 20 73 3f 64 a3 d6 be 7a 19 ef be b4 a6 05 bf
       0.94971216 -0.41921532 -0.46699125 -0.52207494
0000a0 c7 80 41 3f 51 2b ff be 65 2b 91 3e 3f 85 72 be
       0.75587124 -0.49837735 0.2835342 -0.23683642
0000b0 bc 96 66 3f 0a 9b db be ed 36 c9 bf b7 f2 17 be
       0.9007375 -0.42891723 -1.5719887 -0.14838682
0000c0 59 c9 56 bc 5c a5 e8 3e bc 23 c6 3e 15 35 8e 3f
       -0.013109528 0.4543866 0.38699138 1.1109949
0000d0 b1 3c 6a 3f 81 7d 66 bf 41 a9 cb be 0d 13 7c bf
       0.9149886 -0.90035254 -0.39777568 -0.9846657
0000e0 99 df 75 3e 94 e4 7f 3f 62 b7 52 3d 64 35 bf 3e
       0.24011077 0.9995816 0.05144442 0.3734542
0000f0 cd 23 02 bf 8d 43 03 bf 1d d0 97 3f a5 18 9c bd
       -0.5083588 -0.5127495 1.1860386 -0.07621888

net.0.weight f4 [256, 19]
000000 be d0 bc 3d 33 71 40 3e 89 ec ed be c7 5f af bd
       0.09219502 0.18793182 -0.46469525 -0.0856319
000010 13 3b 27 bd 71 1b 99 3d 23 a2 03 3e 52 89 d6 bd
       -0.040827822 0.07475937 0.12854819 -0.104754105
000020 2f 99 a2 3b bc da 33 3e 66 56 13 3e 05 d4 8d 3d
       0.0049621086 0.1756391 0.14388427 0.06925205
000030 7b 4d 38 3c db 04 6f 3e 3e 51 0e be 66 ef 03 3e
       0.0112489415 0.23341696 -0.13898179 0.12884292
000040 7b 95 7a 3d 01 5d 48 be f0 6d 54 be 11 68 81 bc
       0.061177712 -0.19566728 -0.20745063 -0.015796693
000050 8e a7 55 be a1 94 44 bd 57 52 52 be 0c 5b 52 be
       -0.20864698 -0.047993306 -0.20539223 -0.20542544
000060 b0 98 48 3e c4 f8 4a be 47 92 9e bd b1 52 32 3e
       0.19589496 -0.19821459 -0.07742744 0.17414357
000070 e5 a1 64 be 42 90 21 3e 4e 63 db 3d 4a 60 80 3d
       -0.22327383 0.15777686 0.107123 0.06268366
000080 a5 37 90 3d a3 1d 94 3d 38 3d 4a 3d dd 78 7b ba
       0.07041863 0.07232215 0.04937479 -0.00095929
000090 46 ff 39 3d 03 ad f0 3d 95 3f 31 be b0 97 55 3e
       0.045409463 0.11751749 -0.17309411 0.20858645
0000a0 28 87 84 3d b8 9c 01 be dd 8b 2d 3e 00 2e 16 3e
       0.064710915 -0.1265744 0.16947885 0.14665985
0000b0 b5 3e ab 3c 0e be ef bd 15 05 d3 3d 8d b9 f1 3d
       0.020903924 -0.11706172 0.10303704 0.11802969
0000c0 9a 4b 7f 3e 77 8a 02 be 24 05 d4 bd 67 92 c9 bd
       0.24931183 -0.12748133 -0.10352543 -0.09842377
0000d0 bb a0 3f 3e a5 f4 b8 3d 8e 53 71 3d 56 3e 41 be
       0.18713658 0.09031037 0.058917575 -0.18871436
0000e0 c3 ca a1 3d 9b 85 66 3e 2c ff 71 be 96 17 3e 3e
       0.07900002 0.22511904 -0.23632497 0.18563685
0000f0 cb 84 df 3b 34 06 97 3d c2 2b 5e 3e 7b 5a c8 bd
       0.00682125 0.0737423 0.2169638 -0.09782883
000100 35 94 c9 3d d9 18 24 3e 70 98 e5 bd 60 60 78 be
       0.098427214 0.16025104 -0.11210716 -0.24255514
000110 03 40 12 be d6 70 57 be 42 5b f9 bd cf d4 10 be
       -0.14282231 -0.21039137 -0.12175609 -0.1414368
000120 8e bc 8b be 80 1b 2b be 63 28 33 3e 58 ad 50 be
       -0.27292293 -0.16709709 0.17495875 -0.20378625
000130 f2 30 97 bd ac 35 9d bd 44 83 02 bf c3 56 b3 bd
       -0.073823825 -0.07676253 -0.50981545 -0.08756783
000140 67 f0 2f bd c6 e1 21 bd c3 6a ab bd d6 21 d6 3d
       -0.042953875 -0.039521955 -0.083699726 0.104556724
000150 9a 47 c1 bd 0e 8a 0b 3e 66 d3 34 be fb 84 c3 3d
       -0.09437485 0.13626882 -0.17658767 0.095468484
000160 47 43 78 3d 21 bc 3e bd 2f 6d 2d be 0b d9 39 be
       0.060611036 -0.046566132 -0.16936181 -0.18149202
000170 dc 05 91 3e 63 45 a9 3d f4 2e e3 bd 22 3e 5d bc
       0.28324783 0.082651876 -0.1109294 -0.013503583
000180 f7 f8 3d be e0 94 9f 3d 6a d5 16 be dc 39 25 be
       -0.18552004 0.077920675 -0.14729849 -0.16135353
000190 e2 12 3b be 95 ad 12 3e 61 73 20 be 0e 1e 0e 3e
       -0.18268922 0.14324029 -0.15669014 0.13878652
0001a0 2c bd 04 bd 8d ba 3a 3e 8a 45 62 3c 8c d6 0e be
       -0.03240697 0.18235226 0.013810525 -0.1394903
0001b0 7a 9d 24 be ad 66 3c 3e a5 e5 45 3e 15 7c 3b bd
       -0.16075698 0.18398543 0.19325884 -0.04577263
0001c0 be 9e 31 be 3b aa 60 bd d6 91 fd 3c 71 5d 9a 3e
       -0.17345712 -0.054849844 0.030953329 0.30149415
0001d0 e6 61 c7 be a5 23 91 3d bf 76 0b 3e 54 5a 99 3d
       -0.38941878 0.07086877 0.13619517 0.07487932
0001e0 a4 2c 5d 3d 07 3b 0b be 8f 5c 24 be 6a fc f0 bd
       0.05399765 -0.13596736 -0.16050933 -0.11766894
0001f0 b0 7c 11 3b 9d 14 3d 3e e5 6b af 3d 54 fa 98 b8
       0.0022199564 0.18464895 0.08565501 -7.294552e-05
000200 cf 17 35 3d 52 d7 cf bb 37 46 fd bd 12 10 36 be
       0.04421216 -0.006342807 -0.12366908 -0.17779568
000210 96 f3 93 3c 93 6f 6b 3e 68 c2 b5 3d 36 39 a5 be
       0.018060487 0.22991781 0.08874971 -0.3227021
000220 7c f5 5d be ff eb 4a 3e fb 1b 12 3c 38 0e 3a be
       -0.21675676 0.19816588 0.008917804 -0.18169487
000230 7d 7f cd 3d b6 58 1e be 71 17 0c be 16 2d b0 bd
       0.10034082 -0.15463528 -0.13680817 -0.086023495
000240 cd e3 10 3e f2 99 2f 3e 5b e1 66 3d 20 cb 54 be
       0.14149399 0.17148569 0.05636726 -0.20780611
000250 92 dc 1f 3d 2d 26 11 3e 35 a2 0e be 14 ba 9d bd
       0.03902871 0.14174719 -0.13929065 -0.07701507
000260 37 83 25 be da 03 a5 bd 04 b9 e6 3e 1a 8d 72 3e
       -0.16163336 -0.08057375 0.4506303 0.23686638
000270 c1 52 5a 3d c3 13 5f 3e d8 2c 3a 3e 6e a1 05 be
       0.053301577 0.21784882 0.18181169 -0.13049862
000280 d3 36 0a 3e e6 98 bc bd e2 95 10 3e 7f 53 38 3e
       0.13497476 -0.092088506 0.14119676 0.18000601
000290 4a 66 f1 3d ce c1 04 be 57 90 dc 3c a0 a3 07 3e
       0.11787088 -0.12964556 0.026924295 0.13246012
0002a0 52 6f 38 3e 85 a5 16 3e 9f 84 1d be cc 56 8b 3d
       0.18011215 0.14711578 -0.15382622 0.068036646
0002b0 e7 7b 85 3d 1a 7b 9c 3d ad 78 dc 3d 86 d6 4b be
       0.06517773 0.07640667 0.107652046 -0.19906053
0002c0 3c 30 7d bc f6 e1 65 be 17 6f ab bd 16 dd 15 ba
       -0.0154533945 -0.22449479 -0.08370798 -0.00057168433
0002d0 58 08 84 3c 29 8f 2a be 86 56 67 3d 5b 8b 84 3e
       0.01611726 -0.16656174 0.056479 0.2588757
0002e0 d0 d9 f2 bc f0 2a 1d be e5 2a ab 3d 73 fe 23 be
       -0.029644877 -0.1534841 0.08357791 -0.16015033
0002f0 5a 1d 25 be f5 42 15 be b2 45 75 3e 80 b7 82 3e
       -0.16124478 -0.14576323 0.23952368 0.25530624
000300 4c 62 c7 be 2b c4 06 3d 8d bc 48 be c1 65 db bd
       -0.38942182 0.032901924 -0.19603176 -0.107127674
000310 6c 63 de 3d 41 07 ae 3d 92 c5 05 bd 85 77 09 3e
       0.10858807 0.08497477 -0.03265912 0.134245
000320 e3 8d 21 bd 77 e8 e7 bd 86 ea 4b be fa 61 6c 3d
       -0.039441954 -0.11323636 -0.19913682 0.057710625
000330 14 f9 2f be e3 48 0c be 6a 05 1f 3e ae 5b 51 be
       -0.1718486 -0.13699679 0.15529409 -0.2044513
000340 08 5f 0a bc 17 bf 63 be 24 6a ac bb e8 3d 3f bd
       -0.008445509 -0.22240864 -0.0052616764 -0.046689898
000350 d9 99 d3 bd a9 27 6e bc 41 34 60 3e 48 21 f4 bd
       -0.103320785 -0.014535823 0.21894933 -0.119204104
000360 25 f8 43 be 6d 1b 06 3e 39 a9 35 bd ae 0d b1 bd
       -0.19137628 0.130964 -0.044350836 -0.08645187
000370 a0 85 27 3e 35 01 00 3e 7a 78 e1 3c db 83 ab ba
       0.16359568 0.1250046 0.027523268 -0.0013085561
000380 27 69 50 3e 9d 9d 13 be 05 b7 36 be 80 aa e7 3c
       0.20352612 -0.14415593 -0.17843254 0.028279543
000390 07 65 06 be fc 19 69 bd e8 cc 95 3e 36 39 e8 bd
       -0.13124476 -0.056909546 0.29257894 -0.11339037
0003a0 6e e1 91 bd 93 8d f9 3d ca 85 d9 bd a8 54 ff bd
       -0.071230754 0.12185206 -0.10621221 -0.12467319
0003b0 ce 27 5a 3e 6f c1 cd 3d b4 cf 6e be 1d 8f 2d be
       0.21304247 0.1004666 -0.2332142 -0.16949125
0003c0 b8 32 86 3d e6 46 5a be 4d 00 a4 bc 36 c4 47 bc
       0.065526426 -0.21316108 -0.020019675 -0.012192776
0003d0 d8 95 17 3d 02 32 32 be 26 f4 57 3e 8c 6a f7 3b
       0.037008137 -0.17401889 0.21089229 0.007550543
0003e0 7a 3b 67 bd b5 5d 9b be ad 4e 0f 3e b9 94 24 3e
       -0.056453206 -0.3034493 0.13994856 0.16072358
0003f0 03 df 71 3d e9 88 51 3e 87 2b 04 bc a1 54 0c be
       0.05905057 0.20462383 -0.008067018 -0.13704158

net.0.bias f4 [256]
000000 8e d8 17 3e c5 16 ae 3d 54 eb 6f bd bd 17 0b 3e
       0.14828703 0.08500437 -0.058574036 0.13583274
000010 4d 15 2b 3c 12 b4 4a be f2 df c2 bd 40 aa 37 3e
       0.01044209 -0.19795254 -0.095153704 0.17936039
000020 f0 8d 22 3e dc 95 06 bd 05 6a 92 ba 80 f5 02 be
       0.15874457 -0.03285776 -0.0011170512 -0.12788963
000030 86 e3 49 be 59 80 a2 3d bb 0a 7d 3e d2 41 11 be
       -0.197157 0.079346366 0.24711125 -0.14185265
000040 dc 3a 1e 3e 66 0c 36 3c 88 b6 d7 3d 5d 3c 61 3d
       0.1545214 0.011111354 0.10532862 0.054989208
000050 95 16 63 be 98 ab 01 3e d9 62 9e bd 71 05 35 3e
       -0.22176583 0.12663114 -0.077336974 0.17677857
000060 e2 86 81 3c 9a 55 48 bc 29 06 ea 3d eb 8a 28 be
       0.015811387 -0.01222744 0.11426956 -0.16459243
000070 90 84 33 3e e7 fc 2e 3e 6e ac 98 3c 9d 00 d4 bc
       0.17531037 0.17088662 0.018636908 -0.025879199
000080 9a c5 1e bb 48 c9 82 3d 01 63 22 be dd 8e 9d 3b
       -0.0024226666 0.063860476 -0.1585808 0.0048082904
000090 ca 03 fa bd ce d2 22 3e fb 27 63 be 1c cc 00 be
       -0.12207754 0.15900728 -0.2218322 -0.12577862
0000a0 1d 8c de 3d f8 af 49 3e 3b 78 e2 3d 2e 1a 8b bd
       0.10866568 0.19696033 0.110580884 -0.06792103
0000b0 3b fa d3 3d 79 bd d8 3d 00 a0 09 be 64 e2 96 bd
       0.10350462 0.10583014 -0.13439941 -0.07367399
0000c0 68 17 88 be 7a 9e c1 3d 0e 76 08 3d 48 9f c0 3c
       -0.26580358 0.09454055 0.03331571 0.023513451
0000d0 e8 e2 dd bd 51 14 3c 3e f2 21 1a 3e 72 18 04 be
       -0.108342946 0.18367125 0.15052012 -0.1289995
0000e0 57 14 10 be a5 6a 40 be da 9a d3 3a 8a 9c 2b be
       -0.14070259 -0.18790682 0.0016144172 -0.16758934
0000f0 4c 1d 3c 3e 11 15 cb 3b 7b 85 8f 3d c9 e6 89 bd
       0.18370551 0.0061975797 0.07007881 -0.06733472
000100 55 83 ef bc 2a 38 a7 3d d2 3c 94 bc f6 28 4a 3c
       -0.029237429 0.08165009 -0.018095408 0.012338867
000110 e4 77 52 3e 45 6c 28 be 28 70 2c be 61 66 71 bd
       0.20553547 -0.16447552 -0.16839659 -0.058935527
000120 41 47 c3 3d 02 f2 81 bd 91 ca 3c be e5 24 70 3e
       0.09535075 -0.063449875 -0.18436648 0.23451574
000130 af 71 44 be 88 b7 0f 3e 19 61 8a bc fa c6 15 3e
       -0.19183992 0.14034855 -0.016892003 0.14626685
000140 92 e8 90 3d 05 2c 51 3d 3a b4 b1 3d fb b2 87 bc
       0.07075609 0.05106737 0.086769536 -0.016564837
000150 13 b8 5d bd 5c 44 16 be cf 2a a5 bd 00 48 73 3e
       -0.054130625 -0.14674515 -0.08064806 0.23757935
000160 cf cd b6 bd d3 81 15 3c b5 8f b3 bd 8c 20 5a 3d
       -0.089259736 0.009125191 -0.08767644 0.053253695
000170 17 c4 b7 bd eb 8b a2 3d 3a bd 7f be 8a d7 ef bd
       -0.08972948 0.079368435 -0.24974528 -0.11711033
000180 1b 26 70 3d bb 1d aa bd ac 13 82 3d 64 14 a5 3d
       0.05863009 -0.08306452 0.06351408 0.0806053
000190 60 86 20 bd e9 31 a0 3d 39 d7 ac bc 7d 9c 8a 3e
       -0.03919065 0.078220196 -0.02109872 0.27072516
0001a0 f9 ac 03 3e 3d de b1 3d 90 98 54 3e 61 1d 1d be
       0.12858953 0.08684967 0.20761323 -0.15343238
0001b0 27 2f 67 be 3e d9 30 3d 2d 61 40 3e 70 43 92 3d
       -0.22576581 0.04317593 0.1878707 0.07141769
0001c0 ab ba 9b bd e8 dd 04 3e d5 bf 6d 3c 26 42 5f be
       -0.076039635 0.12975276 0.014511068 -0.21802577
0001d0 79 18 4c 3e b4 86 e0 bd a9 e2 a5 3d a8 f2 5e bd
       0.1993121 -0.109631926 0.080998726 -0.054430634
0001e0 60 f0 93 bd 40 ce 28 3e 82 d0 6f 3d e8 cd 12 3d
       -0.07223582 0.16484928 0.058548458 0.0358409
0001f0 7a 88 32 3e fb dc de bc e0 63 8a 3d 06 f2 3a be
       0.17434874 -0.027204981 0.06757331 -0.18256387
000200 af 2f bc bc 24 e2 de bd 40 c8 86 be 08 71 1d 3e
       -0.022971956 -0.10882977 -0.26324654 0.15375149
000210 fc 17 31 3c 2f 1a e3 bd ed e0 39 be 97 9a ab bc
       0.010808941 -0.110889785 -0.18152209 -0.020947738
000220 f1 42 4a be 92 b9 4f be a0 f7 af 3d 5a ca 07 3b
       -0.19752099 -0.20285633 0.085921526 0.0020719976
000230 4b 2c ef 3c 1d 0e 02 be 22 8c 63 bd 28 e5 01 bd
       0.029195925 -0.12700696 -0.055553563 -0.03171268
000240 62 07 7b 3d 91 6a 93 bd 30 af 6e 3e f6 18 22 be
       0.061286338 -0.0719806 0.23309016 -0.15829834
000250 61 99 54 3d ad 20 56 3d 57 d0 c0 bd 72 c9 17 3e
       0.051904086 0.052277256 -0.09414738 0.14822939
000260 41 fd 34 be e9 21 07 3e 77 71 aa bd fc c9 93 3d
       -0.17674734 0.1319653 -0.08322423 0.0721626
000270 ee 68 62 3c 4e 76 30 3e ea fb d0 bd 15 27 2e bd
       0.0138189625 0.1723263 -0.10204299 -0.04251774
000280 2a 1f 40 be ce a6 0f bc ba a7 42 be 0c 7d 6f 3e
       -0.18761888 -0.008767797 -0.19009295 0.23387545
000290 e6 10 97 3c a6 68 78 3e e7 4a 66 3d 31 02 9d 3d
       0.018440675 0.2425867 0.056223776 0.076664336
0002a0 82 3f b0 bd ba eb 42 3e f2 d8 2c be 8d ba cb 3d
       -0.08605863 0.19035235 -0.16879633 0.09947691
0002b0 c8 97 8a bd 36 f5 86 3e 23 60 09 3d 9f 57 29 3d
       -0.06767231 0.26358956 0.03353895 0.041343328
0002c0 d7 5d c8 3c 22 32 0b 3e c1 0b 6e 3e 8f c4 08 3b
       0.024458809 0.13593343 0.23246671 0.0020869111
0002d0 7b 39 34 be 9c cd 20 3d 45 c9 f8 bd 04 2a 72 3e
       -0.17600052 0.039258584 -0.12147764 0.2364884
0002e0 df b8 f9 3d 8a fe 8f bc 05 6d 35 3e 24 1b 0a 3e
       0.121934645 -0.017577428 0.17717369 0.13486916
0002f0 61 fe af bd b8 d7 0e be 18 19 26 3e 28 6f 4c be
       -0.08593441 -0.13949478 0.1622051 -0.19964278
000300 8e e2 e6 3d b8 5c c1 bd 08 fb 1b 3e 81 2c 82 be
       0.112736806 -0.09441513 0.1523248 -0.2542458
000310 cf e0 23 3e 8c d7 00 3e 07 71 24 be 8a 4d 06 3e
       0.16003726 0.12582225 -0.16058742 0.13115516
000320 53 3b 23 be c9 2d 32 3e d7 f7 c4 bc b7 9a 28 3d
       -0.15940599 0.17400278 -0.02404396 0.041163173
000330 5d 8c 4a 3e 2e bb d3 bd ad 79 41 bd 33 1a 44 be
       0.19780107 -0.10338436 -0.04723518 -0.19150619
000340 5e 69 42 be 55 54 86 3e 7d ed e5 bd c8 59 04 be
       -0.18985507 0.26236215 -0.11226938 -0.12924874
000350 74 7b 4d be 50 75 13 bc 35 af 5b be 65 21 89 bd
       -0.20066625 -0.009000137 -0.21453555 -0.066958226
000360 da 13 4c 3d a1 04 b0 bc d4 04 79 be e1 ca 26 be
       0.04982362 -0.021486582 -0.24318248 -0.1628833
000370 cb da 16 bc da 97 f2 3c b0 f9 76 3d c9 3a 42 be
       -0.009207438 0.029613424 0.060296714 -0.18967737
000380 66 d7 8b 3d c8 5d cc bd 5b b6 a8 3d b9 e2 dd bd
       0.06828193 -0.09978825 0.082379065 -0.108342595
000390 b6 10 09 3e 55 9e 00 3e 56 7c 4e be 1e fd f0 bd
       0.13385281 0.12560399 -0.20164618 -0.11767028
0003a0 81 86 2f be 84 aa b1 3d 09 c9 87 bd be 8d 2d be
       -0.17141153 0.086751014 -0.06630141 -0.16948602
0003b0 b7 30 6e be 2e f3 6e 3c 6a ca 02 be 37 c2 4a be
       -0.2326077 0.014584346 -0.12772527 -0.1980065
0003c0 ae 5e d3 3d cd 12 66 be dd e2 5f be 0f 2c 35 bd
       0.10320793 -0.2246811 -0.21863885 -0.04423147
0003d0 d9 2e 6e 3e 84 fd a5 3d 6f 9f 0d 3e d2 9c 1b bc
       0.23260058 0.08104995 0.1383035 -0.009497838
0003e0 1a 38 37 3e 2d 81 09 3e 16 93 a7 bc 73 f1 ba 3d
       0.17892495 0.13428183 -0.020455878 0.09128084
0003f0 df 19 2a 3e b2 1d 47 3d d4 b3 ab bd 3c 3a 5f 3d
       0.16611432 0.048612304 -0.08383909 0.054498896

net.2.weight f4 [256, 256]
000000 34 ba ac 3b b5 46 82 3d 6e d4 bb 3c 54 ce ca 3d
       0.0052712206 0.063611425 0.022928443 0.09902635
000010 f9 a6 71 bd d6 ae 8f 3b b3 13 cb bc 46 1a 3c bd
       -0.05899713 0.0043848557 -0.024789667 -0.045923494
000020 cd b2 03 3d 50 d2 60 bd 48 c9 22 bd 60 a0 73 3c
       0.03215294 -0.05488807 -0.039742738 0.014869779
000030 0d 47 3c bc 37 6c 8d 3c ed de 00 be 4d ce b2 bd
       -0.011491549 0.017263515 -0.1258504 -0.08730755
000040 50 7b b8 bd 48 f4 52 3d be 51 6a 3d fc 70 58 bd
       -0.09007895 0.051502496 0.05720686 -0.052842125
000050 4e ea ac bc 58 ee 55 bd 19 e4 af bd a9 2f da bb
       -0.021107819 -0.052229255 -0.08588428 -0.0066585136
000060 ff 6d f2 bd 64 d5 e4 bc ed 46 ae 3c 74 e9 96 3d
       -0.11837386 -0.027933784 0.021274054 0.073687464
000070 f7 83 94 bd 37 6d ad 3d 8a cf 83 bd 7a df 7c 3c
       -0.07251733 0.08468097 -0.06436069 0.01543414
000080 f1 bd 23 bd 17 2c b0 bc 7e 41 6e 3c cd 5d 27 bc
       -0.039976064 -0.021505399 0.014541982 -0.010215235
000090 1c 47 ed 3d 8b 9b a5 3d 32 9b d9 bd 7b ae ba bc
       0.11585829 0.08086308 -0.10625304 -0.022788277
0000a0 b6 d5 87 bd f1 95 b1 3a 01 96 4f bd e7 72 63 bd
       -0.06632559 0.0013548714 -0.050680164 -0.0555295
0000b0 04 21 f1 3c bd e1 af 3a 10 60 da bc 51 b9 54 3d
       0.029434688 0.0013418716 -0.026657134 0.051934544
0000c0 19 d8 55 bd 83 f7 12 3d 74 08 6b 3d 95 c6 aa 3d
       -0.05220804 0.035880577 0.05738111 0.08338658
0000d0 dd 34 89 3d e3 2d 43 bd e5 7e d3 3d 22 f6 17 bc
       0.06699536 -0.047651183 0.103269376 -0.009274991
0000e0 79 e7 5d bb 67 bc 67 bc 2c 28 08 3c 48 bc c4 3c
       -0.0033859892 -0.01414404 0.008310359 0.02401556
0000f0 f9 52 10 bd 92 03 27 3c 4b c9 21 3d 46 a2 68 bd
       -0.03523538 0.010193722 0.03949861 -0.05679538
000100 82 38 5e bb a2 8c 8c 3d 9e c2 67 3d ac 46 39 bc
       -0.0033908193 0.06862761 0.056582086 -0.011308353
000110 75 43 19 be 5c 1b 80 3d 1b 11 91 bb 3f e7 a0 bd
       -0.14967139 0.062552184 -0.004427088 -0.07856607
000120 d4 b5 e5 3c 66 ac ab bc 8c 0c 7a bd 4c b2 a9 3c
       0.028040804 -0.02095623 -0.061047122 0.020714901
000130 f0 e2 9c 3c 0d d7 9a bd 02 92 9d bc 9b a6 ee 3c
       0.019151181 -0.07560549 -0.019234661 0.029132178
000140 0c 4e 4a bd ac 02 c1 3d 69 bb 03 bd e4 c3 10 bd
       -0.049390838 0.09424338 -0.03216115 -0.035343066
000150 2e 5a 9e bd 38 88 52 3d 04 6d a6 3c e0 e2 7c bd
       -0.07732044 0.05139944 0.020315655 -0.061739802
000160 9e 18 9d bd 6d eb 9f 3b 78 05 68 39 41 f8 3e bd
       -0.07670711 0.00488036 0.00022127281 -0.046623472
000170 b0 61 4f 3c 0c 76 c2 3b 1a 9e 53 ba 16 67 ff 3c
       0.012657568 0.0059344824 -0.000807257 0.031177085
000180 f0 bc e5 3b 70 94 26 3d bf 62 c7 bd 02 ea 87 bc
       0.0070110485 0.040668905 -0.09735631 -0.016591076
000190 9c f2 2a bd f2 8b e5 bc 79 b5 20 3b c2 5e bd 3c
       -0.041735277 -0.028020833 0.0024522229 0.023116473
0001a0 bd 51 cd 3c 73 b0 20 3d 6e 94 2b bd ec ee 07 bc
       0.02506339 0.039230775 -0.0418896 -0.0082967095
0001b0 f1 5d bf bc 40 1b 53 3d af 2a 68 bc 3c c0 05 bd
       -0.023360224 0.05153966 -0.014170333 -0.032654032
0001c0 d2 92 13 bd 10 d8 d3 3d e4 70 0e 3c dd 06 a6 3b
       -0.03602869 0.10343945 0.008693907 0.005066736
0001d0 06 b0 af bd f9 cc f9 3c f1 ad 85 bc 8f a3 ad bd
       -0.08578496 0.030493246 -0.016318293 -0.08478462
0001e0 a4 99 23 bd 80 80 76 bc d5 5a db 3d 69 c5 49 3c
       -0.039941445 -0.015045285 0.10710684 0.012315133
0001f0 fa 7b b4 3a ac 1d 8f 3d d3 76 0a 3d 1f 10 84 bc
       0.0013769858 0.06988081 0.033804726 -0.016120968
000200 42 96 96 3d 08 4f 58 bd 79 a8 f4 3c 68 78 7d bd
       0.07352878 -0.052809745 0.02986549 -0.061882406
000210 df ab c7 bc 9c f8 75 3c 98 da 80 ba 07 c4 30 3c
       -0.024373947 0.015012886 -0.0009830771 0.010788924
000220 e4 07 aa 3c 66 b1 ab bb 7c 51 1c bd 77 a9 5b 3d
       0.020755716 -0.0052396534 -0.038163647 0.05362841
000230 03 a7 13 bd d3 ac a3 bd 43 1d 19 bd 46 f9 2d 3d
       -0.036047947 -0.07991948 -0.03738142 0.042474054
000240 f6 f9 2f 3d 51 68 10 3d 27 07 cd bd 47 4a 69 bd
       0.04296299 0.035255734 -0.1001113 -0.056955602
000250 f7 e9 ab 3b 98 92 5c 3d 35 e7 6f bd 4d 5e 89 3d
       0.0052463966 0.05385074 -0.058570106 0.067074396
000260 0c 36 03 bd cc 3e c1 3c 70 a0 a1 3c 6d b4 77 3b
       -0.032033965 0.023589514 0.019729823 0.003779675
000270 a7 7b d3 3b e3 5b 06 bc a0 52 a8 bd 98 17 a4 bd
       0.0064539495 -0.008200618 -0.082188845 -0.08012313
000280 37 0b c9 bd 9e 7e ac bb 33 57 7c 3d 1f d4 d0 bd
       -0.09816592 -0.0052641174 0.061606597 -0.10196709
000290 e9 29 16 3d 8c 12 9a bd 16 b6 63 3c 9a 93 33 bd
       0.036661062 -0.07523069 0.013898393 -0.043841936
0002a0 24 52 f7 bc a6 a9 96 3d cd 53 40 3c 9f dc b0 3c
       -0.030190535 0.073565766 0.01173873 0.021589575
0002b0 a0 de b7 bc 8f 7e ba bd d1 86 63 3d f1 1d 08 3d
       -0.022445023 -0.091061704 0.055548493 0.03323168
0002c0 c6 9d de bd 26 7d 89 bd 69 e1 db bc ab 97 44 bb
       -0.10869937 -0.06713323 -0.026840882 -0.0029997628
0002d0 de b5 b3 3b 9c c5 11 3c f8 83 42 bc 76 75 a9 bc
       0.0054843267 0.008897211 -0.011872284 -0.020685893
0002e0 46 66 f2 bc 26 d4 b2 3c 7e 64 8e 3d e5 9d a2 3c
       -0.029589783 0.021829676 0.06952761 0.01985068
0002f0 6f 08 19 bd 88 cf 62 bc c1 80 3a bc 0d c6 84 bc
       -0.03736156 -0.013843425 -0.011383236 -0.01620772
000300 02 0c 25 3d e2 30 80 bc b3 4d e6 bc ab fa 51 bd
       0.040294655 -0.01564831 -0.028113222 -0.051264446
000310 3b 42 61 bd 0c 80 f9 3c 4d 29 91 bb 24 11 0c 3d
       -0.054994803 0.030456565 -0.0044299723 0.034196034
000320 82 ae 93 bd 90 0c 10 bd 61 77 13 bd f5 61 98 bd
       -0.07211019 -0.03516823 -0.03600252 -0.07440559
000330 64 02 3e bd 3f 5c 65 3d bc 46 1b 3d 69 a5 63 3d
       -0.046389 0.055996176 0.037909254 0.05557767
000340 1d 66 5f bd 3c 91 02 bc 53 e4 05 3d 87 72 1c 3d
       -0.054540742 -0.007969197 0.03268845 0.03819516
000350 b2 07 80 3d 3d 26 98 bd a8 2d 15 3c ac 7c 20 3c
       0.06251468 -0.074291684 0.009105124 0.009795349
000360 91 9e 54 3d 8b 24 57 bb 8f 5e 6c 3d 62 7c 9b bc
       0.051909033 -0.0032828178 0.057707366 -0.018980209
000370 52 46 0c 3d b9 3c 26 bd cd 2f bb 3c 97 53 2e bc
       0.03424675 -0.040585253 0.022849942 -0.010640047
000380 31 4d 8f 3b 8d 23 51 3d c1 c5 91 bb 4f f8 c7 3d
       0.0043732156 0.051059294 -0.004448623 0.09764158
000390 c3 4e 0d bd 9b 3d 5c 3d b7 ad 1d bd 53 86 13 bd
       -0.03449894 0.05376969 -0.038495746 -0.036016773
0003a0 76 89 7b bd b6 12 6b bd ba 70 89 bd e7 3f 4b 3d
       -0.06141039 -0.05739089 -0.06710954 0.04962149
0003b0 91 33 e4 3c 42 7b 22 3d 70 6c 7f bd d9 d3 ec 3d
       0.02785662 0.03966833 -0.062359273 0.11563844
0003c0 fe 51 b1 3d 00 b4 d4 3c 23 1e 22 3d 29 5c 3c bd
       0.08658217 0.025964737 0.039579522 -0.04598633
0003d0 10 a4 9e bd d4 35 2b bc b9 a2 3e bd 8d 1d ad 3d
       -0.07746136 -0.010449845 -0.046541903 0.08452902
0003e0 aa 19 7e bc 41 dd 83 3c d9 60 6d 3c 44 cc 27 3c
       -0.0155090485 0.016096713 0.014488422 0.010241572
0003f0 9d d8 5b 3d 72 3e 70 3d 15 a8 93 3c 53 b1 b9 3c
       0.053673375 0.058653302 0.018024484 0.022667563

net.2.bias f4 [256]
000000 7e 92 24 bd 3e 75 23 bc cb 06 42 bd f2 87 a6 ba
       -0.04017877 -0.009976683 -0.04736976 -0.001270531
000010 82 71 9c bd 5a 5f ea 3b a3 37 80 3c f7 84 41 bd
       -0.076388374 0.00715248 0.01565153 -0.047245946
000020 14 1c 24 3d 46 a9 1d 3d 45 fe 16 3d e2 59 00 3c
       0.04006584 0.03849151 0.036863584 0.00783393
000030 d0 8d d7 bc 8f 87 71 3c 78 ec bf bc 9e 05 6a bc
       -0.026312739 0.014741792 -0.023428187 -0.014283566
000040 6c c0 9c bd b1 89 05 3c 5a 11 0e 3d 91 3c e9 3a
       -0.07653889 0.008150504 0.034684516 0.001779454
000050 03 25 00 3d 8c 15 b9 3c 43 20 60 bb 27 6d ec bc
       0.031285297 0.022593282 -0.0034198917 -0.028860642
000060 32 fb 29 bc 8d 64 1d bc 4f 70 26 bd 32 df 50 3c
       -0.010374831 -0.009606493 -0.04063445 0.012748526
000070 9e 0e cf bc 8a 27 1f bb f5 8b 81 bd 4b 66 fa bb
       -0.025275525 -0.0024285042 -0.06325523 -0.007641589
000080 ec fe 60 bc e7 74 7c bd b6 7f 96 bd 0b e5 13 3c
       -0.013732653 -0.061634924 -0.07348578 0.009026776
000090 79 9f 0c 3d a5 43 61 bc c9 4e b1 3c ae af 4f bc
       0.034331772 -0.013749038 0.021644013 -0.012676163
0000a0 80 ab a8 3c f7 6c a0 3d 92 9a 42 3d 6c aa 52 3c
       0.02058959 0.078332834 0.04751069 0.012858015
0000b0 35 8a 5d bd 58 b5 8a bd 30 92 fb 3b 2b 8e a9 3c
       -0.054086883 -0.0677287 0.007677339 0.020697674
0000c0 72 6a 83 3d 9d 43 87 3b a5 ff c8 3c 1f b7 ba bd
       0.06416787 0.004127933 0.024535963 -0.09116959
0000d0 31 aa 38 bd 9c e2 21 bd eb e0 18 bd 0a 55 81 3d
       -0.045084182 -0.039522752 -0.037323873 0.06315048
0000e0 10 18 22 3d 04 e1 20 3d b7 dc 05 bd 91 52 13 3d
       0.03957373 0.03927709 -0.032681193 0.035967413
0000f0 36 f6 7e bd f6 0e 28 bd 19 7a ed bc 0b 98 99 bc
       -0.062246524 -0.041029893 -0.028988885 -0.018749258
000100 e5 42 36 bd 0b a1 3c 3d 3e 28 be 3c 11 05 39 3d
       -0.04449739 0.04605202 0.023212548 0.045170847
000110 a2 a4 a9 bc ed ea 54 3d 11 73 0d 3d cf 5b 09 3d
       -0.020708386 0.051981855 0.034533564 0.03353482
000120 c6 a4 3b bb 96 96 3c bd 1f e3 40 3d 73 c8 2c 3d
       -0.0028632148 -0.046042047 0.0470916 0.04218335
000130 6d 96 33 3d 01 c8 53 bc bb 1f 9b bd 67 1e 2c 3d
       0.04384463 -0.012926103 -0.075744115 0.04202118
000140 48 de 4a bd b0 f2 0d bd fc 1b 83 3d 03 f6 3e 3c
       -0.04952839 -0.034655273 0.06401822 0.011655333
000150 e2 11 68 bd 1a ed 2e bd e7 f8 01 bd 9f d0 54 bd
       -0.05665768 -0.042706586 -0.031731512 -0.05195677
000160 c0 1e 40 3d a3 1b 97 3c 6f f3 e1 bc 31 2c 84 3c
       0.046904325 0.018445795 -0.027581898 0.016134353
000170 92 28 b6 bd 76 35 0e 3d 02 fc 39 3c 60 fc e4 3c
       -0.08894457 0.034718953 0.011351587 0.027952373
000180 a3 96 67 bd 73 80 2a 3d 8f 7e dc bc 72 6e 5b 3d
       -0.056540143 0.041626405 -0.026915817 0.053572126
000190 53 73 0e bd d0 5a fd 3c 5a 7c 58 bd 46 b6 52 bc
       -0.03477795 0.030927092 -0.052852966 -0.01286084
0001a0 f4 59 82 bc c5 68 5b 3d a5 99 3a bd e3 5f bc bd
       -0.015912034 0.053566713 -0.045556683 -0.091979764
0001b0 44 1d 6b 3d f7 34 39 3d 77 5e c9 3c df 80 68 3d
       0.057400957 0.045216527 0.024581177 0.056763526
0001c0 4a cc b6 3c f1 e1 8c 3d c8 a8 99 3d 82 4c 06 3c
       0.02231421 0.068790324 0.075028956 0.008196952
0001d0 e3 fc 2a 3d 84 10 82 bc 16 25 4a bd 8d 35 03 3c
       0.041745078 -0.015877016 -0.049351774 0.008008373
0001e0 bd cf d2 bb 5d 3b 60 bd b1 db b7 3d d3 2d e1 3b
       -0.0064334557 -0.054744113 0.0897745 0.0068719178
0001f0 c8 d2 4a 3c e4 ae b6 bc 22 9f 23 bd e6 dc 60 bc
       0.012379356 -0.022300191 -0.039946683 -0.013724541
000200 de ce b4 3c 23 8c 1a bd 19 f9 30 3d a3 e2 94 3d
       0.022071298 -0.0377313 0.043206308 0.0726979
000210 0f a0 cd bc d8 b9 b8 bb 66 19 bb bb 68 e5 e6 bb
       -0.025100736 -0.0056373887 -0.005709815 -0.0070463903
000220 8d 8e 91 3d a5 e4 d2 bc 4d 8a 75 3d fd 37 13 bd
       0.071072675 -0.025743792 0.059946347 -0.035942066
000230 b4 8c 86 bd 13 f5 d3 bb 33 6d a6 3c d0 8b 8a 3d
       -0.06569806 -0.006468424 0.020315742 0.06764948
000240 0f 8c ec 3c 62 ba af bd 3f fc 11 bd 31 43 0a 3a
       0.028875379 -0.085804716 -0.03564095 0.00052742945
000250 8e cb 72 3d 9e c1 c2 ba f5 92 8d bd e3 e7 89 bb
       0.059276156 -0.0014858728 -0.069127955 -0.0042085513
000260 34 7d 38 bb ec fe 5d 3d 32 e0 dd 3b c7 5e d3 bc
       -0.0028150799 0.05419819 0.006771111 -0.02580203
000270 86 7e 48 bd b5 c1 90 bd 98 71 11 3d 2d 27 5c bd
       -0.048948787 -0.07068197 0.035508722 -0.0537483
000280 10 27 82 3d 81 ab 88 3c 56 2c 7b 3c f3 3c 8e 3c
       0.06355107 0.016683342 0.015330395 0.017363047
000290 c8 81 55 bd 6d b8 df bc 3c 5f dc bc f6 58 0b 3c
       -0.052125722 -0.02730962 -0.02690088 0.008505097
0002a0 20 53 83 bd 92 11 9d 3d 0a a8 0d bb 50 22 14 3d
       -0.06412339 0.07669367 -0.0021615052 0.036165535
0002b0 6f 68 ec 3c b0 14 a6 bd a0 05 ef 3c 27 95 37 3c
       0.028858392 -0.081094146 0.029177487 0.011204994
0002c0 c1 2b 57 3d 88 e5 ac bd 30 12 5d bd d8 da 85 bd
       0.05253196 -0.08442217 -0.053972423 -0.06535882
0002d0 9d 73 79 bc 23 bc 09 bc 5e 35 05 3b 25 70 40 bd
       -0.015225318 -0.008406672 0.0020325999 -0.04698195
0002e0 81 9d e5 3c 22 9c bd 3c e8 6f 16 bc 66 45 08 bc
       0.028029205 0.023145739 -0.009181954 -0.008317327
0002f0 5f 32 73 bd 9f 86 3a 3d 94 4b 56 3c a3 46 a3 3b
       -0.05937421 0.04553854 0.013079543 0.004982786
000300 97 84 9c 3d 45 5a fc bc 97 19 98 bd 3e f1 0f 3d
       0.07642477 -0.030804763 -0.07426756 0.035142176
000310 ee 0f 2c bd ba 43 be bc 86 fa 34 bd fa ab 03 3d
       -0.04200738 -0.023225654 -0.04418423 0.03214643
000320 06 57 31 3d a8 e2 81 3c 89 a2 1b bd 67 af a4 3d
       0.043295883 0.015855148 -0.037996802 0.08041268
000330 57 c0 1b bd ee 40 5e 3c 46 ca fb 3c d2 03 90 bd
       -0.038025226 0.013565285 0.0307361 -0.07031979
000340 de 99 ce bc ea 5b 26 3d 27 aa c7 3c 15 50 dc ba
       -0.025219854 0.040615 0.024373127 -0.0016808534
000350 33 bc 1d 3d f3 e2 19 bd cf a0 72 bd c4 61 b7 bb
       0.03850956 -0.03756995 -0.05923539 -0.0055963714
000360 80 55 57 bd 67 db a8 bc d4 ce 23 3c 9d 38 a4 bc
       -0.052571774 -0.020612432 0.009998042 -0.020046527
000370 d7 29 af bd 85 ea ac 3c a1 09 e6 bc 43 e5 b5 3c
       -0.08552902 0.021107921 -0.028080763 0.022204047
000380 67 3c 56 bd 5b 4a 75 bd d7 1c 10 bd c1 3a 56 bb
       -0.052303698 -0.059885364 -0.035183754 -0.0032688829
000390 f9 96 0c 3c 46 62 2a bc 41 4b 13 bd 1b 96 fb 3c
       0.008580917 -0.010399407 -0.03596044 0.030711224
0003a0 ab ef 1f bd 7c a4 80 bd ab 41 25 bd b2 b0 47 bd
       -0.039046925 -0.06281373 -0.04034583 -0.048752494
0003b0 ca 82 26 bd d4 7c 62 3a d7 17 da 3c cc 54 47 bd
       -0.040652074 0.00086398167 0.026622696 -0.048664853
0003c0 f2 8e 23 bd bf 6b 62 bd a6 75 de 3b 97 ae 0c bd
       -0.039931245 -0.055278536 0.006788927 -0.03434619
0003d0 d8 00 7a 3c 00 5c 0a 3d f7 ee ea bc d6 56 9b ba
       0.01525899 0.033779144 -0.0286784 -0.0011851441
0003e0 e6 27 8e bc 7b 77 05 bd f5 8c 71 bd 96 4d 53 bd
       -0.01735301 -0.03258465 -0.058972318 -0.051587664
0003f0 25 95 a5 bc 6d f8 23 bd 2a 40 58 bc c9 48 11 bd
       -0.02021272 -0.04003184 -0.013198892 -0.035469804

net.4.weight f4 [256, 256]
000000 60 c1 88 3d 02 2c 2f bd ed 25 d1 bc 5d 7e 34 3d
       0.06677508 -0.04276658 -0.02553078 0.044065822
000010 72 48 75 3d 7a c9 70 bd 63 ca 01 3c 84 70 9e bc
       0.059883542 -0.058785893 0.007921788 -0.019340761
000020 2b d5 1c 3d cc 43 da 3c 7e cf 77 bd 60 50 ad 3c
       0.03828923 0.026643656 -0.060500614 0.02115649
000030 a2 b3 96 bd 34 bd 4c bd 19 61 9f 3c 9a 98 44 bc
       -0.07358481 -0.049985126 0.01945548 -0.011999274
000040 0e aa 48 3d e7 0f 1f 3d b0 b0 76 bd a2 29 22 bc
       0.0489903 0.038833525 -0.060227096 -0.009897621
000050 aa 8b 7f bc d8 1c ca bc ac ac 20 bd b3 d9 4e 3d
       -0.015597263 -0.024671957 -0.039227173 0.050500583
000060 07 d0 42 bd 9f d4 26 bb 19 18 a6 3d 03 fe b5 bb
       -0.04756167 -0.0025456322 0.08110065 -0.005553962
000070 bb 49 6f bd ef 02 7c 3d e7 20 cb 3c e6 ee 1f bd
       -0.058419924 0.061526235 0.024795962 -0.03904619
000080 99 9b af 3c d4 1c f6 3d 32 36 08 bd 72 3d dc bc
       0.0214365 0.12017217 -0.03325481 -0.026884768
000090 57 b8 2c 3d 9c b9 04 bd 5a 86 d5 bc b2 60 90 bc
       0.042167988 -0.032403573 -0.02606504 -0.017624233
0000a0 23 51 57 bd f6 93 18 3d ba ae 82 3d ec fb da 3c
       -0.052567612 0.03725048 0.06380983 0.026731454
0000b0 5b 2e 8b 3b f4 2c 90 bd ea ce 22 bd 9d 32 7f bd
       0.0042474694 -0.07039824 -0.03974811 -0.062304128
0000c0 ef 71 90 3c 3a 81 74 bc 72 4b 08 3d 2b d9 59 3d
       0.017632453 -0.014923388 0.033275075 0.053185623
0000d0 0c ef 48 bd b9 9d fb 3b 08 7b ff bc a8 78 99 3d
       -0.049056098 0.007678714 -0.031186596 0.074937165
0000e0 4c cd 5f 3c b1 f1 0a bd d2 5c 2a 3d 73 d9 01 3c
       0.013659786 -0.0339219 0.041592427 0.007925379
0000f0 3f 96 2c bd ae c9 5f 3c a4 a2 22 bd 7f 4c eb 3a
       -0.042135473 0.013658924 -0.039705887 0.0017951875
000100 7e a0 2e bd d6 01 91 bd 17 5b 04 bd 76 8b 56 3d
       -0.042633526 -0.07080428 -0.032313433 0.052379094
000110 57 22 d6 bc 54 8b c0 bb 24 3f 3c 3d e6 50 2c bd
       -0.026139421 -0.005875984 0.045958653 -0.04206934
000120 5b 97 da ba 63 06 98 3b 8c be 25 3c 98 8b 40 3d
       -0.0016677188 0.004639433 0.010116231 0.047008127
000130 73 9a 61 3d a7 f2 32 bd 3d 7b 3d 3d ea c9 10 3d
       0.055078935 -0.043688443 0.046260107 0.03534881
000140 ed 75 23 3d 6b 08 f2 3c c0 9d 88 bd e6 11 6d bc
       0.039907385 0.02954503 -0.066707134 -0.014469599
000150 c5 ab 86 bd 9f 2b 06 bd d2 de a0 bd a3 d9 8e 3d
       -0.06575731 -0.032756444 -0.078549996 0.06975105
000160 c0 a4 e4 bc 78 80 92 3c 25 f8 0a bd 20 63 19 bd
       -0.02791059 0.017883524 -0.033928055 -0.03744805
000170 e9 8a 51 3d 06 69 d1 3c de 5e 5a bd c5 4f 05 3d
       0.051157866 0.025562774 -0.05331313 0.032546777
000180 b0 a9 a0 3d ba 6c e5 bc 94 8b a3 3c 69 d5 eb 3b
       0.07844865 -0.028005946 0.019964017 0.0071970713
000190 e5 72 6b bc 60 49 ae 3d 54 5f 65 bc 2e 9c b3 38
       -0.014370655 0.08510089 -0.013999779 8.564476e-05
0001a0 e7 ab 54 3c 94 e7 86 3c 4a 70 82 3c 49 96 d4 bc
       0.012980438 0.016467847 0.015922684 -0.025950568
0001b0 50 b4 4e bc 08 78 fa 3c 48 43 24 bc e2 68 1f bc
       -0.012616232 0.030574813 -0.010025807 -0.009729596
0001c0 ea 83 29 bd c0 6a 46 3d f2 74 8a bd f0 fd 21 3d
       -0.04138557 0.04844165 -0.06760587 0.039548814
0001d0 6b 28 f9 3c 0f c2 9f bc c1 f3 8e bd 1e 8d 25 bc
       0.03041478 -0.019501714 -0.06980086 -0.010104446
0001e0 f5 92 13 3c 2a 6b 65 bc 74 e7 13 3d 7a 3d 32 bd
       0.009007205 -0.014002601 0.036109403 -0.04351566
0001f0 00 ae 16 3d 70 3c 31 3b 4b d1 90 3c 50 84 12 bc
       0.036787033 0.002704408 0.017677924 -0.008942679
000200 c6 13 29 3d 77 4e c9 3d b3 6c 6f bc 95 9f 8b bd
       0.041278623 0.09829419 -0.014613318 -0.06817547
000210 56 b8 36 bc 9f 1d 82 bd fc 57 71 bc e6 e8 eb bd
       -0.011152348 -0.06353306 -0.01473045 -0.11519031
000220 f3 0a 22 bd 33 74 2b bd 66 1b 1e 3d 52 89 09 bc
       -0.039561223 -0.041858863 0.038600348 -0.008394556
000230 04 06 c3 3b e2 38 29 3d e7 97 1c 3d 84 82 c2 3b
       0.005951645 0.041314013 0.038230803 0.005935969
000240 12 67 19 3d f5 47 e8 3c 0a 4a 7f 3d ae 8f 1c 3d
       0.03745181 0.028354624 0.06232647 0.03822296
000250 54 12 e5 3a 87 0f d0 bc 66 21 e2 bc a4 c5 6b bd
       0.0017476776 -0.025398029 -0.027603816 -0.05756153
000260 eb fa 42 bc f2 48 52 bd 8d 7d f9 3c f8 48 cf bc
       -0.011900644 -0.051339097 0.030455375 -0.025303349
000270 5d 1d 55 bd 1b 2c 6c 3d 0f 26 a4 37 e2 a0 a0 bc
       -0.052029956 0.05765925 1.9568046e-05 -0.019607965
000280 69 98 cc 3c 95 f1 68 3d 03 85 36 3d be b0 11 3d
       0.024975019 0.056871016 0.044560444 0.035568945
000290 96 a3 44 3c 5d ae 89 bb 87 50 50 bd ed 42 96 3c
       0.012001893 -0.004201694 -0.050858047 0.01834246
0002a0 c3 bf 4f 3c e2 73 66 bd cb 9a 97 bb a4 26 4a bc
       0.012679997 -0.05626286 -0.004626607 -0.012338314
0002b0 0f 1a 0a bd 2a 05 05 bd 90 c7 70 bd a8 d0 01 3c
       -0.033716258 -0.032475628 -0.058784068 0.007923283
0002c0 84 08 8c bc 31 5b 78 bd fa 2e 13 3c 7f fa 1a bc
       -0.017093904 -0.060633842 0.008983368 -0.009459137
0002d0 c0 a1 16 3d bb c9 cc 3c e5 91 d3 3c 66 79 34 3c
       0.03677535 0.024998536 0.025826404 0.011015272
0002e0 d0 b1 39 3d 32 94 1c 3d d9 48 74 3c b8 35 14 bd
       0.04533559 0.038227268 0.014909946 -0.036184043
0002f0 a3 67 1b 3c e7 c0 c4 bc f1 6f 68 3d 9a b0 68 3d
       0.009485158 -0.024017764 0.05674738 0.056809045
000300 78 c4 4b bd bf e6 99 3c b4 35 b6 3c 78 52 6f bd
       -0.049747914 0.018786786 0.022242405 -0.058428258
000310 e2 7c 75 3d 14 6b c8 3b 26 0f e1 bb 82 a9 b1 bd
       0.05993355 0.0061162803 -0.006868261 -0.08674909
000320 37 3d 80 3a 95 8b 5f bd 9f 92 67 bd 48 c1 be 3c
       0.0009783868 -0.054576475 -0.056536313 0.023285523
000330 b0 69 be 3c 5e 8e 28 bb b5 7e 85 3c d8 3e 48 bd
       0.023243755 -0.0025719623 0.01629577 -0.048888057
000340 da 47 9c 3d 38 7a 5f bc c4 9f 70 bd 4f 1e 32 bd
       0.07630892 -0.013639979 -0.058746114 -0.043485936
000350 18 b6 c7 bb fb 36 00 bd e4 37 8b 3d a1 31 dc 3c
       -0.0060947053 -0.031302433 0.0679777 0.026879134
000360 d1 17 0d 3d 4b 88 e2 3c 14 d1 15 be 63 02 65 bd
       0.03444654 0.02765288 -0.14630538 -0.05591048
000370 21 66 2f 3d de f8 cd 3c 18 9a 5a 3d d9 a7 90 bc
       0.042822007 0.025143083 0.05336961 -0.017658161
000380 32 17 24 3d 4f 91 5e bd f4 fe 44 bd ed f2 90 bc
       0.040061183 -0.054337796 -0.048094705 -0.017693961
000390 36 02 02 bd 68 be cb 3b da 04 7c bc 6b 0c 2b 3b
       -0.03174039 0.0062177666 -0.015382016 0.002609993
0003a0 72 a1 c1 bd 16 c1 1b 3d 4f 71 1e 3d cb dd 00 bd
       -0.094546214 0.038025938 0.03868228 -0.03146152
0003b0 44 00 81 bc 07 52 29 bd 1a dd e9 bc a8 9c f5 3b
       -0.015747197 -0.041337993 -0.028547812 0.0074954815
0003c0 47 45 39 3d d7 a3 2e 3d 25 dc 0b 3d 62 05 9e bd
       0.045232084 0.04263672 0.034145493 -0.077158704
0003d0 21 1a 83 bc 73 e0 e7 bc 73 2f 22 3a 42 dc 18 bd
       -0.01600367 -0.028305268 0.000618688 -0.03731943
0003e0 35 cb 36 bd 26 8f 3e bc 76 ad ee 3c dd 0e 82 bc
       -0.044627387 -0.011630809 0.029135447 -0.015876228
0003f0 9e 17 82 bd 9b 19 f7 3c d7 b8 a3 3c f5 fa 88 bc
       -0.06352161 0.030163577 0.0199856 -0.016721228

net.4.bias f4 [256]
000000 31 ac ab ba 40 c0 c0 bc 63 1d 02 3d be 5a 8f bd
       -0.0013097582 -0.023529172 0.031766307 -0.069997296
000010 6d 82 6e 3d f1 24 87 3d 7c 02 88 3c 1e 63 4f bc
       0.058229852 0.06598843 0.016602747 -0.012657909
000020 0a 97 0c 3d 1b 7b 0f 3d 31 6f 18 3d e0 69 ce bc
       0.03432373 0.035029512 0.037215415 -0.02519697
000030 0a 16 11 bd 0a 91 8a 3d 91 fd 0a bd a4 72 57 3b
       -0.03542141 0.06765945 -0.033933226 0.0032874728
000040 39 e2 3b 3c cd 3f 9e 3d b1 3c 12 3d 59 2c 91 bd
       0.01146751 0.07727013 0.03570241 -0.07088537
000050 40 d5 b1 bc 00 5a 94 bd a2 3c 7a 3d be 15 82 3d
       -0.02170813 -0.07243729 0.06109298 0.06351803
000060 48 ad 16 3b 3d 7c e8 3c c9 a3 92 3d b6 78 7d bb
       0.0022991467 0.028379554 0.07160146 -0.0038676686
000070 dd a1 a7 bd bd 48 3f bd d5 08 11 bd c0 d8 34 3c
       -0.0818517 -0.046700228 -0.035408814 0.011038005
000080 fc c9 b3 bc 2f 24 f9 bc 91 7d ac 3c 27 94 1d 3d
       -0.0219469 -0.030412761 0.021055968 0.038471367
000090 97 f1 73 bc d5 cc 34 3d 81 0a 68 3c 2a 9a 53 bd
       -0.0148891425 0.044140656 0.014162661 -0.051660694
0000a0 eb e2 4b 3d ee 92 17 bd ee 34 72 3d f7 02 92 bd
       0.049776953 -0.037005357 0.05913251 -0.07129472
0000b0 e2 3e 4b bd a6 a7 8f bd 2e e2 aa 3b fc 31 3a 3d
       -0.049620517 -0.07014398 0.005214951 0.045457825
0000c0 54 1a 77 3d 7b 43 9a 3c ea ab 00 bd ae 9d 2c 3d
       0.060327843 0.018831005 -0.03141395 0.042142563
0000d0 a9 e1 f3 bb 28 08 2e bd d9 74 bd bc ce b2 3f 3c
       -0.0074426723 -0.042488247 -0.023127006 0.011700345
0000e0 63 76 82 bd 31 f6 6c 3d b8 4d 89 bd 1d 91 07 3d
       -0.06370237 0.057851974 -0.06704277 0.033097375
0000f0 22 8c 01 bb 89 5e 31 bd bb 69 da 3c 22 c6 91 bc
       -0.0019767364 -0.043303046 0.026661744 -0.017794672
000100 2c 86 ac bc af 1f 75 3c 61 cc 8d bd 05 6c bd 3c
       -0.021060072 0.014961167 -0.06923748 0.023122797
000110 b0 0e 41 3d 40 22 15 bd 93 09 3d 3c 56 72 77 bd
       0.047133148 -0.036409616 0.011537927 -0.060411774
000120 1d cc 33 bc 91 1e 1d bd bc dc 43 bc bc c3 3d 3d
       -0.010973957 -0.03835923 -0.011954483 0.046329245
000130 7b 73 a2 bc 3e 57 89 bd c9 c1 ec 3c ea 66 86 3c
       -0.019830456 -0.06706093 0.028900998 0.016406495
000140 d2 37 78 bc a1 21 5a 3c 6c d1 1c bb e0 dd ce 3b
       -0.015150027 0.013313682 -0.0023928536 0.0063130707
000150 15 8a 03 3d 13 27 18 3d e6 e7 c6 3c 76 5e 58 bd
       0.032114107 0.03714664 0.0242805 -0.05282446
000160 fc f2 d7 bc de 4a ea ba 5a 8d a3 bc c5 07 1f 3d
       -0.026360981 -0.0017875095 -0.019964863 0.03882577
000170 b7 9a 40 3c 39 ef a4 3c ed f9 56 bd c1 95 85 bd
       0.011755637 0.020133602 -0.05248444 -0.06522704
000180 b0 9e ce bc 6d db e5 3c 26 e6 82 bd f4 48 87 bd
       -0.025222152 0.028058732 -0.063915536 -0.066057116
000190 6b 4e 81 bd f2 5c cb 3c f7 00 bf bc e8 39 f9 bc
       -0.06313785 0.024824593 -0.02331589 -0.03042312
0001a0 a6 fb 33 bd 9e 30 bf bd 46 3d 4a bd d8 31 93 3c
       -0.043941163 -0.09335445 -0.04937484 0.017968103
0001b0 f9 4a aa bd 74 15 a0 bd 15 24 71 bd 3a 2e 9c bd
       -0.08315081 -0.07816592 -0.0588723 -0.076260045
0001c0 18 b1 31 3d ee ba c2 bc 46 03 69 bd 7c 97 0b 3d
       0.04338178 -0.023770776 -0.056887887 0.034080014
0001d0 96 23 8f bb de d4 c4 3a 73 90 53 bd c5 a8 6c bd
       -0.004368256 0.0015017053 -0.05165143 -0.05777814
0001e0 4d 37 70 b9 24 fd b1 bc 90 54 88 3d 6c 35 50 bd
       -0.00022908785 -0.021727152 0.06656754 -0.050832197
0001f0 0d ab 13 bd 61 51 66 bd fb e5 a8 bb 8f 3e 83 bd
       -0.0360518 -0.056229953 -0.005154369 -0.064084165
000200 17 93 42 3d 5e 78 1e bd 13 94 7d bd e8 1d 56 bd
       0.047503557 -0.03868901 -0.061908793 -0.052274615
000210 f1 f4 10 bd 2d d3 1e bd 9c ed 24 3c 1a d3 ca 3c
       -0.035389844 -0.03877561 0.010066416 0.024758864
000220 dd 23 81 bc 87 5b 9a bd 04 b4 16 bd 00 c4 c7 3a
       -0.015764171 -0.07536989 -0.03679277 0.0015240908
000230 59 9f 59 3d a5 62 da bc c3 9b 73 bd ec 03 f5 3b
       0.05313048 -0.026658366 -0.059474718 0.007477274
000240 51 f5 92 3d 04 78 14 3c cb dd 3e bd 0a b8 49 3d
       0.07175697 0.009061817 -0.046598237 0.04924778
000250 b4 15 16 bd e3 d7 a1 bd 05 69 a5 ba c0 e3 c6 bb
       -0.03664179 -0.07902505 -0.0012619799 -0.0060696304
000260 86 65 da bb b4 2e c9 bc be 9e 76 bb 80 41 05 bd
       -0.0066649346 -0.024558403 -0.0037631239 -0.03253317
000270 03 f4 83 3c 5a 2b 8c bc 7c a0 7c bd 2a b5 e2 3b
       0.016107565 -0.017110515 -0.061676487 0.006918569
000280 b9 9b bd 3c 7f 24 52 3c 94 f9 9a 3c f0 ba 53 3c
       0.023145543 0.012826084 0.018917836 0.012922987
000290 5d ae 13 bd 7d 7a 6d bd 56 fb 2a 3d 69 95 4a 3d
       -0.036054958 -0.057978142 0.0417436 0.049458895
0002a0 c8 a7 b4 bc 45 8f 0d bc 67 bc 8a 3c f8 01 3c 3d
       -0.02205266 -0.008640115 0.01693554 0.045900315
0002b0 04 92 7f 3c 07 b4 17 bd 72 84 a4 bb 40 cd fc 3c
       0.015598778 -0.03703692 -0.0050206715 0.03085959
0002c0 81 dc 9b 3d d6 0a 8f 3a 38 f4 d9 3c d0 9f 39 3d
       0.07610417 0.0010913264 0.02660571 0.045318425
0002d0 f1 7a 43 3b a1 65 aa bc 5b 80 98 3d 2d 6d ec 3c
       0.0029827917 -0.020800414 0.07446357 0.028860653
0002e0 bd 03 bc ba fa ef 48 3d 53 0c 87 3d c4 43 e7 bc
       -0.0014344376 0.049056984 0.065941475 -0.028230555
0002f0 0f cb 4f 3d 2c 13 1e 3d ad 1e cc bc bb 47 fc bc
       0.05073076 0.038592502 -0.024916971 -0.030795923
000300 cc df 88 3d 2a ea 4b 3c 46 4e 57 3b 51 6f c7 bc
       0.06683311 0.012445966 0.003285305 -0.024345072
000310 b6 69 80 bb bd 8e cb bd bf 77 0b 3d 55 41 98 3b
       -0.0039188517 -0.099393345 0.034049746 0.00464646
000320 f1 1f 46 3d 0c 71 71 3d d1 9a 5a bd cc 08 7f 3c
       0.048370305 0.0589457 -0.0533703 0.015566062
000330 9d b1 79 3b cb 05 41 bd a3 ec a2 bd 38 1e 7c 3d
       0.003810025 -0.047124665 -0.07955291 0.061552256
000340 53 f0 5d 3d da f9 1e 3d 3b 92 97 3d 93 93 a7 bb
       0.05418427 0.038812496 0.07400938 -0.0051140278
000350 a0 2f 4b bc 1a 67 9c bd 43 8f b1 bd d6 51 5f bc
       -0.012401491 -0.076368526 -0.08669903 -0.013630351
000360 eb ed a9 bd 80 8a 26 bb 96 93 5e bd e9 7b 14 3d
       -0.082973324 -0.0025412142 -0.054339968 0.036250982
000370 59 2b 72 3c dc 63 86 3b d2 0d df 3b a3 99 90 3c
       0.014780843 0.0041012596 0.0068070674 0.017651385
000380 5c 91 9f bb e5 1b 43 bd 14 7c 79 bd be 1c d9 bc
       -0.004869623 -0.047634024 -0.060909346 -0.026502963
000390 fe de 57 3d a9 96 00 bd 4e 9f 4f bd 04 b5 a3 3c
       0.052702896 -0.03139368 -0.050689034 0.019983776
0003a0 db f6 ff 3c 28 d6 57 bb d0 f6 3d bd 6a c3 21 3d
       0.03124564 -0.0032934044 -0.046377957 0.039493002
0003b0 fe 56 9a bd f8 f9 40 bd 4c 30 b8 3c 6b 6b 23 39
       -0.07536124 -0.04711339 0.022483967 0.00015584908
0003c0 ed 51 b2 3c 88 c0 89 bd ed 36 04 bd 37 0a 01 bd
       0.02176758 -0.067261755 -0.032278944 -0.031503882
0003d0 7e cb 38 bd da 4c a0 3d 3f 9a 07 3d fd be 4d 3d
       -0.04511594 0.07827158 0.033106085 0.05023097
0003e0 a1 93 cf bc 2d 4a dc 3c db 27 89 bd 83 3c 04 3d
       -0.02533895 0.026890839 -0.06697055 0.03228427
0003f0 80 8a aa 3b dd c3 7d bb 30 63 9f bd d6 5e 9c 3c
       0.005204499 -0.003872148 -0.077825904 0.01908819
