models/model_final.pt (torch, 816838 bytes, 11 tensors)

y_embedding.weight f4 [4, 16]
000000 e4 bb 57 40 2e 3e 17 bf 26 76 4d bf 48 ce e7 bd
       3.370843 -0.59079254 -0.80258405 -0.11318642
000010 13 9c df be 12 a7 e6 be 98 81 19 bf 73 3f 18 3b
       -0.43673763 -0.4504934 -0.5996337 0.0023231178
000020 e0 9a 5e 3f 45 07 1d 40 e5 7c e8 bf 0e 48 dc 3d
       0.8695507 2.4535687 -1.8163115 0.10755931
000030 cb 3b fe 3d 20 fe bb 3f 20 b7 8a 3f 8d 65 f0 bf
       0.12413748 1.4686928 1.0837135 -1.8780991
000040 19 37 37 be 67 47 8d 3f 93 d2 48 3e 66 1d ce 3f
       -0.17892112 1.1037415 0.19611578 1.6102722
000050 d3 2d dd 3e 6f 18 db 3f dc 50 7d 3f b3 8a c6 bf
       0.43199024 1.7116832 0.98951507 -1.5511078
000060 4d 39 9e be e7 08 8d bf e5 bf 80 bf 91 fc 1d 3f
       -0.30903092 -1.1018342 -1.0058562 0.6171351
000070 a5 ff 87 be 8e 53 be be a7 30 ad 3e 32 e7 7d be
       -0.2656223 -0.37173122 0.3382618 -0.24795225
000080 42 2a 18 3f ad 8d 24 be 1a 6d dd be bc 74 74 3e
       0.5943948 -0.1606967 -0.432473 0.23872656
000090 e5 24 44 3f 77 e5 22 bf 03 4d 72 bf f9 40 c4 be
       0.76618797 -0.63631386 -0.9464876 -0.3833082
0000a0 15 b8 e4 3f c7 58 04 bf 22 54 ba bf bd 3f 02 bf
       1.7868677 -0.51697963 -1.4556925 -0.50878507
0000b0 74 46 d7 3e 60 93 38 be 24 bc 16 be 3a 06 68 be
       0.4204594 -0.18024969 -0.14720207 -0.22658625
0000c0 ec 00 da bf 19 f5 45 3f 9c d9 1d be 01 b9 c9 3f
       -1.7031531 0.77327114 -0.15415043 1.5759584
0000d0 9d 4b ff be 14 3e 5b 3f 47 e7 83 3e 22 b2 ac bf
       -0.49862376 0.856416 0.25762388 -1.3491862
0000e0 d7 80 83 3e 1b 9f 00 3f 94 3b 99 bf 6b 93 3f 40
       0.25684234 0.50242776 -1.1971307 2.9933727
0000f0 ce eb d7 3f da 4e 8b be 3e 39 f0 be 1d 70 08 3f
       1.6868837 -0.27208596 -0.46918672 0.5329607

net.0.weight f4 [256, 19]
000000 9f e4 0c 3d 7a d0 2d 3b ce 9a f1 be ba 19 3d 3d
       0.034397718 0.0026521967 -0.4718842 0.046167113
000010 77 3a a2 3d af 41 42 be fb 99 5e 3d f1 e2 23 3e
       0.079213075 -0.18970369 0.054346066 0.1600454
000020 59 b9 f3 bd 16 1c 3f 3d c6 6c 8a 3c 3e fd ec 3d
       -0.11900587 0.046657644 0.01689757 0.115717396
000030 92 ee 99 bd ea 08 67 bb 84 3e 32 bd a1 b4 2a 3e
       -0.07516207 -0.0035253116 -0.04351665 0.16670467
000040 aa 64 d4 3d 7d 97 c6 3d c7 a7 26 3e 46 5a ee bd
       0.10370763 0.09696863 0.1627494 -0.11638312
000050 c3 16 53 3e 84 ee b7 3e 13 9f 5f bd f3 1e 2f be
       0.20614152 0.3592416 -0.054595064 -0.1710165
000060 7f 0c af bd 1d a9 9c bd be 25 03 be 6d 45 f4 bd
       -0.08547305 -0.07649443 -0.12807366 -0.119273044
000070 f0 9d 00 3e ef 12 d2 bd c7 61 51 3d 69 57 12 be
       0.12560248 -0.102575175 0.05111864 -0.14291157
000080 6f ad 5e bd 16 d7 a2 bd bb bd 22 be 8e 24 ca 3d
       -0.054364618 -0.07951181 -0.15892689 0.098702535
000090 53 76 a3 3b 34 a2 90 bd 19 49 8b be d6 bf 91 be
       0.0049884706 -0.07062188 -0.27204207 -0.28466672
0000a0 89 c0 ba 3e 52 c9 ef 3d 7f 4a 76 bd 31 e7 04 3e
       0.36475018 0.11708321 -0.06012964 0.12978818
0000b0 6d 84 0d be 49 ad 49 bc f8 f2 04 3d c8 88 21 bb
       -0.13820048 -0.012309381 0.032458276 -0.0024648178
0000c0 a1 4a 69 3c f7 d1 1c 3e 18 94 1d 3e 91 f9 e8 3d
       0.014238984 0.1531447 0.15388525 0.11375726
0000d0 d2 e3 9e 3d 2f e3 72 3e dd d4 b6 3d 76 2e 61 be
       0.07758297 0.23719476 0.08927319 -0.2199038
0000e0 f9 9e ff 3d e5 68 4d bc d6 9c 62 be b2 80 15 3f
       0.124814935 -0.012537216 -0.2213014 0.583995
0000f0 58 32 3e 3e 60 86 0d 3e 61 36 f7 3d b6 aa 17 ba
       0.18573892 0.13820791 0.12070919 -0.0005785631
000100 56 bc aa 3d 04 ce bd 3c 8f 2d da 3d ba 97 60 3e
       0.083367035 0.023169525 0.10653221 0.21932879
000110 fa c3 ff bd d7 56 6c 3d 8a 3c ef 3d 5a f7 84 3e
       -0.124885514 0.057700004 0.11681469 0.25969964
000120 6a 1e 46 3e 70 46 89 bd a3 30 e7 bc bf 5b a7 bc
       0.1934754 -0.06702888 -0.028221434 -0.02042949
000130 58 6b b5 3d 2f 99 65 be e6 95 0b 3e ad 96 b6 bc
       0.08858365 -0.22421716 0.136314 -0.022288645
000140 81 01 a4 bd bb 09 89 3d 9b 99 c4 bd 6b f8 a4 3d
       -0.08008099 0.06691309 -0.095996104 0.080551945
000150 10 bc 4f 3e c2 b1 5c be d9 b0 c8 3d 11 80 37 be
       0.20286584 -0.21552184 0.09799356 -0.17919947
000160 2f 0e 96 bd 47 42 5c 3d 5f ea 50 3e ad 08 6f 3d
       -0.07326924 0.053774145 0.20401905 0.058357883
000170 89 4a 3e 3e e2 44 97 3d 4d cd 5c bc ba da 0b 3d
       0.1858312 0.07386185 -0.013476682 0.03414414
000180 f2 61 0d 3d de 0f 2d 3e a9 d8 26 3e 52 20 43 bd
       0.034517236 0.16900584 0.16293587 -0.047638245
000190 ea 77 81 3e c0 f1 52 3d 68 71 f3 3c 3a d7 ea bd
       0.252868 0.051500082 0.029717162 -0.114668325
0001a0 97 d8 6b 3d 3d 89 7f bc 02 2d a2 bd 66 56 16 be
       0.057579603 -0.015596685 -0.07918741 -0.14681396
0001b0 7f 06 e7 3d 9e 3a 01 3e b1 5a 18 3e e6 04 b4 3d
       0.11280536 0.12620017 0.14878346 0.08789997
0001c0 7b ef 11 bc 18 97 c1 bd 24 02 a2 be b4 8e 0f 3d
       -0.008907194 -0.09452647 -0.31642258 0.0350482
0001d0 8a 8c 97 be 1a 2f 05 be 0f c6 28 3e 65 0e 71 be
       -0.2959941 -0.13006249 0.16481803 -0.23540647
0001e0 1f 4b a3 bd e8 ae 4b bc 0d 9e 75 be de 83 1f 3e
       -0.079733126 -0.012431838 -0.23986073 0.15577647
0001f0 cc 14 fe bb b6 d5 25 be 35 59 c2 3d 2b da e7 bc
       -0.007753944 -0.16194806 0.09489671 -0.028302273
000200 79 16 b2 3d bc 0e bf bd 02 09 58 3e 6f 63 56 3e
       0.086956926 -0.09328982 0.21097186 0.20936368
000210 e6 b5 bd 3d 39 ca 64 3e e7 bd d4 3d dc 07 8e 3e
       0.0926321 0.22342767 0.103877835 0.2774037
000220 fa 0a b6 bd d2 8d a5 3d b0 15 54 3e ff b8 87 bd
       -0.08888812 0.08083691 0.20711398 -0.06627082
000230 ec 37 5b be c8 81 36 3b c0 0f ba bd bc 50 46 3e
       -0.21408051 0.0027848352 -0.09085035 0.19366735
000240 28 7c 73 bd 08 7f 37 3e 07 9d 12 be 1e 43 62 3e
       -0.059444577 0.17919552 -0.14317714 0.22095916
000250 70 88 fa 39 b0 e9 82 3d 7a fe 6c bd 11 3d 12 be
       0.0004778537 0.063922286 -0.057859875 -0.14281107
000260 6e 55 3f bd c6 27 d1 3d 76 3f 35 3e 72 80 d4 bd
       -0.04671233 0.10212664 0.1769999 -0.103760615
000270 ea a2 fe 3d 37 21 56 3e 45 1a 5d bd 57 a1 59 3e
       0.12433417 0.20911108 -0.05398013 0.21252953
000280 a5 df 68 be ac 12 d6 3d e3 4d c4 3b 33 fd 3f 3e
       -0.22741564 0.1045278 0.00599073 0.18748932
000290 48 05 54 3e 3b 8d 31 3e 79 31 ac 3d b1 e0 01 3e
       0.2070514 0.17339031 0.08407874 0.12683369
0002a0 c9 e1 21 bc 8f 1b 32 3d 15 49 f4 bd 57 32 03 be
       -0.0098804915 0.043483313 -0.11928002 -0.12812172
0002b0 ed 39 01 3e bc 87 53 be bc c9 4d be 4a 00 18 3e
       0.12619753 -0.20657247 -0.20096487 0.1484386
0002c0 c3 25 74 be c9 46 27 3e 39 d1 38 3e 84 d7 a8 bd
       -0.2384253 0.16335596 0.18048562 -0.08244231
0002d0 db 43 43 be 6b f7 2b 3e e1 2d 45 be 92 ac e5 bd
       -0.19068854 0.16793601 -0.19255783 -0.11214556
0002e0 fb 0f ba 3d 1a 08 48 be 30 39 60 bd 16 46 4a be
       0.09085079 -0.1953434 -0.05474204 -0.19753298
0002f0 a3 48 c6 bd b8 9c 0f 3c 70 21 d3 bb bb 2e 12 be
       -0.09681823 0.008765392 -0.006443195 -0.14275639
000300 52 05 0b bd 05 78 1a be 1f 75 6a 3d 18 e7 0b be
       -0.03394062 -0.15084846 0.0572406 -0.13662374
000310 14 8f a3 3d 9d 29 2d 3e 6a 66 af bd 84 ed 40 be
       0.07986274 0.16910405 -0.08564456 -0.18840605
000320 6f 05 2e bd c6 ce ce bd af 04 03 be 07 60 c0 3d
       -0.04248565 -0.10098033 -0.12794755 0.09393316
000330 ee 65 19 3d 31 84 1d 3e 15 4e 8f bd f0 46 13 be
       0.037450723 0.15382458 -0.06997315 -0.1438253
000340 50 7c f4 bd 70 cc 7d be cc be f8 3d 94 c4 02 bc
       -0.11937773 -0.24785018 0.121457666 -0.007981438
000350 d9 77 52 be c1 c7 ac bd 14 28 0f 3e 8e 71 10 3e
       -0.20553531 -0.084365375 0.13980132 0.14105818
000360 12 4f bb 3d 58 a6 b6 3d 15 8e 2f be 6f 91 d1 bd
       0.09145941 0.08918446 -0.17144044 -0.102328174
000370 2f 63 4e be f2 17 17 be 0e 7b 81 3e 90 ec 82 be
       -0.20155023 -0.14755228 0.25289196 -0.25571108
000380 61 6f 68 3d 43 52 2c 3e 6e 82 c5 bd 60 58 1b bd
       0.056746844 0.16828255 -0.09644018 -0.037926078
000390 68 ac 9d 3d 8a e0 05 3e c2 32 55 bf 25 be 2c 3e
       0.076988995 0.13073936 -0.83280575 0.1686941
0003a0 21 89 51 3e 15 d6 d8 bc 2e b1 4a 3e a6 76 7e 3d
       0.20462467 -0.02646927 0.19794151 0.06212487
0003b0 c0 09 da 3c 81 06 80 bc fd 7f f7 3d 2d 25 a4 3b
       0.026615977 -0.015628101 0.12084959 0.0050093145
0003c0 ee 4b 1c be 28 1d 32 be c4 ad 9b 3d 0b 77 f2 3d
       -0.1526334 -0.17393935 0.076015025 0.11839112
0003d0 84 b1 3b 3e f8 5d f1 3b 64 9e 27 bd 4d e0 2d 3e
       0.18329436 0.0073659383 -0.040922537 0.16980095
0003e0 1b 9d 04 bf 12 01 23 bf e9 0a 0f be 52 2a 29 3e
       -0.51802224 -0.6367351 -0.13969006 0.1652005
0003f0 90 35 4c be 30 d1 f1 bd 6d b8 3e be 05 09 78 3e
       -0.19942307 -0.118074775 -0.1862504 0.2422219

net.0.bias f4 [256]
000000 11 bd 50 bb 9a ae c7 bd 82 dc 27 3e fd c6 fe bd
       -0.0031850974 -0.097500995 0.16392711 -0.12440298
000010 df f6 28 3e b0 06 69 bd 4c 90 12 bd 38 3d 13 3e
       0.16500424 -0.056891143 -0.035782143 0.14378822
000020 0d 9d 6e bd a5 ac 97 3d e0 e5 34 be 23 04 d9 bd
       -0.058255244 0.07405976 -0.17665815 -0.10596492
000030 ef 27 f5 3d 6a d4 a7 bb 2a 34 24 3a 5f f1 18 be
       0.11970507 -0.0051217573 0.00062638766 -0.14935826
000040 8f ee 59 bb e6 81 e3 bc 98 16 6e be 41 d4 63 3e
       -0.0033253764 -0.027771901 -0.23250806 0.22248937
000050 cb 9b ab 3d ac 22 e1 bd 9e 48 16 3c 53 4b 2e be
       0.083793245 -0.10992941 0.009172587 -0.17020921
000060 11 3f 83 bd 9c e5 44 3c 35 56 9c 3c 53 fc 2e be
       -0.06408513 0.012017634 0.019084075 -0.17088442
000070 89 00 23 3e d1 ed 3c be 8f e2 1c 3d dc f5 22 bc
       0.15918173 -0.18450095 0.038302 -0.009946313
000080 7c 9b fb bc 26 9d 41 be 49 25 0b bd 4a bf 2d be
       -0.03071379 -0.18907604 -0.033971105 -0.16967502
000090 3b b3 1a 3e fd fb 22 bd 65 20 45 be 9c 2f 90 3d
       0.15107433 -0.039791096 -0.19250639 0.07040331
0000a0 5e b7 70 3e 8f fb d9 bc a8 e4 90 ba b6 38 a6 bc
       0.23507449 -0.02660921 -0.0011054473 -0.020290714
0000b0 e4 30 41 be 64 b5 ae bc 1b e8 cd bc 11 6c 0f 3e
       -0.18866307 -0.021326728 -0.02513509 0.14006068
0000c0 11 8d 1a bd 06 2f 3b be 07 67 19 be c8 05 00 be
       -0.037732188 -0.18279657 -0.14980708 -0.12502205
0000d0 53 20 99 3c ac e0 f7 3d 0f e9 11 be 57 4c 9f bd
       0.018692171 0.121034 -0.14249061 -0.077782325
0000e0 19 71 7c 3d 5b 24 9f bd 11 74 dc 3c dc cc 54 3d
       0.061631296 -0.07770606 0.026910814 0.05195318
0000f0 f0 56 a6 3d a1 cc 57 be cf 17 3c 3d b7 ff 36 bd
       0.08122051 -0.21074153 0.045921143 -0.044677462
000100 03 1c 60 3c 70 97 b0 bd 00 45 19 be e4 ff 00 3e
       0.0136785535 -0.086226344 -0.14967728 0.12597615
000110 e5 92 3c 3e c1 1d 6e be b7 bb 17 be 7e 46 fb bd
       0.18415411 -0.23253538 -0.14817701 -0.12269305
000120 b5 5e 15 3e 20 e6 62 be 78 74 92 3d 39 05 8c bc
       0.14586909 -0.22158098 0.07151121 -0.017092334
000130 1b 7b 74 3d cf 64 8e 3d 1b 3a 97 3e 90 2e 50 3d
       0.059687715 0.069528215 0.29536518 0.050825655
000140 98 f8 e4 3d c4 ca b2 bd 6e ca 4a 3e 5d 5d ed 3c
       0.11180228 -0.08730081 0.19803783 0.028975183
000150 c2 96 64 be be 88 dd 3c 4c ff e7 bc 19 d3 38 be
       -0.22323135 0.027042743 -0.028319977 -0.18049277
000160 1b 66 13 3e 57 d9 70 3d 35 b0 16 be 7a d4 f0 3c
       0.14394419 0.05880102 -0.14715655 0.029398192
000170 a7 f2 60 3d 5a 9e 28 3e 50 17 b3 3d 6b 21 64 3d
       0.05491891 0.16466656 0.08744681 0.055695932
000180 3d ef 16 be c5 b0 74 be 08 87 11 3e a6 51 66 3e
       -0.147397 -0.23895557 0.14211667 0.22492084
000190 de 06 a2 bd 97 9c e7 3b c1 c5 35 3d f9 28 bf bc
       -0.07911466 0.0070682275 0.044378046 -0.023334967
0001a0 42 e6 88 be 7c 3a ec bd bf e6 1e bd 93 46 44 bd
       -0.26738173 -0.115345925 -0.038794275 -0.047918867
0001b0 c2 14 02 be ab 8d 4d be 86 9a d6 3d 3f 21 de 3d
       -0.12703231 -0.20073573 0.10478692 0.10846185
0001c0 0f ef 3c be eb 4d fd 3d 6d 70 80 3d f5 5c 37 3e
       -0.18450569 0.12368377 0.062714435 0.17906554
0001d0 a6 cd e8 bd a3 8f d1 3c 71 60 ef 3d 5a 2b 57 bc
       -0.11367349 0.025581187 0.116883166 -0.013132894
0001e0 2d 20 69 bd ae 9f 55 3d e2 4e 0d 3e 3b 1a c8 3d
       -0.05691545 0.052154236 0.13799623 0.09770628
0001f0 80 70 69 be ac f6 b7 bd fa 8f a6 bd 40 08 31 be
       -0.22796822 -0.08982596 -0.0813293 -0.17288303
000200 ea 33 32 bd 73 bd 4c be 4d 1a b6 3d 40 3e 97 bd
       -0.04350654 -0.19994144 0.08891735 -0.0738492
000210 26 8d dc 3c 9a 9c 10 3e 27 b9 09 3e 31 75 71 be
       0.026922774 0.14122239 0.13449536 -0.23579861
000220 71 4f 36 be 78 16 47 bd 7f 11 a2 3d 9a 19 94 3d
       -0.17803742 -0.048605412 0.07913493 0.072314456
000230 10 9f 58 3c 94 0a bf bd 0f 7b 2e 3d 1b 68 1c bd
       0.013221517 -0.093281895 0.042597827 -0.03818522
000240 d1 b6 fe bd b0 a1 09 3e 2c d0 50 be a7 61 86 3d
       -0.12437213 0.13440585 -0.20391911 0.065615945
000250 cf 55 4c bd ed 18 56 3e ff 7d e3 bd a2 d6 67 3e
       -0.04988652 0.20907946 -0.11108016 0.2264047
000260 22 90 1c 3e 11 33 1f be 78 1d c1 3d 43 9d 76 bd
       0.15289357 -0.15546824 0.09429449 -0.06020857
000270 61 91 94 3c 23 7c 4d 3e a8 87 cf bd 2e d2 45 3e
       0.018135728 0.20066886 -0.10133296 0.19318458
000280 80 b7 03 be cb 2c 96 3d d7 8e 2e 3c 46 37 ba 3d
       -0.12862968 0.07332762 0.010654173 0.09092574
000290 8c 41 35 be fc a6 9f bd 1b 9d cb 3d d7 9a 4f 3d
       -0.17700785 -0.077955216 0.09942075 0.050684776
0002a0 ea 78 2f 3d 22 46 cf 3d 29 34 58 be ef 3b 18 3e
       0.042839922 0.10120799 -0.21113648 0.14866613
0002b0 d6 db 95 bd f7 de 3b be cc bf c0 bc b3 af 71 3e
       -0.07317321 -0.18346773 -0.023528956 0.2360218
0002c0 85 78 5e be 9b 11 44 be 4f 7f 81 3b 1f 1e 01 be
       -0.21725662 -0.19147341 0.003951944 -0.12609147
0002d0 56 a8 bc 3d c2 95 13 be 4a 91 bd bd 81 07 26 3d
       0.09211795 -0.14412597 -0.09256227 0.0405345
0002e0 63 6c c4 3b 04 b2 6a 3d 90 35 e1 bd 50 e8 1f bc
       0.005994366 0.057298675 -0.10996544 -0.009759977
0002f0 7c 02 bb bd a6 8b f7 bb f4 30 34 bd 5a c6 7e 3d
       -0.09131333 -0.007554489 -0.043991998 0.06220088
000300 35 7e 02 3d ad 59 ae bc c1 5e 89 be 97 d6 b8 bd
       0.03185864 -0.021282995 -0.26830104 -0.09025305
000310 ba 26 34 be e1 ff 14 3e 06 66 1c 3e bc 34 25 be
       -0.17592898 0.14550735 0.15273294 -0.16133398
000320 9d 6a 1e be bb 5f 66 3d 88 4d b8 bd e8 0b 1a be
       -0.15470357 0.05624364 -0.08999163 -0.15043604
000330 82 98 11 be 97 9b 81 be 70 9c e6 bd 7a 5c 94 bc
       -0.14218333 -0.25314018 -0.11260307 -0.018110503
000340 ae e1 2c 3e af 9c 0b bc d5 48 26 3e 2d f1 8e be
       0.16882965 -0.008521243 0.1623872 -0.27918378
000350 4d ff 08 be 01 df 0e be 23 0c 8a be 44 0f 7e be
       -0.1337864 -0.13952257 -0.26962385 -0.24810511
000360 6c 2b db 3d 16 f7 d9 bd db a9 75 be db 0a 29 be
       0.107016414 -0.10642831 -0.23990576 -0.16508047
000370 a0 4e 0b 3e dd f1 31 3e a9 04 ab bd 89 08 4c 3e
       0.13604212 0.1737742 -0.08350498 0.19925131
000380 a2 b3 29 be f6 07 71 3d 93 14 a6 3c 13 f5 56 bd
       -0.1657243 0.058845483 0.020273482 -0.052479815
000390 ec c5 d2 bd ba e3 ba bd 55 48 23 be 5a d9 aa bd
       -0.10291657 -0.09125467 -0.15945561 -0.08342238
0003a0 61 c5 b7 bd 05 f3 4d be b9 b0 15 be fe 51 30 3e
       -0.08973194 -0.20112236 -0.14618196 0.17218778
0003b0 06 f0 72 3d 37 0a e8 bd 52 9c b8 bd 7f ff 21 3e
       0.059310935 -0.11330073 -0.09014191 0.1582012
0003c0 8d 3e 33 be 93 9d 73 be c3 bd 12 3e cc db 16 be
       -0.1750433 -0.23790579 0.14330201 -0.14732283
0003d0 1f 1d 68 3e b8 9e 02 be 89 8b f9 3d c1 d5 42 be
       0.22667359 -0.12755859 0.12184817 -0.19026853
0003e0 43 76 0f bd 97 6e 01 be 6b a5 21 be 57 8d 5a be
       -0.035024893 -0.12639843 -0.15785758 -0.2134298
0003f0 19 89 0d bd 02 6a a0 ba 78 60 c2 3d f3 21 9c bd
       -0.034554575 -0.0012238624 0.09491056 -0.07623663

net.2.weight f4 [256, 256]
000000 dd 39 52 3d 42 04 40 bc e5 67 78 be 4d eb fc bd
       0.051324714 -0.011719765 -0.24258383 -0.123495676
000010 ac 2d bb 3c 3f 96 95 3c 22 d0 81 3b 29 02 c0 bd
       0.022848926 0.01826012 0.003961579 -0.09375412
000020 54 7d be bd ef 0a 02 3d a2 36 33 bd d0 5d a1 3d
       -0.09301248 0.03174871 -0.043753274 0.078792214
000030 68 88 b0 3e cd 73 af 3d f0 15 91 bd e0 db a4 bd
       0.3447907 0.08567009 -0.07084262 -0.0804975
000040 a8 6a d2 3d 28 a0 a7 bd ea 93 1b be 67 15 dc 3d
       0.10274249 -0.08184844 -0.15193143 0.1074627
000050 a1 88 9e bc 80 07 32 be 58 33 af bc 3d c8 e9 bd
       -0.01935226 -0.17385674 -0.021386787 -0.114151455
000060 e0 24 34 bd 93 fc fb bd 67 03 ae 3b 1a 7b 33 be
       -0.04398048 -0.12304034 0.005310464 -0.17527428
000070 fd 4d ad bb 41 7d ac bd dd 0b 63 3e 68 85 1d 3c
       -0.005288838 -0.08422328 0.22172494 0.009614326
000080 e8 d0 8a bd 86 7e d4 bd ff 54 74 3d f4 9e cd bd
       -0.06778127 -0.10375695 0.05965137 -0.100400835
000090 c5 98 c6 3c 9e 44 98 3d 23 02 0c bb e6 d5 aa bc
       0.024242768 0.07434963 -0.0021363578 -0.020853948
0000a0 31 e4 f6 3d 78 a8 74 3e d3 a3 82 3e 92 82 b2 bc
       0.12055243 0.2389239 0.25515613 -0.021790776
0000b0 8a 61 6f 3d ed 8f 84 3e 57 85 82 bd 5f be d7 bc
       0.05844263 0.25891057 -0.06373089 -0.026335893
0000c0 ce cc ae 3d cc f1 1c be a1 00 b1 3c 42 6f 47 be
       0.08535157 -0.15326613 0.021606745 -0.19476035
0000d0 31 a9 dd 3d 8c 9a 9f 3c a8 28 58 3d c7 c7 8b 3d
       0.10823286 0.019482873 0.052773148 0.06825214
0000e0 4c a5 03 be 92 c6 6b bc df b3 12 bb 14 ff 3a be
       -0.12856025 -0.014390605 -0.0022385044 -0.18261367
0000f0 0c bb 93 bd c2 4b b8 bd f5 55 ec bd ba 3b 83 bc
       -0.07213411 -0.08998825 -0.115398325 -0.01601969
000100 2b d7 02 be 1a a0 b7 3c 23 db 04 bc b2 f0 6e bd
       -0.12777393 0.02241521 -0.008108887 -0.058335014
000110 cd 7a 4b bd 95 3f 53 bd c6 b7 25 bc 3b a3 22 bb
       -0.04967766 -0.05157431 -0.010114616 -0.0024816531
000120 e9 b8 b7 3b 2e bf 8e ba 88 1e ea bd 9e 2d 0c 3e
       0.00560676 -0.0010890716 -0.114316046 0.13689277
000130 b8 7a 83 bc b8 e7 32 3e 53 54 af 3e 11 17 08 3d
       -0.016049728 0.17471206 0.34244022 0.033225123
000140 67 ee d8 bd 45 72 df 3c 9e 16 4c 3e f2 ab b3 3d
       -0.10592347 0.027276168 0.19930503 0.0877303
000150 a0 1d 83 bd 27 11 a8 3a f2 54 9d 3d 93 fa a8 3d
       -0.06402135 0.0012822495 0.07682218 0.08250918
000160 03 d2 1e be 5d da 07 be d7 04 a9 bd d5 7f 39 bd
       -0.155098 -0.13266893 -0.08252876 -0.045287926
000170 d0 84 43 3c a3 f1 83 3e cc 9b b2 bd de 2c 62 bd
       0.01193352 0.25770292 -0.08721122 -0.05521857
000180 52 35 63 3d 88 fd 99 bd b7 75 08 3d 58 61 94 3c
       0.055470772 -0.075190604 0.033315387 0.018112823
000190 12 ad 21 3e 7f 4d 52 be d8 69 89 bc 46 42 a2 bd
       0.15788677 -0.20537375 -0.016774103 -0.07922797
0001a0 76 f3 48 be 92 56 a3 3c 6c 71 f1 bd 8b db 20 bd
       -0.19624123 0.01993874 -0.11789212 -0.039271872
0001b0 7f b0 94 3d 98 c2 30 be e8 56 e8 3d b1 d2 62 bb
       0.072602265 -0.17261732 0.11344701 -0.0034610445
0001c0 5d 5a 22 be 66 02 2e be 1f 04 f8 3d 7d eb 8e bc
       -0.15854783 -0.16993102 0.12110161 -0.017446274
0001d0 34 ce 68 3e c8 d7 6d be 29 98 88 bd 02 f8 d6 bb
       0.2273491 -0.23226845 -0.06669647 -0.0065603266
0001e0 2f 6a 35 bd 9f 9a 1f 3d f8 63 b1 bd a1 a7 91 3d
       -0.044290718 0.038965818 -0.08661646 0.07112051
0001f0 a7 c9 95 be de b4 0f 3e 74 1d 6e 3d 1c 80 6a 3e
       -0.2925541 0.14033839 0.058133557 0.22900432
000200 b8 d6 77 bc b8 08 e4 3c a7 99 c7 bd 7f d2 15 be
       -0.0151268765 0.027836189 -0.09746104 -0.14631079
000210 f1 a7 67 bd 45 d5 a3 bd 7f e0 6c 3b 5f 3b 3f 3d
       -0.056556646 -0.07999662 0.0036144552 0.04668748
000220 72 0a ec bd bc 80 74 bd c0 08 5b bd a6 10 bf bb
       -0.1152543 -0.059693083 -0.05347514 -0.005830842
000230 e5 3e 3e 3d 79 6a 7a bd a6 e1 91 3e c6 dd ef bb
       0.0464467 -0.061136696 0.2849247 -0.0073201386
000240 70 20 81 3d e2 ca 9d bc e2 46 a5 3c 6a 5d 82 3d
       0.06305015 -0.019261781 0.020175401 0.063654736
000250 59 4f 17 bb c2 3d 73 3e a7 d4 e7 3c 78 62 43 3d
       -0.0023088066 0.23754027 0.028299643 0.04770133
000260 01 2a 54 bc 11 b3 e8 bd 28 d1 c1 3b 8a b4 18 3d
       -0.012949468 -0.11362279 0.005914826 0.03728155
000270 8e 82 4a be 34 fe e0 3d 05 3f e2 3c f5 9f 98 3d
       -0.19776365 0.109859854 0.02761794 0.074523844
000280 2f 99 d1 bc 3a 59 ae be 67 6b 09 bd 2a a5 93 bd
       -0.025585739 -0.3405245 -0.033549692 -0.07209237
000290 1b 37 74 3b 7a a1 00 bd a1 35 1a be 2b 47 a3 bd
       0.003726429 -0.031403996 -0.1505952 -0.079725586
0002a0 85 d4 65 be ca 3e cd bd 40 c2 95 be 4a 4e aa bd
       -0.22444351 -0.10021742 -0.29249763 -0.08315714
0002b0 9d 0c 39 bd 18 87 c6 3d f0 5e 47 bd 5b 4b 94 3e
       -0.045178045 0.09693736 -0.048674524 0.28963742
0002c0 d7 ff d4 bb 58 80 e8 bd 93 68 13 3c 0d 54 82 bd
       -0.006500225 -0.11352605 0.0089971 -0.06363688
0002d0 de b1 c7 3d 44 e6 df bd 42 d0 18 3e 26 5b 2c bc
       0.09750722 -0.109325916 0.14923194 -0.010519778
0002e0 14 26 72 3d 7e 60 8a bd 89 62 84 3c dc 0e 3b 3c
       0.059118345 -0.06756686 0.016160266 0.011417117
0002f0 db 67 5a bd 03 5e ad 3c 77 16 e5 3d 33 b5 40 3d
       -0.0533217 0.021162992 0.111859255 0.047047805
000300 81 bd 1a be b8 4c 19 be 97 ff 96 bd 68 80 00 3e
       -0.15111353 -0.14970672 -0.07372969 0.12548983
000310 c5 d7 8f be ad 5c ac 3c b8 1c 3f 3d 8f cc 8f bc
       -0.28094307 0.021040285 0.046658248 -0.017553596
000320 17 e0 aa 3c 2c 59 9f bc 75 48 2a be f3 c3 77 3e
       0.020858807 -0.0194517 -0.16629203 0.24195842
000330 a4 ca ad bc 05 4e 86 bd e7 2e 11 bc db 90 72 3d
       -0.02121479 -0.0655785 -0.00886128 0.059220176
000340 42 73 3c be 92 5f e5 3d c0 d9 37 be 62 0b 03 be
       -0.18403342 0.11199869 -0.17954159 -0.12797311
000350 06 14 ab be 43 1a b5 3d 0b b6 7d bd 3f 47 d5 bd
       -0.33413714 0.088429 -0.061941188 -0.1041398
000360 b8 65 71 3d e4 07 d2 bd b8 61 cf bc 3a 8c 00 bc
       0.058934897 -0.10255411 -0.02531515 -0.007845933
000370 76 a1 dc 3d 63 08 29 bc e6 71 34 be 6d 76 1f be
       0.10772984 -0.010316941 -0.17621574 -0.1557252
000380 26 d2 89 bd b3 88 e4 3a 26 b7 cf 3c 2b b0 01 3e
       -0.06729536 0.0017435759 0.025355887 0.12664859
000390 fc 5b 6c bc 7f 25 38 bc f2 b8 70 bc 88 b5 dc bd
       -0.014426228 -0.0112394085 -0.014692532 -0.10776812
0003a0 6f 17 ef 3c dd a2 91 bd 6f 72 c5 bc 41 91 a4 3d
       0.029185979 -0.07111142 -0.024102418 0.080355175
0003b0 23 77 72 3d bb 90 3b be dd 3e c7 bd c1 7e 08 3e
       0.05919565 -0.18316929 -0.09728787 0.13329603
0003c0 3a 7b 67 be 8c e7 67 bd 7b 45 2f be bc 29 85 3e
       -0.22605601 -0.056617305 -0.17116348 0.26008403
0003d0 70 e8 cd 3d f8 eb 28 3e 82 3c 05 bd 57 76 f1 bd
       0.100540996 0.16496265 -0.032528408 -0.1179015
0003e0 6c fd aa 3d f1 41 6e be 8e 88 38 bd d5 a2 a1 bd
       0.08349118 -0.23267342 -0.045052104 -0.07892386
0003f0 7f 3c 49 3e 73 4c 7b 3d 82 9b 37 be 1d 2a 45 3e
       0.19651984 0.061352205 -0.17930415 0.19254346

net.2.bias f4 [256]
000000 70 ce 21 3c f7 84 ec bd 6e 45 40 bd 8b 9f 06 bd
       0.009875879 -0.115487985 -0.046941213 -0.032866996
000010 c8 d4 88 3c ae 2c 1e bd dc 16 fa 3c 81 9b 2a bd
       0.016703025 -0.03861683 0.030528478 -0.041652206
000020 42 e4 3f 3d 16 a7 a8 bb a3 f3 2a bd 16 9f 34 bd
       0.046848543 -0.0051468713 -0.041736256 -0.04409703
000030 85 fb 56 bb 96 cd 67 bd 64 c2 f8 3b 5e 46 c9 bb
       -0.0032803726 -0.056592546 0.0075915325 -0.0061424216
000040 6a 56 60 bd 2d 0a 03 bd a9 dc 7c bd 51 bc 8b bc
       -0.05476991 -0.031992126 -0.061733875 -0.01705757
000050 24 53 af 3c b3 ac 25 3c 08 c8 f2 bc ac 76 b3 bb
       0.02140195 0.0101119755 -0.029636398 -0.0054767933
000060 79 f9 c4 bc a5 8d 4b 3d 3c 75 12 bd 32 94 f0 3c
       -0.02404474 0.04969563 -0.035756335 0.02936754
000070 04 26 22 3d b8 bc 07 bd ff 6e f3 3c de a8 00 3d
       0.039587036 -0.03313896 0.029716013 0.031411044
000080 04 58 22 bd db 9c 45 3b 24 3d 1b bd 76 e0 48 bd
       -0.03963472 0.0030153308 -0.037900105 -0.049042188
000090 d9 20 07 3d 2a 27 e4 3b 95 82 6c 3d 5e e3 06 bd
       0.03299031 0.0069626765 0.05774172 -0.032931678
0000a0 ac 5d 97 bc 57 d2 c8 3b 86 ea 84 bd ff ba c0 3a
       -0.018477283 0.00612859 -0.06490044 0.0014704167
0000b0 a8 10 5d 3d 58 3e 09 bd 79 4b 26 3c d7 b5 21 bd
       0.053970963 -0.03350672 0.01014983 -0.039480057
0000c0 a9 94 47 bd ef 9f 30 bd 43 ce 36 3d b5 ea 8d bd
       -0.048725758 -0.043121275 0.0446303 -0.069295324
0000d0 82 5c 4a bd ce 4c 15 bd ab c6 56 bd 7f ca 15 bc
       -0.04940463 -0.0364502 -0.05243556 -0.009142517
0000e0 05 02 51 bd 05 93 42 bd e5 cb b8 3b 44 6c 11 bd
       -0.051027317 -0.04750349 0.0056395405 -0.03550364
0000f0 d0 b5 47 bd a4 d7 4c bd de 4c 0f bd ca 9f bc bc
       -0.048757374 -0.05001034 -0.034985416 -0.023025412
000100 ec 0f 98 bd 9c 1a c2 bd 8b c8 5e 3d fc 07 9d 3c
       -0.07424912 -0.094777316 0.05439047 0.019168846
000110 f3 34 84 3c 29 86 c7 3c 50 cd 97 bb 6f 4f 61 3d
       0.01613853 0.024355965 -0.0046326295 0.055007394
000120 44 92 4d bd fb 45 ca bc 18 83 76 bd 17 64 e1 bb
       -0.050188318 -0.024691572 -0.060183614 -0.0068783867
000130 bf 66 57 bd 18 d6 7a bd 01 ba fe 3c c7 d7 24 bd
       -0.05258822 -0.061239332 0.031094553 -0.040244844
000140 4f be 45 bd f9 0f 13 3d 4d c0 2d 3d 9d 8c c9 3c
       -0.048277196 0.035903905 0.04241972 0.024603182
000150 0b 52 ac 3c c2 97 0a bd c7 d6 59 bd 3c 99 c6 bc
       0.021035215 -0.033836134 -0.053183343 -0.02424299
000160 2d 36 84 bd 48 1f 89 bc c6 11 6a bd 42 39 58 bc
       -0.06455646 -0.016738549 -0.057145856 -0.013197245
000170 82 6d 5d 3c f2 63 f0 bc c4 b3 07 3d e4 3f 21 bc
       0.013514878 -0.029344533 0.033130422 -0.009841893
000180 d9 86 97 bd f3 7d 4c 3d 95 fa 30 3d aa 66 5b 3c
       -0.07398767 0.049924802 0.043207724 0.013391176
000190 b9 f7 30 bd 5e 98 40 b9 44 66 9d 3c e6 ee 37 bd
       -0.043204997 -0.00018367308 0.019213803 -0.044905566
0001a0 69 1f 97 bc 59 7e 3e bc bc f3 77 3b f7 22 2b bd
       -0.018447595 -0.011626803 0.0037834486 -0.041781392
0001b0 cb 9c 0e 3c a9 8f 90 bc 60 b3 c7 bc c3 8e 19 bd
       0.008704375 -0.017646628 -0.024377525 -0.037489664
0001c0 6d 51 bd 3b 89 d6 bb bc 01 cc 09 3d 33 36 11 3d
       0.005777529 -0.022929447 0.03364182 0.03545208
0001d0 21 87 32 3d b7 68 60 bc ae 8c 97 bd 98 a9 68 bd
       0.0435859 -0.013696841 -0.073998794 -0.056802362
0001e0 6c 71 ab 3c 90 fd 74 bd b5 2b 3c 3d 62 ad ea 3c
       0.020928107 -0.05981213 0.04594012 0.028647128
0001f0 db 94 cd bc 28 53 06 3d 74 fb 05 3d 7e 05 dd bc
       -0.025095394 0.032794148 0.032710508 -0.026980158
000200 37 36 1f bd 24 8d 31 3c 9f ed 3e 3c b7 85 7a 3c
       -0.038870063 0.010836873 0.011653333 0.015290669
000210 23 95 d7 bb 31 8d bb bb 3e 59 92 bc 5a dc ce 3c
       -0.006579058 -0.0057236184 -0.01786482 0.025251556
000220 af 94 d8 bc a7 14 4a 3d 6a 07 c8 bc c4 6b 0d bc
       -0.026438085 0.0493361 -0.024417598 -0.00863165
000230 a1 2f 90 bc c1 d2 fa ba 4a b3 6b bd 78 14 1d bc
       -0.017600836 -0.0019136296 -0.05754403 -0.0095874
000240 a3 1a 62 bd 8b 3c 0d bd f5 d7 a9 bc 10 09 7d bb
       -0.055201184 -0.034481566 -0.02073286 -0.0038610138
000250 94 72 4e bd 1d 4b c2 bc c4 e5 e1 bc 3b c2 77 bd
       -0.05040224 -0.023717457 -0.027575381 -0.060487967
000260 03 d7 0f bd 5c d8 fc 3c 64 34 10 bd d6 d4 35 3d
       -0.03511716 0.030864887 -0.035206214 0.04439243
000270 e5 07 de 3c 4b 2e ec bc 27 aa 3b bd a2 8c 96 3c
       0.027103374 -0.028830668 -0.045816567 0.018377606
000280 cc 60 ec bc 4c b5 d1 3c fd ad eb bc 42 1d 6c 3d
       -0.02885475 0.025599144 -0.028769488 0.05764509
000290 47 63 44 3d 97 d8 db 3c 4f d4 82 bd d1 d4 36 bd
       0.04794624 0.026836677 -0.06388151 -0.04463655
0002a0 b4 ee bd bc 07 f3 59 3b 5e 22 59 bd c7 69 92 3b
       -0.023185112 0.0033256428 -0.05301129 0.004468176
0002b0 c9 14 ca 3c bb 4e 13 bd 7a c7 6a bd 1c 4b 25 bb
       0.024668114 -0.035963755 -0.057319142 -0.002522177
0002c0 8b 4e 1e bd fd 67 fb bc c7 19 2a bb a1 4d 63 bd
       -0.038649123 -0.030689234 -0.0025955306 -0.055493955
0002d0 cc 8f 67 bd 12 ad 8f bd 21 e2 59 bd 49 29 f4 bc
       -0.05653362 -0.070154324 -0.05319417 -0.029804843
0002e0 ae 3f 51 bc fd 75 42 ba 86 a4 17 bd a8 e1 3b bd
       -0.01277153 -0.00074180943 -0.037022136 -0.0458695
0002f0 27 3a a3 bb 3e a0 4c bd 72 9c 8b bd 82 68 28 bb
       -0.0049812975 -0.049957506 -0.06816949 -0.0025697057
000300 7d df aa bd a7 83 1c bd e4 6e a9 3b d9 51 6f 3d
       -0.08343408 -0.03821149 0.00517069 0.058427665
000310 28 f9 97 bb 98 8f cb 3c 05 b9 0c bd 99 1d a3 bd
       -0.004637856 0.024848744 -0.034356136 -0.0796463
000320 e3 04 28 bd ee 04 43 bd f3 a9 7e bd 19 39 80 bd
       -0.041020285 -0.047612123 -0.062173795 -0.062608905
000330 88 96 5d 3c a6 e8 75 3b 05 cd 79 bd 0e f6 8a 3c
       0.013524659 0.0037522702 -0.060986537 0.016963031
000340 a9 4b 43 bd 03 3d 63 bd d4 f0 d3 bb da 59 5e bd
       -0.047679577 -0.055478107 -0.006467918 -0.054284908
000350 e3 ef 01 bd 8a 0f fb bc 0d 2c 0f bd ec 6e d6 3c
       -0.031722914 -0.030647058 -0.03495412 0.026175939
000360 7d ab 12 bd 50 1b c1 bb fd 89 57 bc 88 23 17 3d
       -0.035808075 -0.0058931485 -0.013155458 0.03689912
000370 e1 10 68 bd 4a 17 de 3b ec a7 9b 3c 3c 1e 54 3d
       -0.056656722 0.0067776786 0.01900097 0.051786646
000380 72 20 85 bd 5a 51 03 bd 41 94 91 3c 94 f9 d8 bc
       -0.06500329 -0.032060005 0.017770888 -0.026486196
000390 f1 34 15 bd 69 f8 03 bd 53 52 81 bd 51 99 8e 3d
       -0.036427442 -0.032219324 -0.0631453 0.069628365
0003a0 33 f6 4e bd 17 09 66 bd cf 3c 2d bd 7b bb 35 3d
       -0.050527763 -0.056161013 -0.04229432 0.04436825
0003b0 af ea 0d bc 4e b1 60 bb 3e b8 d5 3c 1f 5c df 3c
       -0.00866191 -0.003428537 0.02608883 0.027265606
0003c0 b8 1a a0 3b 86 8c cb bd ea 81 37 3c ed 6a 32 3d
       0.0048859976 -0.09938912 0.0112004075 0.043559004
0003d0 26 a1 b0 3b 78 cf 01 bd f0 12 42 3c 59 36 3d 3c
       0.005390304 -0.031692 0.011845335 0.011548602
0003e0 5a 41 81 3c 79 29 24 3d b5 ad 96 bc ba e9 2a bc
       0.015778232 0.040078614 -0.018393377 -0.010431701
0003f0 c0 94 20 3c 3b 03 a9 3c 7a f5 02 bd 4d 71 f7 3b
       0.00980109 0.020631423 -0.031972386 0.0075513483

net.4.weight f4 [256, 256]
000000 40 3e 42 3e d2 5e 84 3d d3 75 b1 3a 7b b0 64 3d
       0.18969059 0.06463398 0.0013539143 0.055832367
000010 2b b9 e8 3c 2c 90 74 bd 4f a1 2b bd 99 f6 d0 3d
       0.028408607 -0.059707806 -0.041901883 0.10203285
000020 16 48 3d bc 38 a5 01 bd 28 42 a3 bc 0c 08 1b bc
       -0.011552831 -0.031651706 -0.019929007 -0.009462368
000030 de ca 8e 3c d6 d7 cd 3d ca f7 7f bd 5e b2 68 3c
       0.017430719 0.10050933 -0.06249217 0.014202682
000040 33 5a d6 3c e7 f4 af bd 05 12 c5 bd fe 76 88 bc
       0.026166057 -0.08591633 -0.096225776 -0.016658302
000050 29 a0 bb bd fb 3f 48 3d f2 27 c5 3d 3a 73 ae 3d
       -0.091614075 0.04888914 0.096267596 0.085180715
000060 78 4e dc bd 53 df 25 3d ad 02 4a 3d 5f 61 70 3d
       -0.10757154 0.04049618 0.049318958 0.05868661
000070 63 a8 09 3d 84 ce 96 3c 5d f6 67 3c c7 52 ca 3d
       0.03360785 0.018409021 0.014157859 0.0987907
000080 ad c8 58 bd f9 21 be 3d ac 7e a5 bd 71 a9 26 bd
       -0.052925754 0.092838235 -0.08080801 -0.040688936
000090 f9 9f 3a 3d 07 ac 0d 3e 34 e1 99 bd f2 6a d9 bb
       0.045562718 0.13835154 -0.07513657 -0.0066350633
0000a0 62 12 68 b9 d7 32 0f be b4 b7 2a 3c 8a 8a 8c 3d
       -0.00022132092 -0.13984238 0.010419775 0.06862362
0000b0 89 da 42 be d5 3d 3a 3c b9 64 aa bb b6 e4 a9 bd
       -0.19028677 0.011367281 -0.0051999954 -0.08295576
0000c0 4c 8c c4 bd 32 e3 db bb 69 98 56 bd f0 de 00 be
       -0.09597072 -0.0067104334 -0.052391443 -0.12585044
0000d0 a9 e7 fe 3d c9 00 90 bc 3c fd ea bc e7 41 64 3d
       0.124465294 -0.0175785 -0.028685205 0.055726912
0000e0 a6 d6 44 be 58 e5 12 bd c1 f4 62 bd ac 95 1e 3d
       -0.19222507 -0.03586325 -0.055409197 0.038716957
0000f0 f4 52 ab bc a3 d2 b7 bd f2 95 13 3e 68 b6 db bc
       -0.020913579 -0.08975723 0.14412668 -0.026820377
000100 9f 02 7d 3d 19 c0 06 3c e6 bd 6f 3d 18 05 28 be
       0.061770078 0.008224511 0.05853071 -0.16408193
000110 28 14 8b 3d 2e ac 43 bd 7b 0d ed bc 2c 78 77 bc
       0.06790954 -0.047771625 -0.028937092 -0.015104335
000120 19 b5 64 bc c5 23 01 be 0e 6e 17 3a 5a 9b 60 bd
       -0.013959193 -0.12611301 0.00057765923 -0.054835655
000130 8f b3 23 bd 99 2f 9a bd 39 d4 c8 bc 60 e1 49 bd
       -0.039966162 -0.0752861 -0.024515258 -0.0492872
000140 50 d8 ba 3d 44 6f 8f bd 26 39 07 3d bb 91 e4 3d
       0.091232896 -0.07003644 0.033013485 0.111606084
000150 2d bc 28 be 9a 98 80 3d 58 ef ea 3d 8c 76 98 3d
       -0.16478033 0.062791064 0.114714324 0.07444486
000160 18 a4 73 bd f1 62 13 bd 77 47 92 3b bf 6d 08 3e
       -0.059482664 -0.03598303 0.0044640857 0.13323115
000170 6f 64 e1 bc e0 f7 99 bd 5b c2 27 3c 52 f4 84 bc
       -0.02751371 -0.075179815 0.010239209 -0.016229782
000180 44 69 ab 3c f9 03 f5 3c 78 04 66 3c 5f 89 eb bc
       0.020924218 0.02990912 0.014039151 -0.028752027
000190 a6 a3 a7 bd e2 f5 98 bc 5b d7 05 3c 98 93 d5 bc
       -0.0818551 -0.018671934 0.0081690205 -0.026071355
0001a0 49 64 db bd f0 b4 60 bd 91 19 24 3d c7 51 29 bd
       -0.10712487 -0.054860055 0.040063445 -0.041337755
0001b0 f2 0b 97 3d da 58 e4 bd 34 d9 3c bc 69 62 79 bd
       0.07375325 -0.111497596 -0.011526395 -0.060884867
0001c0 bd 25 34 bc 45 da af 3d 89 b7 4e bd b5 d3 95 3c
       -0.010995326 0.085865535 -0.050468 0.018289426
0001d0 60 af f9 3b 05 2a 28 bd 5b f2 b0 3d d7 af 5d bd
       0.0076197833 -0.041055698 0.08639976 -0.054122772
0001e0 b5 f7 8b bd da ec 28 be fa 7b 6f 3c a7 e5 d4 bd
       -0.06834356 -0.16496602 0.014616961 -0.10395365
0001f0 fc d9 b1 bd 7a 43 fa 3c dd f9 a5 3d d0 92 9c bc
       -0.08684155 0.030549753 0.08104298 -0.019112974
000200 97 3b 53 be 53 81 8c bc 10 c8 71 3d 43 a2 c0 bb
       -0.206282 -0.01715151 0.059028685 -0.005878718
000210 35 bb 7e 3d 1b 5e cb bd 79 8c 94 3d 5e 76 ff bd
       0.062190253 -0.099300586 0.072533555 -0.124737486
000220 1c 7a de 3d 5a ab 20 be ea 34 04 be a4 8e de bd
       0.10863134 -0.15690365 -0.1291081 -0.1086705
000230 22 e8 3b bc b6 56 c4 bd 43 e7 0e bd a6 70 64 bd
       -0.011468919 -0.09586851 -0.034888517 -0.055771492
000240 da d9 e5 bd bc bd 28 3c 77 6c 94 bb 25 50 23 3c
       -0.112231925 0.010299142 -0.0045295316 0.009967838
000250 c0 2b 83 bd 31 0a 8c be 7c d5 56 bd 1e fe aa bd
       -0.06404829 -0.27351525 -0.05244969 -0.0834925
000260 f2 64 97 bd 8a 2d c7 3c 64 45 b4 3c 88 c2 eb bd
       -0.07392301 0.024313707 0.022005744 -0.11511713
000270 f6 33 26 bb 01 5e 02 3d ad bb e5 bb 4b 38 5d 3e
       -0.002536056 0.03182793 -0.007010898 0.21603505
000280 f5 f9 01 3e ea b1 49 bc d5 71 9b 3d 7a f3 14 3d
       0.12693007 -0.012310484 0.07590071 0.03636501
000290 87 61 ac bd 14 3b ef 3b c8 93 8c 3d aa 73 b8 3c
       -0.08417039 0.007300744 0.068641245 0.02251609
0002a0 7f cd 03 be e7 78 32 3d 0a a9 b6 3c 14 5b 50 3c
       -0.1287136 0.043572333 0.022297401 0.012717027
0002b0 45 02 bc bd db 3e 43 bd b2 59 0e 3d d1 a7 36 3d
       -0.091801204 -0.047667366 0.03475351 0.044593636
0002c0 e9 22 8b bd 0c c6 06 bc 18 bb 03 bd b1 3e 8f bd
       -0.06793768 -0.008225929 -0.03216085 -0.06994379
0002d0 cb 7a 82 3c da f6 df bc aa 90 31 3e ae f5 93 bd
       0.015927693 -0.027339388 0.17340341 -0.07224594
0002e0 37 85 31 3d 99 9b 1a be e9 17 c8 bc 67 aa b7 bd
       0.043339934 -0.15098418 -0.024425464 -0.089680485
0002f0 ae ae 9d bd d6 4b 7a bd aa 04 84 3d d4 74 46 bb
       -0.07699333 -0.06110748 0.06446202 -0.0030282037
000300 83 12 3e 3d c9 ae 0e be 36 d8 7b bc 69 80 46 3d
       0.046404373 -0.13933863 -0.015371373 0.048462305
000310 72 41 4b be 76 44 b2 bd af a8 e0 3d 56 53 0b be
       -0.19849184 -0.08704464 0.10969674 -0.13606009
000320 e2 d0 af bb 8c e0 0f bd 48 9b 35 bd f8 c5 8e bd
       -0.005365477 -0.035126254 -0.04433754 -0.06971353
000330 19 8d 87 bd 91 50 ab 3c 3d 8a e2 bd 4e ea 58 be
       -0.06618709 0.02091244 -0.11061523 -0.2118313
000340 68 e3 d5 3c 39 c2 de 3d 6c 5e 75 3d a1 a4 84 3b
       0.026109412 0.10876889 0.0599045 0.0040479456
000350 7f 1a aa bb c2 3d c4 3c b6 77 a5 bd 31 0f 3c 3d
       -0.005191147 0.02395523 -0.08079474 0.045912925
000360 44 f1 25 3d f5 4a 10 be 87 4f de 3d 3d 87 89 bd
       0.040513292 -0.14091094 0.108550124 -0.06715248
000370 0a 11 70 bd 06 e9 0a be 39 c8 fc bd d0 8d 9c bc
       -0.05861 -0.13565454 -0.12342877 -0.01911059
000380 db 8b 7f bd 63 07 ff 3d be 6c 2e bc 77 eb 2a bd
       -0.062389236 0.12452581 -0.010646043 -0.041728463
000390 ca 7a 32 bd 71 40 cb bb 95 19 b0 3d 58 5d 78 bd
       -0.043574132 -0.0062027504 0.085986294 -0.060635895
0003a0 ff c5 5b 3d ab 23 1d bd 06 fa cb 3d c0 c5 b3 bd
       0.05365562 -0.038364094 0.099597976 -0.08777952
0003b0 07 72 9b bc 1c f2 4a bd ce 05 22 3d 49 5c 60 bc
       -0.01897527 -0.0495473 0.039556317 -0.0136938775
0003c0 7f c1 5c bd e7 1a 0f 3d 23 e0 bf bc 2d 12 e2 bd
       -0.05389547 0.034937765 -0.023422306 -0.11038623
0003d0 b3 dd fd bd c8 5b d0 3d 82 0d a8 3d 32 fe 37 bb
       -0.123958014 0.10173756 0.082057014 -0.0028075096
0003e0 24 3e 87 3c b8 af 8c bc b9 58 25 bd a6 bd 63 bd
       0.016509123 -0.017173633 -0.040367816 -0.055600785
0003f0 c3 d3 09 bd d9 1a e3 3c 65 2b 35 bd 20 86 c8 bc
       -0.033649217 0.027722763 -0.044230837 -0.024478018

net.4.bias f4 [256]
000000 98 19 10 3b 78 63 3c bc 34 6e 8b 3d c3 6c 74 3c
       0.0021987911 -0.011498325 0.06808129 0.014918509
000010 75 0e c8 bd 24 30 21 3c c3 0c 59 3d f8 21 d4 bc
       -0.097683825 0.009838138 0.052990686 -0.025895104
000020 15 bf b9 3c 0d 65 58 bd 97 ec d5 bd 15 cb b2 3c
       0.022674123 -0.052830745 -0.104455166 0.021825353
000030 15 18 2a bd 54 e1 1f 3d d6 8c 97 bd f8 ac 4c bd
       -0.041526873 0.03903325 -0.07399909 -0.049969643
000040 f6 0a b2 bc e1 f7 81 bd dc fd c9 3a ce 3f 32 3d
       -0.021733742 -0.06346107 0.0015410739 0.04351788
000050 53 51 2d bd f7 d2 27 bd 62 c1 30 bc ca c7 ae bd
       -0.042313885 -0.040972676 -0.010788294 -0.085342005
000060 c5 93 eb 3c e2 76 41 3c 57 8f 36 bc b3 d4 8e bc
       0.028756985 0.011808129 -0.011142573 -0.017435407
000070 15 3c ab 3c f0 25 9a bd 46 1f 14 bd 90 6b 9d bd
       0.020902673 -0.07526767 -0.036162637 -0.076865315
000080 ba 43 cc bd ae ca 5a bd fb 80 85 3c 0d d6 e7 bc
       -0.09973855 -0.053415947 0.016296854 -0.02830031
000090 58 73 22 3c 76 59 6c bd 3a d9 27 bd 30 8c 0a 3d
       0.009915195 -0.057702504 -0.040978648 0.0338251
0000a0 d8 50 51 bd f2 17 1a bd 9c f9 80 bd b1 54 2b bd
       -0.05110249 -0.037620492 -0.06297609 -0.041828815
0000b0 93 46 04 3d 13 d7 81 3d f6 63 91 bd 64 d7 d4 3c
       0.032293867 0.0633985 -0.07099144 0.025981613
0000c0 83 93 03 3d 67 68 64 3b e0 4f 9f 3c f4 68 52 3d
       0.0321231 0.0034852268 0.019447267 0.051369622
0000d0 26 a8 07 3d a4 a8 92 bc 56 8a 42 bd 2c 18 31 bd
       0.033119343 -0.01790268 -0.04749521 -0.043235943
0000e0 f5 e6 d6 bd 14 46 a6 bd 3d c3 03 3d 30 a2 01 3d
       -0.1049327 -0.08118835 0.032168616 0.031648815
0000f0 7c 22 6a bb 64 21 23 3c a4 f2 87 3c 8d 0c a5 bd
       -0.003572612 0.009956691 0.016595192 -0.080590345
000100 c6 a9 53 3d e2 ea 74 bc 8d a7 1e bd a5 13 8e bd
       0.05167558 -0.014948579 -0.038734008 -0.06937341
000110 ab 06 81 bd 9b 3b 4f bd 37 43 74 bd 28 90 03 be
       -0.063001 -0.050593954 -0.059634414 -0.1284796
000120 96 8d 33 3d 18 c4 c9 bd 9f c3 13 3b 31 3a a2 bb
       0.0438362 -0.09851855 0.002254702 -0.0049507846
000130 42 ed 4d bc fb af 9b 3b 24 50 d6 bd b0 a8 82 bd
       -0.012568774 0.004751203 -0.10464504 -0.06379831
000140 97 33 8e 3c 35 e4 6b bd d8 25 84 3c 62 ae 66 bd
       0.017358584 -0.057590682 0.016131327 -0.05631865
000150 a9 2a 7f bd db d3 88 bd ac 83 83 bd d4 bb 70 bc
       -0.062296543 -0.06681033 -0.06421599 -0.014693219
000160 28 cb a0 3c f5 46 c3 3c 85 ae ea bc ba 26 d3 3c
       0.019628122 0.023837546 -0.02864767 0.025775302
000170 40 40 11 bd e4 59 e6 3c c0 77 0a 3d 5f f7 9f bd
       -0.035461664 0.028119035 0.03380561 -0.07810854
000180 f0 fc 4b 3d 46 4b 88 bd 10 cb 35 bd 51 34 51 3b
       0.049801767 -0.06654982 -0.04438311 0.0031922052
000190 31 02 57 bd 60 f7 43 bc 48 e6 c4 bd f3 a2 e5 bc
       -0.052492324 -0.011960834 -0.09614235 -0.028031802
0001a0 e4 ce b6 3d be 8e 38 bd 26 86 3c 3d 79 08 36 bd
       0.0892618 -0.045058005 0.04602637 -0.044441674
0001b0 cb d3 8b 3c be 53 20 bd 47 8e 16 3d f2 5d a1 3c
       0.017068764 -0.039142363 0.03675678 0.019698117
0001c0 ec f6 1e bd d1 9f 7d bc 34 26 6f 3d 07 eb d9 bd
       -0.0388097 -0.015479998 0.058386043 -0.10640531
0001d0 cb d7 bc bd 19 bb 48 bd fb f7 91 bd d2 ac d6 3b
       -0.09220847 -0.049006555 -0.07127377 0.0065513635
0001e0 c6 13 dd bb cc 02 12 3d 89 73 8f bd 5c d7 d1 39
       -0.006746742 0.0356472 -0.070044585 0.00040024042
0001f0 78 f8 8e bc bc c1 e6 3c 89 ec 20 bc a1 a3 b4 bc
       -0.017452464 0.028168552 -0.009822019 -0.02205068
000200 59 00 41 3d aa a6 d7 bc 4d f5 21 bd 91 f2 c9 bb
       0.047119472 -0.026324589 -0.039540578 -0.0061629494
000210 a1 10 c2 bd 88 d9 ed bd 84 78 2a 3d 8d f7 79 bc
       -0.09475828 -0.116137564 0.04161884 -0.015256775
000220 13 7f d8 bd cb 2b 66 3b 03 ca 30 bd 97 07 b0 3c
       -0.105711125 0.0035121317 -0.043161403 0.021487994
000230 73 0d a1 bd 07 80 7e bd 0b 7e 8c 3b a6 40 d2 bd
       -0.07863893 -0.062133815 0.0042874864 -0.10266237
000240 c0 76 78 bc 60 c2 96 3b 95 6e 43 bd 2e 1f 3d bd
       -0.015165031 0.004600808 -0.04771288 -0.046172313
000250 64 d7 93 bb 83 32 c6 bd 43 0c cb bc 3e f6 96 3c
       -0.0045117605 -0.09677603 -0.02478612 0.018427964
000260 42 fb 70 bc af 29 33 3c fd 01 6e bd f8 05 af bd
       -0.014708342 0.010935231 -0.058107365 -0.0854606
000270 38 03 12 bc 25 55 9a bd 37 ef fc bc d6 aa b1 bd
       -0.0089119 -0.07535771 -0.030875785 -0.086751625
000280 07 22 88 bd 50 d6 72 3d ac 6f f1 3c d1 0d 6d b9
       -0.06647115 0.059286416 0.029472195 -0.00022607228
000290 ae dd 96 bd 39 b0 9a bd 17 bf 8a 3c aa bf b4 bd
       -0.07366501 -0.07553143 0.016936822 -0.088256195
0002a0 43 70 e7 3b d0 3a 80 3b 2a 40 22 bd fd 03 01 ba
       0.007062943 0.003913261 -0.039611973 -0.0004921554
0002b0 53 fc 56 bd e7 a5 22 3d 82 e0 0c 3c 16 5c eb 3c
       -0.05248673 0.039708998 0.008598449 0.028730433
0002c0 36 82 34 bd 0f 84 b7 bd e5 1b 61 3d f2 69 9b 3c
       -0.04406949 -0.08960735 0.054958243 0.018971417
0002d0 06 24 c8 bd c3 27 c2 bd 07 e5 ca 3c 77 ad 70 3c
       -0.09772496 -0.0948024 0.024767412 0.014689795
0002e0 be 8c d6 3b 0f 8a b1 3c 69 6b c2 bd 96 90 73 bd
       0.0065475395 0.021672277 -0.09493143 -0.05946406
0002f0 55 83 ae bd bd 65 82 3c 51 2d 80 3c 1d e1 56 39
       -0.08521143 0.015917653 0.015646609 0.00020492492
000300 93 73 a6 3c 62 95 ef 3c fc 35 8f bd aa 47 92 3d
       0.020318782 0.029246036 -0.069927186 0.07142575
000310 3d 2c 9e bd 5e 33 8d 3d f8 cc 7a bd 18 4c 35 3d
       -0.077232815 0.06894563 -0.06123063 0.04426202
000320 7d 56 01 3d ee 70 12 bd 95 9b c8 3c 45 98 74 bd
       0.031576622 -0.03575223 0.02448825 -0.059715528
000330 bd 83 91 3d db 00 3e bd f7 c1 50 3c cd 3a bf bd
       0.07105205 -0.046387535 0.012741557 -0.09337387
000340 df f4 97 3c d8 71 03 bd 73 3e 9f bb c2 f2 8c 3c
       0.01854938 -0.03209099 -0.0048597394 0.0172056
000350 02 09 b6 bd 95 f7 58 bd 3c 49 8a bd b2 f4 29 3d
       -0.08888437 -0.052970488 -0.067522496 0.041493125
000360 60 9f 14 3c 50 80 5f bd 22 77 c5 bc 54 ed d9 bc
       0.009071201 -0.054565728 -0.024104659 -0.026602425
000370 6d d8 1e bd f6 7f 45 bd 11 25 e8 bc 8a 7e 1d 3c
       -0.03878062 -0.048217736 -0.028337987 0.009612689
000380 5f 94 c2 3c 5e 13 b1 bd 3d cc 09 bd 57 90 51 3d
       0.02375239 -0.08646272 -0.033642042 0.051163044
000390 3e 88 c9 bd 59 03 d6 3c 52 7c 8d 3d 6f 32 c4 3c
       -0.09840439 0.026124643 0.06908478 0.02394983
0003a0 9e f5 c2 3d 65 17 bd bd 29 e9 64 3d 7d 2c f6 bd
       0.09519504 -0.09232978 0.05588642 -0.12020204
0003b0 cf 92 3c bd 1f ea 4e bd 48 65 8f bd ae 11 e7 3c
       -0.046038445 -0.050516244 -0.0700174 0.028206673
0003c0 07 be 96 bd 87 3f 8e 3b 5e e5 80 bd 95 a4 59 bd
       -0.073604636 0.004341069 -0.06293748 -0.053135473
0003d0 c3 04 9b 3c ef 50 df 3c b8 7c bb bc ad 4d a5 3c
       0.018923169 0.027260272 -0.022886619 0.02017864
0003e0 50 6f d9 bd e9 e5 a3 bd 21 49 b6 bd eb d0 9a bc
       -0.10616934 -0.08002836 -0.08900667 -0.018898448
0003f0 b7 bf 1d bd 8c d4 7b 3c 30 a4 2a bd ee 45 51 bd
       -0.03851291 0.015370499 -0.041660488 -0.05109208
