models/model_final_cpu_2.pt (torch, 816940 bytes, 11 tensors)

y_embedding.weight f4 [4, 16]
1.1705304 0.009904376 0.42943424 1.7232903 1.044052 -0.39922068 -0.63248587 0.98794216
0.120308705 -0.025686251 1.1952267 0.5305694 0.3320039 0.03216251 -2.2380066 0.6175196
-0.4999547 1.6667396 0.5494455 1.2072107 0.07301631 0.021680417 1.0281562 0.7320821
-0.92992383 2.3933313 -2.2889843 1.0580705 -1.0683409 0.89406437 -0.986361 0.11266711
-0.15931013 0.23083499 1.2577863 0.454589 0.1413728 -0.966058 0.9953125 -1.3895242
0.20647646 -1.0358067 0.15245266 0.052613907 -0.4620392 -0.16491382 -0.4656791 0.124617904
-0.0063139894 -0.9821237 -0.64846337 0.07539427 -0.9082937 0.19197129 -1.8428053 -0.98321354
-0.29353973 -0.16821344 -0.5185973 -1.6233791 -0.50390476 -0.42301568 0.39218727 0.28039604
00000000: f1d3 953f f745 223c cede db3e c794 dc3f
00000010: 7fa3 853f a766 ccbe 98ea 21bf c7e9 7c3f
00000020: 6964 f63d f96b d2bc 30fd 983f 65d3 073f
00000030: 6afc a93e d6bc 033d 803b 0fc0 c415 1e3f
00000040: 10fa ffbe b957 d53f 76a8 0c3f e185 9a3f
00000050: 9389 953d 219b b13c 9f9a 833f bc69 3b3f
00000060: 7d0f 6ebf 572c 1940 b87e 12c0 db6e 873f
00000070: 65bf 88bf 67e1 643f 2882 7cbf 04be e63d
00000080: 3222 23be 0260 6c3e 24ff a03f e4bf e83e
00000090: 08c4 103e 944f 77bf cdcc 7e3f eedb b1bf
000000a0: 916e 533e 5095 84bf 8d1c 1c3e ae81 573d
000000b0: 6790 ecbe 2bdf 28be 7e6d eebe ac37 ff3d
000000c0: 95e5 cebb 756c 7bbf b201 26bf 5068 9a3d
000000d0: f085 68bf 1f94 443e 0be1 ebbf e2b3 7bbf
000000e0: d74a 96be 2540 2cbe cbc2 04bf e3ca cfbf
000000f0: e7ff 00bf 8395 d8be c5cc c83e 1290 8f3e

net.0.weight f4 [256, 19]
0.18877661 0.036532078 0.18198185 -0.020465218 -0.19631933 0.06951384 -0.16927837 0.10042562
-0.06031213 -0.17448 0.17074037 0.030060489 0.2487816 -0.07241868 0.0069848686 -0.015147609
-0.15094188 0.003461972 0.11208557 0.1763404 -0.031854898 0.14250165 -0.13892709 0.17054082
-0.10706192 0.22818449 0.14699182 0.19841866 -0.13227881 0.20054285 0.034680862 -0.07651959
-0.1411546 0.018730184 0.010052737 -0.046220116 0.16926764 0.17444251 -0.15511641 0.0035600862
-0.34034368 0.055246763 0.109216526 -0.071989134 0.0877597 0.10029069 -0.07794854 -0.1376349
-0.091837004 -0.18992735 -0.16597976 -0.005930318 0.1654582 -0.002707325 0.06071975 0.197518
0.20364144 0.30048496 -0.028101614 0.34195724 0.23387863 0.20720783 0.04806212 -0.024858383
-0.18139894 0.07642629 -0.016681325 0.22839966 0.14904544 0.0469423 -0.12957717 -0.15903822
0.099905886 0.13595203 -0.18979964 -0.062335066 0.1565617 -0.26347637 0.15016057 0.21555193
0.16794106 -0.08792292 0.12923224 0.21587002 0.2828867 -0.14153236 0.113105476 -0.054745823
0.00056840706 0.17827381 -0.044597566 -0.07153164 0.07423403 0.026300697 -0.09190772 -0.21407709
0.072681345 -0.11781756 0.08056858 0.09811923 -0.1315589 0.15099481 -0.051103424 0.20909797
-0.028213684 -0.071077056 -0.0061132647 0.14064841 0.011046322 0.049710177 0.007134112 0.07367667
0.01928452 0.16848934 0.0635414 0.113367654 0.17222011 0.0233549 -0.078513265 -0.04419578
-0.2094084 0.09848122 0.1795522 0.07139172 -0.11420235 -0.07460307 0.12394157 0.17879933
-0.043452177 -0.12412222 0.22695944 -0.12659287 -0.07960369 0.09523289 -0.23750167 0.41292462
-0.007867103 0.14608096 -0.070624515 0.110651486 0.14829679 0.035321716 0.15821087 0.10006189
-0.088678285 0.019733911 0.1281053 0.18375924 -0.16887301 -0.09940468 0.12120332 0.14399752
-0.2604497 -0.0033374468 -0.14468655 0.0851594 -0.2377504 0.06799123 -0.19691223 0.035673697
0.11934143 0.21640627 0.07421887 -0.1912059 -0.12216957 -0.014049719 -0.062973484 -0.19123128
0.019480795 -0.058390733 -0.08297438 0.15219226 -0.122653805 0.32313892 -0.19507805 0.0760412
-0.0978905 -0.09288685 0.10468888 -0.055121694 -0.23827411 0.19255419 -0.11646042 -0.017501885
0.036887128 0.10491129 0.04874506 0.07873974 0.15055819 -0.102317356 -0.0934471 -0.16639136
-0.40342712 0.16844311 0.1298853 0.051200774 0.16031832 -0.1645242 0.050556667 0.21614212
-0.06335111 0.08100499 -0.16214718 0.050970048 0.2155694 0.06711531 0.19500649 0.04748073
-0.08129993 0.13436463 -0.17428456 -0.3947639 0.07421145 -0.14633006 0.1655172 0.191872
0.006745404 -2.7902388e-05 -0.024124976 -0.015712636 -0.25085354 -0.06799933 -0.15334941 0.10405324
0.17043835 0.0882694 0.08529431 0.12169385 0.23363718 0.17692888 -0.2677041 0.02353375
-0.028003283 -0.14441785 -0.15030365 0.25637847 0.16278611 -0.15035325 -0.11485411 -0.062195487
0.15271066 0.15038349 -0.06724066 -0.15068296 0.12787034 0.07330099 0.083595365 -0.12658082
-0.013666382 0.38891318 -0.07509698 -0.042847432 -0.015798729 0.016451329 0.13625509 0.10471022
00000000: a84e 413e a9a2 153d 7359 3a3e aca6 a7bc
00000010: ef07 49be 465d 8e3d 4f57 2dbe f3ab cd3d
00000020: da09 77bd e3aa 32be 90d6 2e3e 6a41 f63c
00000030: 9bc0 7e3e 3f50 94bd 53e1 e43b ad2d 78bc
00000040: 8290 1abe 41e2 623b 1f8d e53d 9492 343e
00000050: 487a 02bd f4eb 113e e742 0ebe 41a2 2e3e
00000060: 4843 dbbd 32a9 693e 0685 163e 432e 4b3e
00000070: 1974 07be 1b5b 4d3e 850d 0e3d 4eb6 9cbd
00000080: d58a 10be 0b70 993c 3cb4 243c 4e51 3dbd
00000090: 7f54 2d3e 0fa1 323e d6d6 1ebe 5650 693b
000000a0: 8741 aebe 6e4a 623d eaac df3d 0a6f 93bd
000000b0: 5cbb b33d 3565 cd3d 7ca3 9fbd 2af0 0cbe
000000c0: 0a15 bcbd 517c 42be 99f6 29be 1d53 c2bb
000000d0: e06d 293e 606d 31bb 46b5 783d 2942 4a3e
000000e0: 6287 503e 2ad9 993e 5b35 e6bc 0515 af3e
000000f0: e17d 6f3e 4a2e 543e c9dc 443d cfa3 cbbc
00000100: a5c0 39be 6385 9c3d 46a7 88bc 9ae1 693e
00000110: 5e9f 183e 9246 403d e1af 04be eada 22be
00000120: 759b cc3d 0237 0b3e d65a 42be 0e53 7fbd
00000130: b651 203e 60e6 86be b1c3 193e a5b9 5c3e
00000140: bef8 2b3e ef10 b4bd 7555 043e 080d 5d3e
00000150: 87d6 903e dced 10be d8a3 e73d 283d 60bd
00000160: 2701 153a 698d 363e f0ab 36bd 2e7f 92bd
00000170: 0308 983d 8f74 d73c 1d3a bcbd 0637 5bbe
00000180: f5d9 943d 554a f1bd 2401 a53d bcf2 c83d
00000190: 60b7 06be 629e 1a3e d351 51bd c71d 563e
000001a0: 6220 e7bc d990 91bd c851 c8bb 2306 103e
000001b0: a2fb 343c e69c 4b3d 45c5 e93b cbe3 963d
000001c0: 92fa 9d3c 7888 2c3e fe21 823d 4d2d e83d
000001d0: 785a 303e c652 bf3c 90cb a0bd a206 35bd
000001e0: 286f 56be 86b0 c93d 88dc 373e d235 923d
000001f0: ece2 e9bd 7fc9 98bd 14d5 fd3d 2c17 373e
00000200: e9fa 31bd ca33 febd 0e68 683e 90a1 01be
00000210: 4207 a3bd 7609 c33d a333 73be db6a d33e
00000220: 06e5 00bc 3f96 153e 96a3 90bd 3f9d e23d
00000230: 1ddb 173e 81ad 103d 0802 223e 40ed cc3d
00000240: f69c b5bd 03a9 a13c 092e 033e 622b 3c3e
00000250: 0ced 2cbe ae94 cbbd 7239 f83d 1674 133e
00000260: aa59 85be 11b9 5abb b628 14be 0d68 ae3d
00000270: d774 73be fc3e 8b3d 5ca3 49be 951e 123d
00000280: 4869 f43d 9b99 5d3e 1000 983d 7bcb 43be
00000290: 0a34 fabd cb30 66bc 3ef8 80bd 22d2 43be
000002a0: 3096 9f3c 1f2b 6fbd 79ee a9bd 4ad8 1b3e
000002b0: eb31 fbbd 7772 a53e 8ac2 47be 7dbb 9b3d
000002c0: d17a c8bd 763b bebd 2067 d63d 49c7 61bd
000002d0: 21fe 73be ed2c 453e cd82 eebd 1d60 8fbc
000002e0: f516 173d bbdb d63d e6a8 473d 4d42 a13d
000002f0: ed2b 1a3e c38b d1bd 3161 bfbd 7f62 2abe
00000300: 008e cebe 5a7c 2c3e a700 053e e7b7 513d
00000310: 7c2a 243e 0879 28be 8214 4f3d 5c54 5d3e
00000320: 3abe 81bd f2e5 a53d e909 26be f8c5 503d
00000330: 3abe 5c3e c073 893d c8af 473e 277b 423d
00000340: 9480 a6bd e296 093e a777 32be 7e1e cabe
00000350: 2cfc 973d 8cd7 15be 577d 293e 187a 443e
00000360: 8d08 dd3b ec0f eab7 bea1 c5bc c9b7 80bc
00000370: e06f 80be 3c43 8bbd a107 1dbe dd19 d53d
00000380: 6487 2e3e 96c6 b43d c8ae ae3d a03a f93d
00000390: 963e 6f3e d82c 353e 8310 89be dac9 c03c
000003a0: 2467 e5bc 46e2 13be 33e9 19be 0a44 833e
000003b0: 67b1 263e 34f6 19be a238 ebbd b2c0 7ebd
000003c0: 2f60 1c3e 21fe 193e 79b5 89bd a24c 1abe
000003d0: 71f0 023e d41e 963d 0c34 ab3d 679e 01be
000003e0: f6e8 5fbc a11f c73e 72cc 99bd ca80 2fbd
000003f0: 566c 81bc f0c4 863c 7486 0b3e 5072 d63d

net.0.bias f4 [256]
0.11257142 -0.1956584 0.19776236 -0.17320177 -0.22553608 -0.09547157 0.049840167 -0.2475264
0.1983565 -0.054569643 0.1212021 0.03184553 -0.09451544 -0.17331053 -0.0024164142 0.17175512
0.06384793 -0.16008519 -0.16777864 0.07432576 0.15987974 -0.08974987 0.111374706 -0.09734802
-0.19692397 0.2069577 0.10051811 0.08186129 0.048767064 -0.08819653 0.045281243 -0.026431259
-0.1841638 0.10376493 -0.10496597 -0.09671328 -0.17347229 0.057381373 -0.17293827 0.14543568
-0.08715999 0.20169301 -0.031649098 0.021191502 -0.09934946 0.15968052 -0.14048468 -0.24654655
0.2378888 0.14297523 -0.12877595 -0.143739 0.112876445 0.039113887 0.1397061 0.022948941
0.076822735 -0.21631224 -0.21267647 -0.10178446 -0.02521486 -0.08174556 -0.24490361 0.09462452
0.21012563 -0.039316926 0.24291158 0.038603224 -0.06678165 -0.036392994 -0.05494873 -0.075955845
0.061125863 0.20323823 0.2020078 0.24501455 -0.21691796 -0.15015587 -0.0052934717 -0.04076144
0.16232301 0.09484519 -0.22788103 0.17049639 0.07246512 0.019889222 -0.12333517 0.14913927
-0.0631706 -0.18631454 -0.16955255 0.0124293715 -0.010174769 0.15007746 -0.12954856 0.18104267
0.23249851 -0.012190061 -0.05698448 0.14001444 -0.04192169 -0.052768033 0.048050985 0.01083191
-0.190826 0.03363346 -0.07653837 -0.08595975 0.059141066 0.13040654 0.15106858 0.2353122
0.06394273 -0.19418453 -0.061104547 0.17032708 0.17576092 -0.051652584 -0.057044294 0.093495384
0.21706706 0.17845769 -0.028153537 0.036608968 0.13567668 -0.07634735 0.14086495 -0.04075161
-0.024667267 -0.21160197 -0.16640823 -0.038676582 -0.014963548 0.1375043 -0.13308474 -0.049117424
-0.058280293 0.10251966 0.11021994 -0.113760814 -0.03707438 0.02339702 0.12958106 0.007946548
0.26939556 0.17412585 -0.24246168 -0.15133038 -0.010294019 0.04052492 -0.16648129 -0.18885261
0.03058497 -0.027733404 -0.17013052 -0.12815462 0.17522326 0.054058764 -0.113217644 -0.19704993
0.05940796 0.03693025 0.2368323 -0.16906966 -0.18148053 0.10942534 -0.1388201 0.070538975
-0.026011765 -0.12199942 0.21134125 -0.09189574 -0.02034205 -0.06971378 -0.02802231 -0.025824182
-0.1666551 -0.14572783 0.01521738 0.18215033 -0.17488138 0.14701943 -0.08896843 0.20628603
0.16960983 -0.097363204 0.06713032 -0.18825565 -0.14296865 -0.20651548 0.12037685 -0.01588428
0.07176035 -0.01398653 -0.08924877 0.12503755 0.19430971 0.10042518 -0.08974873 0.13775767
-0.063241616 -0.08115153 0.12230651 0.10505989 0.11985697 0.03287876 0.03582265 -0.0830626
-0.1810841 0.019248888 -0.12084133 0.22320005 0.12173956 0.005918073 -0.117767304 -0.14717281
0.14473695 -0.12443347 -0.21723595 0.049677696 -0.050620355 -0.016485645 -0.08509264 0.008302091
-0.021970311 -0.19471589 -0.18193841 0.045416303 -0.13114624 -0.1649931 -0.14395168 -0.04083909
0.007842237 0.038819347 0.18849649 -0.095832795 0.10847929 0.07394865 0.063767225 0.12622064
0.06811159 -0.22286886 0.050810497 0.014719871 0.14355005 -0.10190111 0.06451933 -0.03868182
0.09348135 -0.09247501 -0.026037976 -0.16798654 -0.062489215 -0.03715466 0.03174391 0.18024543
00000000: d88b e63d ad5a 48be 3782 4a3e ce5b 31be
00000010: eef2 66be 9986 c3bd 3425 4c3d 9077 7dbe
00000020: f71d 4b3e 6b84 5fbd ce38 f83d 7570 023d
00000030: 5091 c1bd 5178 31be b45c 1ebb 93e0 2f3e
00000040: b4c2 823d 5fed 23be 2ace 2bbe 1b38 983d
00000050: 84b7 233e c8ce b7bd 6c18 e43d 665e c7bd
00000060: 70a6 49be b8ec 533e 70dc cd3d e4a6 a73d
00000070: f9bf 473d 62a0 b4bd d378 393d 5e86 d8bc
00000080: 6f95 3cbe b582 d43d 66f8 d6bd 9d11 c6bd
00000090: b8a2 31be bb08 6b3d bb16 31be 17ed 143e
000000a0: f080 b2bd 9d88 4e3e 7ca2 01bd cd99 ad3c
000000b0: bb77 cbbd 4a83 233e 37db 0fbe b376 7cbe
000000c0: 1f99 733e 1968 123e d8dd 03be 5130 13be
000000d0: c42b e73d e235 203d 1e0f 0f3e 6bff bb3c
000000e0: 3d55 9d3d f580 5dbe dcc7 59be 5f74 d0bd
000000f0: 658f cebc 376a a7bd 03c8 7abe 80ca c13d
00000100: 2c2b 573e c90a 21bd d0bd 783e 6a1e 1e3d
00000110: d1c4 88bd d210 15bd eb11 61bd bd8e 9bbd
00000120: 1d5f 7a3d af1d 503e 22db 4e3e 18e5 7a3e
00000130: be1f 5ebe 76c2 19be dc74 adbb 78f5 26bd
00000140: 0138 263e 323e c23d a559 69be 9b96 2e3e
00000150: 9868 943d b9ee a23c 2697 fcbd f7b7 183e
00000160: 965f 81bd 3dc9 3ebe 2f9f 2dbe 90a4 4b3c
00000170: 13b4 26bc e8ad 193e 61a8 04be 4063 393e
00000180: 1714 6e3e d2b8 47bc 8f68 69bd f25f 0f3e
00000190: 14b6 2bbd 4b23 58bd 1cd1 443d 5378 313c
000001a0: e467 43be 3dc3 093d 26c0 9cbd aa0b b0bd
000001b0: e73d 723d 4b89 053e b9b1 1a3e aef5 703e
000001c0: 68f4 823d 4fd8 46be c348 7abd 396a 2e3e
000001d0: acfa 333e a991 53bd 47a7 69bd 827a bf3d
000001e0: d446 5e3e 9dbd 363e 3fa2 e6bc 49f3 153d
000001f0: d4ee 0a3e 005c 9cbd e73e 103e 29eb 26bd
00000200: 0213 cabc 30ae 58be eb66 2abe 566b 1ebd
00000210: ab29 75bc edcd 0c3e 5e47 08be 5a2f 49bd
00000220: 51b7 6ebd d4f5 d13d feba e13d 6efb e8bd
00000230: 4edb 17bd 1bab bf3c e6b0 043e 3d32 023c
00000240: 37ee 893e 0c4e 323e e047 78be 5af6 1abe
00000250: 3fa8 28bc 75fd 253d 127a 2abe 9462 41be
00000260: 558d fa3c 2a31 e3bc b236 2ebe f73a 03be
00000270: ba6d 333e b96c 5d3d a7de e7bd 75c7 49be
00000280: c355 733d 2c44 173d 2b84 723e 9920 2dbe
00000290: 08d6 39be 651a e03d db26 0ebe bd76 903d
000002a0: a016 d5bc d5da f9bd d769 583e d533 bcbd
000002b0: 5fa4 a6bc 19c6 8ebd 0b8f e5bc 3c8d d3bc
000002c0: a2a7 2abe ad39 15be 5152 793c 9e85 3a3e
000002d0: 1b14 33be 438c 163e 1535 b6bd a53c 533e
000002e0: 33ae 2d3e 5c66 c7bd 9f7b 893d 17c6 40be
000002f0: 6066 12be cb78 53be 2388 f63d c01f 82bc
00000300: 17f7 923d c227 65bc 0fc8 b6bd d809 003e
00000310: 20f9 463e b7ab cd3d 2fce b7bd 5910 0d3e
00000320: d284 81bd c632 a6bd d67b fa3d a429 d73d
00000330: 9277 f53d e1ab 063d c5ba 123d b91c aabd
00000340: 1c6e 39be d8af 9d3c a97b f7bd 8e8e 643e
00000350: 9752 f93d 65ec c13b fc2f f1bd 78b4 16be
00000360: ec35 143e fad6 febd 1a73 5ebe d77a 4b3d
00000370: 4a57 4fbd e70c 87bc 0d45 aebd 7e05 083c
00000380: 15fb b3bc 9a63 47be 104e 3abe 7206 3a3d
00000390: 334b 06be f4f3 28be 1268 13be e446 27bd
000003a0: ba7c 003c 0901 1f3d 3905 413e fc43 c4bd
000003b0: 642a de3d 6472 973d 6498 823d fc3f 013e
000003c0: 177e 8b3d bc37 64be ab1e 503d 9d2b 713c
000003d0: c9fe 123e 87b1 d0bd b622 843d d470 1ebd
000003e0: 2673 bf3d 8a63 bdbd 984d d5bc aa04 2cbe
000003f0: b1f4 7fbd 7c2f 18bd e705 023d 4292 383e

net.2.weight f4 [256, 256]
-0.057748392 0.042510923 -0.022673815 -0.005961622 -0.037964158 0.013934631 0.03800138 0.04450381
-0.036576573 -0.052078426 0.067104414 0.0017565676 0.05273498 -0.018574301 0.01271434 -0.05350877
-0.08723094 -0.02587567 -0.028293082 -0.048466656 -0.023309479 0.02899076 -0.07311442 0.019420106
-0.04027516 -0.051725857 0.0730868 0.013501525 0.04492625 -0.026710128 0.067291595 -0.0072639156
-0.013524718 0.067936584 -0.08588568 0.0662492 -0.0651185 0.012632597 0.02828199 0.05506256
-0.044538576 -0.039543044 0.018351393 0.009828949 -0.013529828 -0.045828454 0.012214464 0.007279854
0.05825021 -0.04153245 0.010521123 -0.062274605 -0.003786073 0.010968097 0.06996143 -0.045912124
-0.03391172 0.06313814 0.02421349 0.05553806 -0.033385508 0.033103965 -0.01460886 -0.064815395
-0.0006343628 -0.032276675 -0.006136127 0.054723952 0.032791708 -0.05273994 0.105955 0.06524748
0.009359116 0.025340628 -0.06026414 -0.018030565 -0.015993675 -0.07583007 -0.01493305 0.109064266
-0.015547501 -0.06434868 0.029402068 -0.02902092 -0.0051530944 0.002179627 -0.0032442873 -0.023186455
0.045491327 -0.063810155 0.04765724 -0.024357576 -0.04719028 -0.037582804 -0.06908663 0.007664033
-0.07118412 0.019253531 0.06782883 0.028233225 -0.039253604 0.049740296 0.065955706 -0.050589345
0.026275132 -0.033700436 -0.04708269 -0.039013837 0.051590443 0.03846152 0.14564006 -0.058377773
0.03160005 -0.05199837 0.06773843 -0.0695839 0.040836673 -0.051607903 0.010387836 0.0417593
0.0063417787 -0.031217612 -0.04647114 -0.053320877 -0.05965439 -0.026164701 0.057188824 0.04502607
0.06058504 0.0007222726 0.047913894 0.03931026 0.060311988 -0.008944464 0.064675964 -0.028369153
0.03762351 -0.06125982 0.041732635 -0.09013962 -0.025991566 0.022790505 0.02462778 0.019294243
0.05014545 0.018435037 0.03724465 0.11347703 -0.06875916 2.1936881e-05 0.02189973 -0.039456107
-0.061921705 0.07626107 -0.04792133 -0.022554899 -0.02313871 -0.05799858 -0.02705873 -0.025970139
-0.022291727 -0.019109756 -0.033571042 -0.046568397 0.035360787 0.043452118 -0.03953393 -0.03893731
0.031841356 0.08644608 0.053413026 -0.05102347 -0.08548227 0.07514219 -0.041441046 0.003878841
-0.03401667 0.030749494 0.0101725515 -0.03307739 -0.0023006054 0.01553561 0.0250381 -0.034523204
-0.062218446 -0.052889846 -0.056028675 0.04119788 -0.005804949 0.0012158254 -0.039492995 -0.015766034
0.013152344 0.0205615 0.042395815 -0.016992446 -0.06587464 -0.012690753 0.04678592 -0.09955559
0.06269728 -0.013932792 0.018024838 0.0077868854 0.032372974 0.018344657 -0.035649627 0.041274264
-0.02507552 -0.039948866 0.03816755 0.071082145 0.052087665 -0.011616851 0.04555014 -0.005188544
0.023333 0.032224886 -0.015066431 -0.05895053 0.011228037 -0.001253235 0.049593724 0.0065560564
0.0073148394 0.02134271 -0.048832614 0.010513174 0.06821622 0.048874263 -0.0020489364 0.04938898
-0.016268114 0.036206614 -0.015543776 -0.014991355 0.034866426 0.052787375 -0.045586213 -0.02154102
0.0077098063 0.075022854 0.0076132244 -0.054427207 0.041148122 0.006041016 0.07995509 -0.017672613
0.0041764206 -0.04931474 -0.10110422 -0.009724067 0.030426694 -0.03819105 -0.013057704 -0.008125866
00000000: 9489 6cbd ef1f 2e3d 70be b9bc b659 c3bb
00000010: 4e80 1bbd 144e 643c 56a7 1b3d a149 363d
00000020: 51d1 15bd 3050 55bd 0a6e 893d a13c e63a
00000030: a200 583d 2229 98bc cf4f 503c 032c 5bbd
00000040: 23a6 b2bd 37f9 d3bc e5c6 e7bc f984 46bd
00000050: 85f3 bebc 087e ed3c 03bd 95bd ea16 9f3c
00000060: 91f7 24bd 7ede 53bd 88ae 953d 8035 5d3c
00000070: 9604 383d 33cf dabc 2dd0 893d 2406 eebb
00000080: c796 5dbc 5622 8b3d d5e4 afbd a9ad 873d
00000090: d95c 85bd f4f8 4e3c a2af e73c 4789 613d
000000a0: 156e 36bd e3f7 21bd a955 963c 9a09 213c
000000b0: 36ac 5dbc 9eb6 3bbd 2d1f 483c d78b ee3b
000000c0: c697 6e3d ee1d 2abd ca60 2c3c a813 7fbd
000000d0: c41f 78bb 88b3 333c f047 8f3d 5a0e 3cbd
000000e0: 04e7 0abd 924e 813d 5e5b c63c e07b 633d
000000f0: 3ebf 08bd 0698 073d 005a 6fbc efbd 84bd
00000100: 5e4b 26ba 8c34 04bd 9011 c9bb 3926 603d
00000110: 9950 063d d605 58bd effe d83d 79a0 853d
00000120: fa56 193c 2697 cf3c 88d7 76bd d6b4 93bc
00000130: 2b05 83bc cc4c 9bbd c0a9 74bc 165d df3d
00000140: f2ba 7ebc 3ec9 83bd 9bdc f03c 48bd edbc
00000150: 4adb a8bb 13d8 0e3b 1c9e 54bb 85f1 bdbc
00000160: 1d55 3a3d e6ae 82bd 3d34 433d 8a89 c7bc
00000170: 984a 41bd 6df0 19bd 4b7d 8dbd 9222 fb3b
00000180: fbc8 91bd 95b9 9d3c d7e9 8a3d 5d49 e73c
00000190: 63c8 20bd 7bbc 4b3d c913 873d c636 4fbd
000001a0: f23e d73c 7809 0abd c7d9 40bd f9cc 1fbd
000001b0: 8050 533d d489 1d3d ab22 153e 881d 6fbd
000001c0: 0e6f 013d 3efc 54bd 72ba 8a3d 0182 8ebd
000001d0: 5b44 273d cf62 53bd be31 2a3c cd0b 2b3d
000001e0: b2ce cf3b 14bc ffbc 8658 3ebd fe66 5abd
000001f0: 2958 74bd 5b57 d6bc d43e 6a3d 426d 383d
00000200: 0528 783d e556 3d3a 5c41 443d cc03 213d
00000210: b409 773d cd8b 12bc d574 843d 6d66 e8bc
00000220: 1c1b 1a3d 94eb 7abd d7ef 2a3d 1f9b b8bd
00000230: 44ec d4bc 27b3 ba3c 33c0 c93c f60e 9e3c
00000240: 5165 4d3d 1305 973c d98d 183d a566 e83d
00000250: 9ad1 8cbd 1805 b837 1067 b33c ba9c 21bd
00000260: 9da1 7dbd c42e 9c3d 2849 44bd 0dc5 b8bc
00000270: 648d bdbc eb8f 6dbd 45aa ddbc 54bf d4bc
00000280: 249d b6bc 108c 9cbc ca81 09bd 81be 3ebd
00000290: 79d6 103d d9fa 313d 55ee 21bd bb7c 1fbd
000002a0: 156c 023d a40a b13d 9ec7 5a3d fcfd 50bd
000002b0: 5411 afbd 26e4 993d 16be 29bd 2734 7e3b
000002c0: 1055 0bbd 5de6 fb3c c6aa 263c 287c 07bd
000002d0: c1c5 16bb 1289 7e3c b41c cd3c 3468 0dbd
000002e0: c5d8 7ebd 06a3 58bd 537e 65bd 1cbf 283d
000002f0: 7137 bebb 555c 9f3a 68c3 21bd c527 81bc
00000300: ee7c 573c 9770 a83c 3ca7 2d3d be33 8bbc
00000310: 49e9 86bd e0ec 4fbc 98a2 3f3d cde3 cbbd
00000320: 6e67 803d 5d46 64bc d3a8 933c 2129 ff3b
00000330: 8699 043d 8947 963c 5805 12bd 340f 293d
00000340: 2d6b cdbc 6ca1 23bd 9455 1c3d 8493 913d
00000350: e059 553d 9b54 3ebc c992 3a3d a904 aabb
00000360: d924 bf3c 3efe 033d 31d9 76bc 1c76 71bd
00000370: cdf5 373c 9743 a4ba ca22 4b3d 30d4 d63b
00000380: 52b1 ef3b e8d6 ae3c b504 48bd 733f 2c3c
00000390: f2b4 8b3d 6130 483d 7347 06bb 194c 4a3d
000003a0: b544 85bc 634d 143d 52ab 7ebc 4d9e 75bc
000003b0: 19d0 0e3d 9337 583d 9cb8 3abd cb76 b0bc
000003c0: 8ba2 fc3b 95a5 993d 5b78 f93b 10ef 5ebd
000003d0: ef8a 283d b7f3 c53b 7fbf a33d 28c6 90bc
000003e0: 5bda 883b 41fe 49bd bb0f cfbd b151 1fbc
000003f0: 6741 f93c 386e 1cbd fbef 55bc 5a22 05bc

net.2.bias f4 [256]
0.047568783 -0.043889645 0.034662835 0.019971095 -0.03858835 0.03966605 0.008786859 -0.05395836
-0.007948603 0.04195781 -0.021781141 0.03295449 -0.04065864 -0.012561692 -0.0034585178 -0.006594083
0.006917595 -0.021493183 0.048282575 -0.033238664 0.07869654 0.01898567 0.07110549 0.07968412
0.04313683 -0.004473231 0.0001396672 0.08270917 -0.035400603 0.014754449 -0.036981896 -0.04693634
0.03899009 0.017214404 0.03860497 -0.001179003 0.042789087 -0.048549253 -0.0018616805 0.0035395394
-0.067122646 0.011850111 0.03451166 -0.03649463 0.008223453 0.04025308 0.01146701 -0.03811299
0.041169472 0.01551762 0.01192142 0.0056139277 -0.037587505 0.012744791 0.033777684 0.048777454
-0.008938739 -0.01897407 -0.0068145366 -0.018790698 0.03947356 -0.035887495 0.04882187 -0.013655349
-0.024235286 -0.0036225165 0.011656553 -0.0059672394 -0.021463439 0.04537045 0.0021344263 0.02472771
-0.009749219 0.04472283 -0.019035762 -0.072863966 -0.08445586 -0.012808958 0.058403566 -0.018924557
0.022615949 -0.007173084 -0.04087038 -0.07406446 -0.08553771 -0.030822322 0.045254577 0.011263172
-0.066760726 -0.072791904 0.03033803 -0.040418718 -0.02518318 0.02180541 0.009644996 -0.05964964
-0.0480921 0.021939203 -0.010835003 -0.050306335 0.0024000104 -0.031462852 -0.011818839 0.033773694
-0.035734624 -0.03748259 -0.027881606 0.06995604 -0.0741363 0.017063588 -0.02124516 -0.025729096
-0.0050190813 -0.0046401666 -0.038999084 0.0062660933 0.056693386 -0.039323762 -0.02967293 -0.011118891
-0.078513116 -0.026526036 -0.07794804 -0.016344436 -0.05304752 -0.05277355 -0.05150796 0.038677357
0.006526911 -0.021096757 0.0026448772 -0.0021082866 0.010224987 0.057538554 -0.026969545 -0.036739215
0.007801299 0.02513594 0.009762919 -0.017820708 -0.065859884 -0.033170253 0.022131879 0.011348717
0.052171994 0.017382415 -0.02331246 -0.0109954085 -0.026825892 -0.036002975 -0.023404855 0.026083402
0.03184704 -0.029942103 -0.008554108 -0.03751264 -0.009162412 -0.026037116 0.016328653 -0.041538775
-0.060656127 -0.051622026 0.026787918 0.014156671 -0.025857115 0.060713075 0.0049270336 -0.058453076
0.0016428693 -0.053880863 0.035981126 -0.06366025 0.078891285 -0.015464732 0.03293915 0.0748508
0.013056194 -0.044729274 -0.004898071 -0.05669105 -0.037368935 0.0012497779 -0.06602608 -0.053331614
0.06532124 -0.05634545 -0.0724799 -0.013693761 0.013988238 -0.047371026 -0.05628976 0.02040629
-0.042885985 -0.06631258 -0.032315202 -0.021096924 -0.024867237 0.0031000657 0.019799326 0.04305729
-0.015533795 -0.08775343 -0.05291772 0.0025407851 -0.027332114 0.013136282 -0.05015195 -0.031130562
0.020537525 0.026759 -0.03770967 -0.072782464 -0.026065996 0.014240851 -0.08256392 0.014370745
-0.03066603 -0.03273232 0.03030903 0.041316334 -0.002771694 0.03901869 0.020532064 -0.011917703
-0.03270227 -0.05429818 0.029485712 0.007971776 0.022453975 0.06852701 0.025705414 0.017324787
-0.02029286 0.0066830767 0.05700789 -0.044783823 -0.05313847 0.05251391 -0.0887462 -0.0564808
-0.021762673 -0.030837405 -0.07762304 0.0027277716 -0.09235241 -0.053707108 -0.077107534 -0.054066766
-0.07431192 -0.028874839 0.029047761 -0.0051111476 0.019718535 -0.020454215 -0.041160632 0.04613707
00000000: 7cd7 423d a1c5 33bd 9efa 0d3d 6c9a a33c
00000010: d10e 1ebd de78 223d c2f6 0f3c 7103 5dbd
00000020: db3a 02bc f4db 2b3d 5d6e b2bc 4afb 063d
00000030: ad89 26bd 8ecf 4dbc 4da8 62bb 2d13 d8bb
00000040: feac e23b 7912 b0bc f3c3 453d 4425 08bd
00000050: a72b a13d d687 9b3c c19f 913d 6e31 a33d
00000060: 3fb0 303d 2e94 92bb a173 1239 6d63 a93d
00000070: 3900 11bd a5bc 713c 547a 17bd 5240 40bd
00000080: 13b4 1f3d 3905 8d3c 3f20 1e3d c788 9aba
00000090: 9c43 2f3d 95db 46bd a203 f4ba 9ef7 673b
000000a0: 9977 89bd f826 423c 195c 0d3d 657b 15bd
000000b0: a9bb 063c 6ae0 243d 20e0 3b3c 5e1c 1cbd
000000c0: 52a1 283d 9e3d 7e3c 0f52 433c 0af5 b73b
000000d0: 5bf5 19bd 87cf 503c 785a 0a3d deca 473d
000000e0: ca73 12bc 826f 9bbc 7a4c dfbb f3ee 99bc
000000f0: 07af 213d c4fe 12bd 71f9 473d afba 5fbc
00000100: 1489 c6bc be67 6dbb 20fb 3e3c d588 c3bb
00000110: 18d4 afbc 5dd6 393d bbe1 0b3b c491 ca3c
00000120: 30bb 1fbc 492f 373d e3f0 9bbc b439 95bd
00000130: 32f7 acbd aadc 51bc 9438 6f3d ac07 9bbc
00000140: 1545 b93c 310c ebbb b367 27bd 1caf 97bd
00000150: 652e afbd 187f fcbc dd5c 393d 2b89 383c
00000160: d9b9 88bd ec13 95bd 7687 f83c 198e 25bd
00000170: f54c cebc 42a1 b23c 0c06 1e3c 2e53 74bd
00000180: 39fc 44bd d8b9 b33c 4c85 31bc 040e 4ebd
00000190: 7e49 1d3b 31df 00bd cea3 41bc 4956 0a3d
000001a0: 785e 12bd 5887 19bd f767 e4bc 1d45 8f3d
000001b0: c6d4 97bd f0c8 8b3c 540a aebc d3c5 d2bc
000001c0: 1b77 a4bb 8a0c 98bb 81bd 1fbd cd53 cd3b
000001d0: 5337 683d f411 21bd a514 f3bc 022c 36bc
000001e0: 7ccb a0bd 214d d9bc 39a3 9fbd c4e4 85bc
000001f0: 5b48 59bd 1429 58bd 03fa 52bd 266c 1e3d
00000200: b3df d53b 1bd3 acbc ad55 2d3b 2e2b 0abb
00000210: b486 273c 8cad 6b3d 3cef dcbc dc7b 16bd
00000220: 0aa2 ff3b e3e9 cd3c a6f4 1f3c bcfc 91bc
00000230: 8ce1 86bd 88dd 07bd ea4d b53c f8ef 393c
00000240: 4db2 553d 9165 8e3c c6f9 bebc 1626 34bc
00000250: f9c1 dbbc db77 13bd 8abb bfbc dcac d53c
00000260: 0b72 023d 2449 f5bc 8826 0cbc dba6 19bd
00000270: f11d 16bc ca4b d5bc abc3 853c 9024 2abd
00000280: 8f72 78bd 9e71 53bd 5672 db3c 62f1 673c
00000290: 4dd2 d3bc 46ae 783d f472 a13b 7e6c 6fbd
000002a0: 8c55 d73a 2eb2 5cbd f260 133d 4e60 82bd
000002b0: c191 a13d ca5f 7dbc 34eb 063d 604b 993d
000002c0: a6e9 553c 0b36 37bd ff7f a0bb e034 68bd
000002d0: 2b10 19bd 96cf a33a ae38 87bd 4072 5abd
000002e0: 24c7 853d 7dca 66bd 5870 94bd cc5b 60bc
000002f0: ec2e 653c 1f08 42bd 1790 66bd 182b a73c
00000300: 37a9 2fbd e4ce 87bd f25c 04bd 75d3 acbc
00000310: 60b6 cbbc 792a 4b3b 3232 a23c d75c 303d
00000320: 7581 7ebc 12b8 b3bd 40c0 58bd 4d83 263b
00000330: 99e7 dfbc 8f39 573c 226c 4dbd 8505 ffbc
00000340: 503e a83c b135 db3c 7475 1abd f90e 95bd
00000350: 5b88 d5bc 7552 693c 4617 a9bd 4673 6b3c
00000360: 5337 fbbc 5312 06bd a54a f83c 513b 293d
00000370: 4fa5 35bb 10d2 1f3d dc32 a83c 7842 43bc
00000380: d1f2 05bd c567 5ebd 058c f13c 0d9c 023c
00000390: 66f1 b73c e457 8c3d 2994 d23c b6ec 8d3c
000003a0: 363d a6bc b6fd da3b 1b81 693d 3e6f 37bd
000003b0: b9a7 59bd d318 573d 91c0 b5bd 6958 67bd
000003c0: a247 b2bc ba9e fcbc d4f8 9ebd 6ac4 323b
000003d0: 4323 bdbd fcfb 5bbd 8eea 9dbd 1d75 5dbd
000003e0: d930 98bd ed8a ecbc 92f5 ed3c 6a7b a7bb
000003f0: c488 a13c 998f a7bc 0d98 28bd 39fa 3c3d

net.4.weight f4 [256, 256]
0.06925207 -0.072183624 0.03362788 0.02305521 -0.013234585 -0.011978248 0.048820578 0.037647706
0.050569396 0.00086991326 0.043919828 0.0535853 0.05416389 0.019573221 -0.027276248 0.060916375
0.03678816 0.013445851 0.022465613 -0.024672475 -0.060506918 -0.006236716 -0.048388395 -0.051033657
-0.04533939 -0.07431153 -0.031479217 0.062385295 0.039961666 -0.042108547 -0.024880035 0.0069238897
-0.033619065 -0.025914779 -0.07342551 -0.02019604 0.022845533 0.04536645 0.01708661 -0.008837062
0.025363456 -0.06996337 0.06700451 0.02715504 0.03251724 0.045745768 -0.02595944 0.022223994
0.0047388393 0.005894768 0.010047593 -0.04603638 -0.01657668 -0.033547424 -0.00449798 -0.08151935
-0.03374457 -0.034550045 -0.016063508 -0.020842213 -0.01159466 -0.052052304 -0.114794746 0.008475082
0.053285718 -0.053025488 0.013858183 -0.009864513 0.038538277 0.06673167 0.021787781 0.039436463
-0.009668428 -0.070275165 -0.018679218 -0.0020381317 0.017013809 0.081921 -0.022682907 0.047415253
-0.0415319 -0.025798272 0.012012622 -0.0075545358 0.0009857757 -0.05594238 -0.029957473 -0.049562037
-0.03259748 0.001594409 -0.07336817 0.064566724 -0.045965306 0.003032106 0.055979367 -0.004425721
-0.005559886 -0.053850707 0.05457912 0.039423086 -0.017796448 0.027097296 -0.024593497 0.011904993
-0.041300602 0.06774174 -0.03503794 -0.055181246 0.15167408 0.08946757 -0.057569247 0.007909857
-0.042718906 0.050722633 0.031087397 0.012399435 0.032533888 0.08839303 0.036230758 -0.030617798
-0.025450991 0.01993169 0.07651611 0.010808486 -0.047637604 -0.051528156 0.06986729 0.037119634
0.03281515 -0.025436971 0.040485922 0.0730873 0.011277622 -0.0075271777 -0.06763793 -0.06018416
0.024112478 -0.05007778 0.0635802 0.014358432 0.016585078 0.018008145 -0.019471886 -0.031852275
0.031606466 -0.040118635 0.044662517 -0.009764468 -7.641438e-05 -0.045338612 0.03862281 -0.041338895
-0.07757933 0.13166964 0.021408988 0.06686692 -0.017375773 0.04233737 0.00033457682 0.01780236
-0.056334324 -0.055373266 -0.087742105 0.052862708 -0.03943119 -0.016453328 0.013872731 0.04987761
0.049541898 0.060447965 0.06980776 -0.046651337 -0.123297416 0.0234758 -0.01948131 0.04108145
-0.018763583 -0.0011313221 0.047116484 0.046648424 0.00421481 0.007275146 0.026558965 -0.009834539
0.027533218 -0.032684974 0.022410484 -0.008298834 -0.051448744 0.016171025 0.015180687 0.013504789
0.066919535 -0.05376056 0.040781397 -0.0073089222 0.094775915 0.04606569 -0.007858027 -0.06592715
-0.076930694 0.07570486 0.040938716 -0.029794233 0.049224153 -0.014260501 0.048445202 0.027458625
-0.056303512 -0.06806931 -0.009685983 -0.011077622 0.05675092 -0.014722544 -0.03881063 0.0075556883
-0.04437154 0.05361797 -0.036351543 0.026674652 0.055844516 0.0014596534 -0.0012646099 -0.05852407
0.058918964 0.053490765 -0.06352467 -0.02033223 -0.010572692 -0.006840989 0.059361566 -0.049597267
-0.049664162 -0.021912653 0.025423363 0.088205 -0.032286644 0.065314606 -0.058691833 -0.050495487
0.041428953 -0.061550215 -0.044060856 -0.022195432 -0.04870555 0.070221886 0.028659157 -0.0659241
-0.02109949 -0.044180118 -0.041160557 -0.035917554 -0.05934177 -0.01937984 -0.0014774238 -0.0205279
00000000: 07d4 8d3d 02d5 93bd 63bd 093d 48de bc3c
00000010: dfd5 58bc 6a40 44bc 16f8 473d 7b34 1a3d
00000020: db21 4f3d e40a 643a 47e5 333d 427c 5b3d
00000030: f5da 5d3d 0558 a03c 7072 dfbc 7383 793d
00000040: 2faf 163d fd4b 5c3c ce09 b83c ee1d cabc
00000050: 1ad6 77bd 5e5d ccbb e932 46bd ab08 51bd
00000060: ccb5 39bd a530 98bd 5af0 00bd b987 7f3d
00000070: d8ae 233d 037a 2cbd 37d1 cbbc cce1 e23b
00000080: 25b4 09bd 3b4b d4bc 1d60 96bd 2a72 a5bc
00000090: 8e26 bb3c 2cd2 393d 38f9 8b3c 53c9 10bc
000000a0: 06c7 cf3c f548 8fbd a939 893d 3f74 de3c
000000b0: cc30 053d ea5f 3b3d e4a8 d4bc 180f b63c
000000c0: 4448 9b3b e628 c13b a99e 243c a590 3cbd
000000d0: d1cb 87bc 0669 09bd ca63 93bb 9ef3 a6bd
000000e0: bf37 0abd 5984 0dbd 9e97 83bc 4abd aabc
000000f0: 87f7 3dbc cc34 55bd 8219 ebbd 12db 0a3c
00000100: 2042 5a3d 4131 59bd 6f0d 633c c49e 21bc
00000110: 50da 1d3d 9daa 883d 4a7c b23c 2188 213d
00000120: 5468 1ebc 6dec 8fbd 2905 99bc 2d92 05bb
00000130: 8b60 8b3c 32c6 a73d 81d1 b9bc 7f36 423d
00000140: 5b1d 2abd e656 d3bc 97d0 443c 0a8c f7bb
00000150: 2535 813a d623 65bd 6069 f5bc 9001 4bbd
00000160: ef84 05bd 7dfb d03a 0d42 96bd 8f3b 843d
00000170: 1e46 3cbd 4cb6 463b 9f4a 653d a305 91bb
00000180: b42f b6bb 8f92 5cbd 5b8e 5f3d 1a7a 213d
00000190: dbc9 91bc 26fb dd3c 4d78 c9bc 290d 433c
000001a0: d22a 29bd 2ebc 8a3d f183 0fbd bb05 62bd
000001b0: 7350 1b3e c63a b73d bbcd 6bbd 5898 013c
000001c0: 05fa 2ebd 89c2 4f3d ffaa fe3c 0027 4b3c
000001d0: 4142 053d 6807 b53d b466 143d 2dd2 fabc
000001e0: 997e d0bc c947 a33c 7ab4 9c3d 1316 313c
000001f0: a61f 43bd 300f 53bd 9516 8f3d c20a 183d
00000200: 2e69 063d 3261 d0bc 91d4 253d cbae 953d
00000210: c6c5 383c 8ba6 f6bb c185 8abd aa83 76bd
00000220: 8887 c53c 5c1e 4dbd 5636 823d a13f 6b3c
00000230: 6edd 873c d185 933c 8183 9fbc 8877 02bd
00000240: c875 013d 7053 24bd 0bf0 363d 26fb 1fbc
00000250: a840 a0b8 fbb4 39bd f432 1e3d f952 29bd
00000260: e9e1 9ebd 68d4 063e e761 af3c 86f1 883d
00000270: a357 8ebc f369 2d3d 246a af39 41d6 913c
00000280: d2be 66bd 14cf 62bd 22b2 b3bd 9186 583d
00000290: 9982 21bd 21c9 86bc 734a 633c 774c 4c3d
000002a0: 72ec 4a3d 4998 773d 5ff7 8e3d 7915 3fbd
000002b0: 5b83 fcbd 5250 c03c 4597 9fbc 0645 283d
000002c0: 16b6 99bc df48 94ba 37fd 403d 6b12 3f3d
000002d0: 641c 8a3b 5964 ee3b 3092 d93c 0c21 21bc
000002e0: 588d e13c aee0 05bd 3196 b73c d5f7 07bc
000002f0: ebbb 52bd 1979 843c 6bb8 783c 3143 5d3c
00000300: 1c0d 893d 0834 5cbd 650a 273d af7f efbb
00000310: e019 c23d 61af 3c3d f4be 00bc d004 87bd
00000320: d78d 9dbd 260b 9b3d 5baf 273d 0913 f4bc
00000330: 449f 493d e0a4 69bc 7a6e 463d e9f0 e03c
00000340: 839e 66bd ec67 8bbd f5b1 1ebc ea7e 35bc
00000350: a773 683d d336 71bc e5f7 1ebd b595 f73b
00000360: efbe 35bd 849e 5b3d 5be5 14bd cd84 da3c
00000370: 38bd 643d d751 bf3a 44c1 a5ba efb6 6fbd
00000380: 0355 713d 2219 5b3d 3919 82bd c78f a6bc
00000390: 1639 2dbc 602a e0bb 1d25 733d 8126 4bbd
000003a0: a66c 4bbd 2a82 b3bc a844 d03c d3a4 b43d
000003b0: 003f 04bd aac3 853d d966 70bd 5bd4 4ebd
000003c0: 68b1 293d 141c 7cbd 2879 34bd 32d3 b5bc
000003d0: 797f 47bd 7ed0 8f3d 9cc6 ea3c 3703 87bd
000003e0: d6d8 acbc 36f6 34bd f997 28bd 491e 13bd
000003f0: 5b10 73bd 78c2 9ebc 1ea6 c1ba 202a a8bc

net.4.bias f4 [256]
-0.055620823 -0.036669098 0.022442536 0.054014124 0.056469396 -0.09463309 0.023121724 0.015420065
0.019166492 -0.0013485594 -0.054735713 -0.057410367 -0.045786947 -0.0269939 0.018617874 -0.072311886
-0.004576966 0.010147796 -0.05862425 -0.0052161124 -0.009134456 0.06546491 -0.047465358 -0.029924782
-0.04796002 -0.041143198 -0.0043274616 0.021104762 0.016293962 0.016871542 -0.075925805 -0.04348242
-0.009025019 -0.041338056 -0.04736495 0.030769102 -0.053657252 0.03959188 0.020203993 -0.01734999
0.06698934 0.04594604 -0.03060353 -0.060524564 0.02654788 -0.03604336 0.004923683 0.06482165
-0.0357508 -0.025528414 -0.07851073 -0.020013472 0.024913035 -0.025258578 -0.091444634 -0.02780991
-0.061114214 0.009465874 0.042958055 -0.094144054 0.028035289 0.045195304 -0.044836167 -0.008814139
-0.07175265 -0.031185761 0.04803737 0.001795347 -0.04926367 0.04697406 -0.09262804 -0.019440923
-0.0512839 0.04300088 -0.04520016 -0.009547058 0.016654998 0.042129487 0.060536973 0.044969827
-0.028176587 0.0637868 0.009877006 0.001280995 0.005590917 -0.059652362 -0.04478344 -0.07564542
0.010910702 -0.018415708 0.00023187378 -0.027490664 0.021802908 -0.023204425 -0.083292484 -0.019660786
0.034638755 -0.0028475574 0.007992726 -0.018131431 -0.03300226 -0.026250103 -0.059439335 -0.06372355
-0.083464384 -0.06611659 0.034915984 0.048017997 -0.02753903 -0.031637087 0.029654983 -0.0403242
-0.00082351215 0.020797735 0.062601894 0.016907003 -0.074222535 0.040648293 0.015657226 0.02683261
-0.057738565 0.011515072 -0.007173605 0.0033090173 -0.003074242 -0.031409595 -0.046378825 -0.05080883
0.06647845 -0.06218087 0.034509294 -0.002646532 -0.0026158288 0.012782352 -0.042304505 0.05973714
0.032518037 0.05317321 -0.017040547 -0.044207677 -0.051285725 -0.06469607 0.0034944417 -0.045922514
-0.041288767 -0.008021345 0.05006887 -0.013535662 0.07153582 -0.011705414 -0.030506 0.0032644395
0.007440826 -0.0019652604 -0.013083202 0.040122773 -0.028022576 0.0066418597 -0.05256665 -0.06044653
-0.061949655 0.047647938 0.068518475 -0.036249254 -0.027260307 -0.06263213 -0.04301928 -0.032296553
0.018412648 -0.051930197 0.0070634717 -0.006882024 0.10129851 -0.036504064 -0.039953478 -0.021821788
-0.017172417 -0.029729007 0.03196598 -0.023156932 -0.06616496 0.060184408 -0.07366292 -0.020689284
0.035698727 -0.05661369 0.011893845 -0.041407105 -0.02516567 -0.054668233 0.020990567 -0.043910757
-0.03957034 -0.06520133 -0.042313512 -0.040598433 -0.00469718 0.0043938505 -0.063397355 0.014891211
-0.049170814 -0.0453036 0.06313213 -0.010620976 -0.012946171 -0.08642005 0.0040050363 -0.0068246215
0.039618168 -0.045734275 0.004024393 -0.007312581 0.029280301 0.035248086 0.06980579 -0.020074457
0.03212658 -0.0045519336 -0.016340861 -0.036534864 0.007877917 0.031693824 0.037335485 -0.04897038
-0.04731066 0.043924864 -0.029793972 -0.021221878 0.017136496 -0.053774204 0.0029232025 0.039273094
0.058512393 0.061125327 -0.03935017 -0.05461596 0.070417404 -0.0167882 -0.04906347 0.04081048
0.06935206 0.036782958 -0.0072988328 -0.06811346 -0.035182968 -0.020276947 0.033328213 -0.051623836
-0.051281057 0.01066466 0.009062969 0.0048330086 0.042058684 0.031332098 -0.03231806 -0.03954207
00000000: a9d2 63bd 5632 16bd 69d9 b73c ea3d 5d3d
00000010: 744c 673d fece c1bd c569 bd3c 71a4 7c3c
00000020: 0c03 9d3c 25c2 b0ba 8e32 60bd 2227 6bbd
00000030: 188b 3bbd 5022 ddbc 8384 983c 4118 94bd
00000040: 60fa 95bb f142 263c fb1f 70bd eceb aabb
00000050: afa8 15bc 7712 863d 096b 42bd d124 f5bc
00000060: ba71 44bd c585 28bd 61cd 8dbb e5e3 ac3c
00000070: ea7a 853c 3036 8a3c fd7e 9bbd 9f1a 32bd
00000080: acdd 13bc 1852 29bd c001 42bd 7c0f fc3c
00000090: b5c7 5bbd 182b 223d d882 a53c 9121 8ebc
000000a0: b531 893d ea31 3c3d 41b4 fabc 9be8 77bd
000000b0: f17a d93c 34a2 13bd d956 a13b 37c1 843d
000000c0: 6e6f 12bd f720 d1bc 3cca a0bd 4bf3 a3bc
000000d0: 6c16 cc3c 14eb cebc 5347 bbbd 9cd1 e3bc
000000e0: e652 7abd c116 1b3c c9f4 2f3d 99ce c0bd
000000f0: 43aa e53c b61e 393d 21a6 37bd 2e69 10bc
00000100: 0ef3 92bd 4879 ffbc d5c2 443d d951 eb3a
00000110: b4c8 49bd df67 403d c5b3 bdbd 9242 9fbc
00000120: 110f 52bd b121 303d ce23 39bd 436b 1cbc
00000130: 1070 883c f88f 2c3d 9ef5 773d 4832 383d
00000140: 96d2 e6bc a7a2 823d 2ad3 213c 0fe7 a73a
00000150: 0334 b73b 0956 74bd d76e 37bd fceb 9abd
00000160: cdc2 323c 8adc 96bc 2523 7339 1a34 e1bc
00000170: 039c b23c 3517 bebc 4095 aabd a80f a1bc
00000180: 5ee1 0d3d 169e 3abb ecf3 023c 5e88 94bc
00000190: 612d 07bd 750a d7bc a976 73bd 7e81 82bd
000001a0: 60ef aabd 2268 87bd 1004 0f3d 85ae 443d
000001b0: 8899 e1bc e495 01bd 02ef f23c fd2a 25bd
000001c0: f7e0 57ba 0360 aa3c 6c35 803d 8e80 8a3c
000001d0: fc01 98bd d37e 263d 9543 803c 10d0 db3c
000001e0: 467f 6cbd b6a9 3c3c 8f10 ebbb 19dc 583b
000001f0: 3979 49bb 59a7 00bd b9f7 3dbd eb1c 50bd
00000200: db25 883d 5eb1 7ebd 9e59 0d3d 7071 2dbb
00000210: 536e 2bbb 126d 513c 7d47 2dbd eeae 743d
00000220: a231 053d 27cc 593d 9e98 8bbc 1c13 35bd
00000230: fb10 52bd 607f 84bd 0103 653b 3f19 3cbd
00000240: 691e 29bd f66b 03bc 0415 4d3d aec4 5dbc
00000250: 5f81 923d 11c8 3fbc b8e7 f9bc 35f0 553b
00000260: 2cd2 f33b 99cb 00bb ed5a 56bc c757 243d
00000270: 9a8f e5bc f5a3 d93b 2150 57bd c896 77bd
00000280: ecbe 7dbd 7c2a 433d 6a53 8c3d 197a 14bd
00000290: 0251 dfbc 4645 80bd fc34 30bd 6449 04bd
000002a0: 1fd6 963c c2b4 54bd b274 e73b 9a82 e1bb
000002b0: 9875 cf3d 4985 15bd 42a6 23bd 9bc3 b2bc
000002c0: 2bad 8cbc 3f8a f3bc c2ee 023d 9bb3 bdbc
000002d0: 7f81 87bd ed83 763d 96dc 96bd 937c a9bc
000002e0: d438 123d c2e3 67bd 67de 423c 7f9a 29bd
000002f0: 3c28 cebc cceb 5fbd 69f4 ab3c c4db 33bd
00000300: 8214 22bd 4688 85bd ef50 2dbd 8b4a 26bd
00000310: cdea 99bb 4afa 8f3b 79d6 81bd 44fa 733c
00000320: 5667 49bd 4590 39bd 6b4b 813d 9a03 2ebc
00000330: 2d1c 54bc fffc b0bd ae3c 833b 13a1 dfbb
00000340: a946 223d dd53 3bbd 0edf 833b 609e efbb
00000350: 3edd ef3c 4c60 103d 57f6 8e3d 3073 a4bc
00000360: 2997 033d 6328 95bb 45dd 85bc 95a5 15bd
00000370: 6112 013c 62d1 013d 18ed 183d 2a95 48bd
00000380: d3c8 41bd 8fea 333d 7d12 f4bc 81d9 adbc
00000390: d661 8c3c 5742 5cbd 3393 3f3b d3dc 203d
000003a0: b1aa 6f3d 8d5e 7a3d a52d 21bd fcb4 5fbd
000003b0: 0037 903d 6887 89bc c7f6 48bd e428 273d
000003c0: 7408 8e3d baa9 163d 0c2b efbb 127f 8bbd
000003d0: 041c 10bd d71b a6bc 2a83 083d 8473 53bd
000003e0: 160c 52bd d3ba 2e3c d97c 143c 375e 9e3b
000003f0: ba45 2c3d 1656 003d f15f 04bd def6 21bd

net.6.weight f4 [256, 256]
-0.054359995 -0.07923872 0.0015946985 -0.04481367 -0.069279715 -0.023614423 0.00566708 -0.020677432
-0.047200415 0.032336295 -0.019584956 0.013662622 -0.07094081 0.036535222 0.05529309 -0.08087159
-0.026048612 -0.021481948 -0.008565526 0.009206046 0.0103662675 -0.055225704 -0.04747304 -0.035429515
-0.006278828 0.018705692 -0.018904136 -0.04713349 -0.051706895 0.019795613 0.012918806 -0.023963107
-0.07047383 -0.0070116688 -0.07142457 0.045686916 0.046230674 0.031974938 -0.0036517216 -0.01941393
0.037108675 -0.005985397 -0.035464898 -0.00976079 -0.07548425 0.021239385 -0.041683298 0.03104353
-0.042315755 -0.0021612607 -0.04349881 -0.051992852 -0.028502353 -0.015482866 0.009702417 0.026484564
-0.011681754 -0.033458993 -0.047687676 0.040240273 0.008890876 0.030391362 -0.06901851 0.12089153
-0.03667361 -0.02382143 -0.026034942 0.018455263 0.041744784 0.018985337 0.036233455 0.0116374735
0.036516543 0.052382555 0.026206892 -0.018006923 -0.027568756 0.032007612 0.046611954 -0.013582602
0.03316915 0.03432221 0.045063898 -0.054669406 -0.034137256 -0.051170208 -0.021234438 -0.03664898
-0.02845263 -0.01729906 -0.031125622 0.010972227 -0.022517838 0.03932462 0.030653337 -0.053875666
-0.017789833 -0.049382858 -0.0297318 0.019113054 0.030354468 -0.033924706 -0.045106392 -0.0012796692
-0.030377928 0.024724428 -0.058624506 0.008120557 -0.0048048072 -0.04100638 0.05671306 -0.020113952
-0.09701752 -0.008919989 -0.011638936 0.058060326 -0.012420455 -0.016049 -0.0032766678 0.026778908
-0.07292554 0.055376906 0.0072215893 -0.001128483 -0.03245253 0.04272204 0.012381768 0.003162726
-0.0020507928 -0.013539181 0.056864336 0.03835926 0.015157826 0.055703707 0.006903888 0.07196486
-0.026748529 -0.039039426 0.03166668 -0.05455672 0.037092138 -0.039438337 0.029498877 0.005962417
-0.0001597783 -0.037993956 -0.0064341053 0.053011656 0.012661581 0.053981133 -0.054839812 -0.013783491
-0.046587605 0.027219355 -0.0039715534 -0.05645667 -0.03751017 0.027236596 0.036486845 -0.05212311
0.012847438 0.057934534 -0.06726734 5.723262e-06 0.09458073 -0.0038488717 -0.047571763 -0.0053178743
0.041451417 -0.029242674 0.039830063 -0.050534654 -0.029461773 -0.014196642 -0.06724121 -0.051441934
0.009878791 -0.09047203 0.0046037333 0.00487339 0.072899416 -0.0012160223 -0.0035460629 0.03200236
0.03337813 0.08109219 -0.057702165 -0.026931291 0.020840453 -0.045052513 -0.019175565 -0.0051471195
0.031910725 0.03325702 0.025682593 0.060621332 0.029359974 -0.059992317 0.020710373 0.049743336
0.037463903 -0.02710306 -0.067313254 0.0075816303 -0.05369799 0.026692776 0.037066948 0.09498076
-0.014936828 0.009448213 -0.02193389 -0.039558545 -0.05041465 -0.011225986 -0.06235435 -0.06177915
-0.07413176 0.040973987 0.031309407 -0.05443479 0.045619912 -0.06233117 0.0026664026 -0.028849548
0.011500135 -0.0022027923 0.013840132 -0.06539459 0.0076341964 -0.010122534 -0.00952082 -0.04659101
-0.02804445 0.023315027 -0.039812632 0.03001085 0.012565939 -0.117718734 -0.007034739 -0.07798199
-0.044182442 0.015896618 -0.03088499 -0.044097017 -0.12147734 -0.05808543 -0.0183923 -0.0063794926
-0.041453954 -0.0030006648 0.015653322 0.048753247 -0.07955203 -0.035019655 -0.0026994923 -0.030716417
00000000: 96a8 5ebd e947 a2bd 3405 d13a 8a8e 37bd
00000010: 86e2 8dbd 0973 c1bc eab2 b93b b863 a9bc
00000020: 3955 41bd 1073 043d a170 a0bc 31d9 5f3c
00000030: 6a49 91bd f5a5 153d 027b 623d 01a0 a5bd
00000040: e663 d5bc e9fa afbc 6c56 0cbc f5d4 163c
00000050: 47d7 293c 5934 62bd 1773 42bd 8a1e 11bd
00000060: a0be cdbb ae3c 993c d9dc 9abc 0c0f 41bd
00000070: 9cca 53bd 692a a23c 66a9 533c 474e c4bc
00000080: 9554 90bd 24c2 e5bb 0c47 92bd 3422 3b3d
00000090: 605c 3d3d 27f8 023d b951 6fbb f609 9fbc
000000a0: 44ff 173d 2621 c4bb a443 11bd b8eb 1fbc
000000b0: 7d97 9abd 38fe ad3c 1bbc 2abd 004f fe3c
000000c0: 4953 2dbd f0a3 0dbb cf2b 32bd 75f6 54bd
000000d0: c47d e9bc d9ab 7dbc e3f6 1e3c 28f6 d83c
000000e0: d464 3fbc 4c0c 09bd 2754 43bd fcd2 243d
000000f0: 09ab 113c 4ef7 f83c 9459 8dbd fa95 f73d
00000100: 1137 16bd 2925 c3bc 3b47 d5bc 7e2f 973c
00000110: 94fc 2a3d 2387 9b3c 8869 143d 1aab 3e3c
00000120: 5f92 153d 178f 563d d6af d63c 4183 93bc
00000130: dfd7 e1bc 6a1a 033d 2dec 3e3d 9089 5ebc
00000140: 60dc 073d 7295 0c3d ec94 383d 07ed 5fbd
00000150: 82d3 0bbd da97 51bd d8f3 adbc 3e1d 16bd
00000160: 7d15 e9bc c2b6 8dbc 29fb febc dbc4 333c
00000170: 5477 b8bc da12 213d b51c fb3c bbac 5cbd
00000180: fcbb 91bc ae45 4abd 1b90 f3bc fb92 9c3c
00000190: efa9 f83c a2f4 0abd 7bc1 38bd 93ba a7ba
000001a0: 22db f8bc e28a ca3c 4020 70bd 160c 053c
000001b0: a571 9dbb 4ef6 27bd f44b 683d 04c6 a4bc
000001c0: 1fb1 c6bd 2525 12bc 3cb1 3ebc aad0 6d3d
000001d0: 2a7f 4bbc 3179 83bc 5dbd 56bb 715f db3c
000001e0: fc59 95bd e5d2 623d 15a3 ec3b 9be9 93ba
000001f0: f2ec 04bd 4efd 2e3d e6dc 4a3c bd45 4f3b
00000200: 9866 06bb 71d3 5dbc 94ea 683d 991e 1d3d
00000210: 8858 783c 9229 643d 033a e23b 5062 933d
00000220: bb1f dbbc cee7 1fbd ecb4 013d de76 5fbd
00000230: eded 173d 188a 21bd a1a7 f13c 6160 c33b
00000240: 298a 27b9 8d9f 1bbd 30d5 d2bb c022 593d
00000250: 8572 4f3c 521b 5d3d b69f 60bd 27d4 61bc
00000260: a5d2 3ebd 20fb de3c ce23 82bb 1c3f 67bd
00000270: 44a4 19bd 481f df3c 3b73 153d 0b7f 55bd
00000280: 107e 523c c34c 6d3d 76c3 89bd 720a c036
00000290: 8bb3 c13d 5a3d 7cbb 9cda 42bd 9041 aebb
000002a0: f6c8 293d 558e efbc d924 233d 6dfd 4ebd
000002b0: d159 f1bc 0899 68bc c2b5 89bd c7b4 52bd
000002c0: a7da 213c 6649 b9bd eada 963b f5b0 9f3b
000002d0: 4a4c 953d f062 9fba 1065 68bb e814 033d
000002e0: 82b7 083d aa13 a63d 1b59 6cbd 039f dcbc
000002f0: 99b9 aa3c fc88 38bd 1316 9dbc 2ba9 a8bb
00000300: d2b4 023d 8338 083d 4d64 d23c 134e 783d
00000310: 5484 f03c 81ba 75bd cda8 a93c abbf 4b3d
00000320: c073 193d 3d07 debc 88db 89bd 536f f83b
00000330: 6cf2 5bbd cfaa da3c 83d3 173d 4685 c23d
00000340: 99b9 74bc adcc 1a3c b4ae b3bc 2408 22bd
00000350: 987f 4ebd 33ed 37bc 4667 7fbd 220c 7dbd
00000360: 64d2 97bd 57d4 273d 4b3e 003d 04f7 5ebd
00000370: f2db 3a3d f84e 7fbd d0be 2e3b e355 ecbc
00000380: 106b 3c3c b95c 10bb b9c1 623c 99ed 85bd
00000390: 4828 fa3b fcd8 25bc 37fd 1bbc 37d6 3ebd
000003a0: 79bd e5bc 28ff be3c 9212 23bd 50d9 f53c
000003b0: 5ee1 4d3c 8516 f1bd ab83 e6bb 06b5 9fbd
000003c0: a6f8 34bd a039 823c 8502 fdbc 139f 34bd
000003d0: 1dc9 f8bd fdea 6dbd 73ab 96bc 100b d1bb
000003e0: 9fcb 29bd cda6 44bb 653b 803c 7cb1 473d
000003f0: 2dec a2bd c570 0fbd f7e9 30bb ffa0 fbbc
