models/model_final.pt (torch, 816966 bytes, 11 tensors)

y_embedding.weight f4 [4, 16]
00000000: 99a1 03bf d7d4 fabe cd31 f13e 0f87 613f
00000010: ad9f a5be 3fe1 7c3d 1887 153f 9776 ef3d
00000020: 6f11 eb3f 7c81 e2bd e01f ab3d 36ea a23f
00000030: 1bc9 463e 41bb 903d 464d 35bf 9930 58be
00000040: 6830 54bf 0f8f 71bf eaf4 f83e 0fc7 e3be
00000050: 377e 37bd c742 d73f d74e 1fbf ab43 ffbf
00000060: d986 d5be 2ee0 ac3d 1271 3dbf a093 5bbe
00000070: ba82 503f 38c5 a9bf 9aff 15c0 56df 1b40
00000080: c5b6 b5be 3f1b cb3f 021e fbbe a10f 79bf
00000090: 21b0 ef3f 3a0c 3bbf aee2 973f f7b4 41bf
000000a0: b5be 773f 06b8 28be 3f09 a5bf 7b3c 82be
000000b0: c724 acbe 86e4 85be 8b52 a0bf 3547 4b3e
000000c0: 88cc bd3e 5562 793f 03e9 5a3f bfe8 77bf
000000d0: ca74 63bf c6dd 553d 3f61 b43f 4265 823e
000000e0: 9708 d5bf cfa7 c5be 5695 193f b897 e4be
000000f0: 3130 8a3f e870 123f 24ad 1fbc b3bf 16bf
-0.51418453 -0.4899051 0.47108307 0.8809671 -0.32348385 0.06173825 0.5840926 0.11692541
1.8364695 -0.110598534 0.08355689 1.2727726 0.19412653 0.07066966 -0.70821035 -0.21112289
-0.8288636 -0.94358915 0.48624355 -0.44487807 -0.044798102 1.6817254 -0.62229675 -1.9942526
-0.41704443 0.084411964 -0.74000657 -0.21443033 0.8144947 -1.3263311 -2.3437257 2.4355063
-0.35491005 1.586769 -0.49046332 -0.9728947 1.8725625 -0.7306553 1.1866052 -0.75666755
0.9677537 -0.1647645 -1.2893447 -0.25436768 -0.3362181 -0.26150912 -1.252519 0.19851382
0.37070107 0.9741567 0.855118 -0.9683952 -0.8885008 0.052213453 1.4092177 0.2546788
-1.6643246 -0.3860459 0.59993494 -0.44647002 1.0795957 0.5720353 -0.00974587 -0.5888626

net.0.weight f4 [256, 19]
00000000: 818b eb3b 6e31 7d3d a633 babe 1af6 ca3d
00000010: 4598 ae3d b706 363e d46d 8bbb 9ae0 823d
00000020: 47b7 9abd 2c51 cf3a 54b7 91bd 5093 973d
00000030: ef2f eb3d 80b1 2bbd a6cb 32be b9a6 c3bd
00000040: 7517 abbd e2c7 22be 033d 04be cfbd 8a3e
00000050: 9e38 4cbe 7f43 bcbe 8e3d c63d 44a8 d5bd
00000060: 1811 2c3e 2ab8 0a3d 9e69 773d 42d1 6abb
00000070: 1a04 003e 9ffa 1fbe dc2e e93d a963 a63d
00000080: 66fc 883c 70a6 04be 8b22 e5bd b214 513e
00000090: af95 88bd 566f e33d 9fef 133e 595a 1fbe
000000a0: 3fc9 9cbe d527 1abd 928f 0ebe bb49 653e
000000b0: f0ea 1e3e 9f22 263e 01ab 993d 1156 503e
000000c0: 2587 f6bd dbcb c7bd 1f48 363e 25c8 a53d
000000d0: 7ace f0bd 5a74 2cbc 5da0 3abe bb98 0d3e
000000e0: b7fc 0e3d ffca 3c3e e9ee f73d 257e c3be
000000f0: 46ce 483e 8ef7 17be 1f4f a93d 4ac4 2ebe
00000100: e999 56be a8ad 0e3e 6fae 483e 776b d4bc
00000110: dc86 43be 4ad9 0e3e f217 94bd 7611 633e
00000120: 6aae 9d3d f345 e63c 1731 68be 8b9f e4bc
00000130: 3f1a 2cbe 7141 44be 39bb a73e 7d6d 2c3d
00000140: 1404 893d bc0a 2a3e e2fc b53c 516e 4c3e
00000150: b840 3cbe e77c 05be 9f8e 573e 7efe 3ebe
00000160: 8cf1 ae3d 71de 233e dfd3 8ebd c51a 073e
00000170: a705 e63d 3d3b f1bb 855d ce3c 5717 a63e
00000180: 4376 66be b144 b23d 0956 2fbe 380a 75be
00000190: 844a ca3b ef7c 863b 16c8 cabd 53a8 d33d
000001a0: aa86 433d efc8 5f3e bee9 073e 78fd 3ebd
000001b0: 0b74 0b3e 1993 cebd 81d6 e2bd f3e6 5a3e
000001c0: 7bec 0a3e 9e7c 20be 381e 963d e489 18bd
000001d0: 23c9 59be 99ea aa3c 2e67 10be 9a9c 103e
000001e0: b168 693e fbbf e03c f56c c8bd 7478 5f3e
000001f0: 023d 693e c46a 3cbe 2e04 d33a d7e4 4b3e
00000200: b814 2c3d 9407 45be 7624 1d3e 48fd d13d
00000210: 2fd5 4dbe 63c1 88bd 46e8 9e3d d3e3 c0be
00000220: 9f75 813d 4094 7f3d 8a5e 203e 0e23 bbbd
00000230: 5530 f83b 5941 01be a675 00bd 7420 943d
00000240: e78c 64bd 0fb8 0dbe 9915 043e 18fb 713e
00000250: 6579 4c3d a21a 2d3e a9e7 e73d 801a 77be
00000260: f406 923e 4dd0 81be a377 973e eda0 42bd
00000270: 2a57 c93d 1501 13be 115d 183e e38a 14bc
00000280: bf1c 0e3e 3858 41be 463e 09be 7bf8 3abd
00000290: daac a6bd 9f8d 483e 3b0b 0dbe 97cc de3c
000002a0: da26 24be c4e0 303e 003e af3d 0bcd 85be
000002b0: 4811 063d 16ae ac3e 272a 8d3d 8ff3 06bc
000002c0: 8151 953d b4d2 2bbe 3c7b 733e c26c 273e
000002d0: f15b 79bd 6cd3 913c 4b9b 12be 9bca 63bc
000002e0: 2254 4cbe 7e9b c23d baf6 acbd 9e1f 353e
000002f0: 1828 133e c87c 01be d8f6 8ebe b8d4 bebe
00000300: ea8e 153d 2234 093d 8818 1e3e 4716 a9bd
00000310: 22c2 5a3e e652 78be 6f65 14be bc01 2c3e
00000320: f70f ed3d 8010 3c3e 7323 7cbe 98c5 213e
00000330: f1a5 833e 3c2b 3dbe 6afe 4bbd 7e3d 36bd
00000340: b8ef 82be c2e0 333e 7090 633e 17fb a83e
00000350: c039 26bd 7cd0 123e 47f4 7f3d cb98 573d
00000360: f45d 643d 87cf fabc af46 8e3d 890c c1bd
00000370: 87c3 6abd ec46 253e 5f42 0cbe 4b0e 653e
00000380: 1f50 ee3c 975d 6d3e 918f 3ebe 8f9e b23c
00000390: 330b abbe b9d2 77be 1d30 883e fa21 36be
000003a0: 23b7 273e f97e 5c3e 2d96 11be 3927 2d3e
000003b0: 4b36 69be f424 743e 162f 223e aa9d 363d
000003c0: ba77 203e 525a 473e 65a8 2a3e bef4 ae3d
000003d0: c038 a93d 0671 503e 4c5c 163e 4873 5a3e
000003e0: 6def b7be 9bae 1dbd 90e3 2dbe 08d7 21be
000003f0: 14c7 1a3e 673a e7bb f963 c23d b045 50bd
0.007188261 0.061814718 -0.3636753 0.099102214 0.08525137 0.17775999 -0.004255036 0.063904956
-0.07554489 0.0015817038 -0.07115045 0.074011445 0.11483752 -0.041917324 -0.17460498 -0.09553284
-0.083540834 -0.15896562 -0.12913899 0.27097937 -0.19943473 -0.36770245 0.096797094 -0.10432485
0.16803396 0.03386704 0.06040346 -0.0035830294 0.12501565 -0.15622948 0.11385891 0.081244774
0.016721915 -0.12954116 -0.11188229 0.20418051 -0.06669175 0.1110522 0.14446877 -0.15561809
-0.3062229 -0.037635643 -0.13921955 0.22391407 0.15519309 0.16224144 0.075033195 0.20345332
-0.120374955 -0.09755679 0.1780095 0.08094815 -0.11758132 -0.010525787 -0.18225236 0.13827793
0.034908976 0.18436812 0.12106115 -0.38182178 0.19609937 -0.14840528 0.08267044 -0.17067066
-0.2095715 0.13933432 0.19597791 -0.02593015 -0.19094414 0.13950077 -0.0723113 0.2217463
0.076992825 0.028109526 -0.22674976 -0.027908107 -0.16806887 -0.19165589 0.32760027 0.042096604
0.06690231 0.16605657 0.02221531 0.19963957 -0.18384063 -0.13035928 0.210505 -0.18651769
0.08542165 0.16002823 -0.06974005 0.13193806 0.11231547 -0.007361798 0.025191078 0.32439682
-0.22506051 0.08704508 -0.17122664 -0.2392968 0.0061734337 0.0041042487 -0.099014446 0.1033484
0.047735848 0.21853994 0.1327276 -0.046628445 0.13618486 -0.100866504 -0.110760696 0.21377163
0.13566773 -0.15672538 0.073299825 -0.037240878 -0.21268134 0.020863818 -0.1410186 0.14122239
0.22793843 0.027435293 -0.09786407 0.21823293 0.22777179 -0.18400103 0.0016099268 0.19911514
0.042011946 -0.19241172 0.1534594 0.10253388 -0.20100854 -0.066775106 0.077591464 -0.37673816
0.063212626 0.06239724 0.15661064 -0.091375455 0.007574121 -0.12622584 -0.0313622 0.072327524
-0.055798437 -0.13839744 0.12898864 0.23630941 0.04992046 0.16904691 0.113234825 -0.24131203
0.2852093 -0.25354233 0.29583463 -0.047516752 0.09831078 -0.14355882 0.14879252 -0.009066316
0.13878153 -0.18881309 -0.13402662 -0.045647126 -0.081384376 0.19585274 -0.13773815 0.027197165
-0.16030446 0.17273241 0.085567474 -0.26132998 0.032731324 0.33726567 0.068928055 -0.00823678
0.07290936 -0.16779596 0.23777479 0.16350082 -0.060878698 0.01780101 -0.14317052 -0.013903285
-0.19953969 0.09502314 -0.08445497 0.17687842 0.14370763 -0.12645257 -0.27922702 -0.37271667
0.036513247 0.033496983 0.15439045 -0.08256202 0.21363118 -0.24250373 -0.14491819 0.16797537
0.11575311 0.18365669 -0.24622898 0.15798032 0.2571254 -0.18473524 -0.049803175 -0.044492237
-0.25573516 0.17566207 0.22223067 0.33004066 -0.04058242 0.14337343 0.06248882 0.05263595
0.055753663 -0.030616535 0.069470756 -0.09426219 -0.057315376 0.16140336 -0.13697194 0.22368734
0.02909094 0.23180233 -0.18609454 0.021804122 -0.33406982 -0.24201478 0.26599208 -0.17786399
0.16378455 0.21532811 -0.14217444 0.16909494 -0.22774617 0.23842221 0.15838274 0.044583954
0.15670672 0.19468048 0.166658 0.085427746 0.08262777 0.20355615 0.14683646 0.21333039
-0.35924855 -0.038496595 -0.1698134 -0.15804684 0.15115005 -0.0070565226 0.094917245 -0.05084771

net.0.bias f4 [256]
00000000: 7a5c 463e 1fa2 37be dd2c 3ebd 8c7e 12be
00000010: 5cc1 263d f380 d7bb 55d2 bb3d bc61 39be
00000020: ed05 b1bd 0988 173e c887 4f3e c17c 18be
00000030: c9a0 843d 4f80 273e f569 4e3d da33 0f3c
00000040: a1b6 ef3d 937d 163e 9326 f73d 09a5 23be
00000050: af6c 33bc dd92 bb3b ce48 ae3d 9eb4 00bd
00000060: 0dbe 193d 4a91 6bbc d2b4 8cbd a714 09be
00000070: 11c1 efbd d372 52be c7f9 b03d 91df 453c
00000080: 9396 45be 01be cebd 0e83 fbbd 3d29 cbbd
00000090: b1e5 2a3e cc17 863d c999 093b 40ee f0bd
000000a0: 63db 3bbd 8a1f 05be 08a7 1d3c 6867 06be
000000b0: 3caf 683e 4cc9 183d 35a9 8dbd 8972 063e
000000c0: 2f12 de3c 3ecd b6bd 9844 18be 2c8d 10bd
000000d0: f83a 273e d5ea 49be e79e 743c 3b74 0d3d
000000e0: 9044 0e3d a7cf 13bc bb79 303e 8170 963d
000000f0: c97a 213d 98e9 813d 9339 1b3d b99b 1d3d
00000100: 912b 46bd 77b9 89bc 8bb6 1b3e d2fe 043e
00000110: c61f 53be 3693 8dbd ff8e 093e 1dae 443e
00000120: e0bd a93d 8f2e 1b3c 8aa2 5e3e 50a7 3d3e
00000130: 9dc3 293e bbb4 6b3d 1f40 1e3c b0a0 51be
00000140: aef5 3abd 3cec 6d3e e9a1 113e babd 2d3e
00000150: a5cb bc3d 73ee a2bd 0910 0cbe 4700 36bd
00000160: daa0 213c 7d6a df3d efb9 4abe 9d2b 03bd
00000170: 92bd eb3d 2add 3ebd a1a8 1d3e 0659 a9bd
00000180: 40c6 5c3e f872 833d 1536 a73d 8efa 20bd
00000190: bd30 b83d 0914 0fbe 9986 413e 8258 a73d
000001a0: 6b3f 9c3d 3ae6 533d 6776 3bbd 4174 5c3e
000001b0: 536e c13d 2174 063e 35f2 62be 2370 5dbe
000001c0: ee9f 753d c879 edbd e0a4 36be b39a d13d
000001d0: 480a 94bc d4fb 0c3d c502 ab39 0498 eb3d
000001e0: 9d6b 11be 57ac 1dbc 2e31 033c af37 1abe
000001f0: 9c30 47be 592f e63c 3bf4 67be f186 d5bc
00000200: 1a76 e5bd 5d70 603d d67c 62bd 7598 393e
00000210: a1b4 e9bd bf55 e13d ccae 56be 8d03 d4bd
00000220: ce51 93bd 9fce 213c 037d 0a3e d7bf 38bd
00000230: 82fe 4b3e d368 8f3d d09e 50be 862a fabd
00000240: e2aa 16bd 24ba c33d 7ec7 82bd 08ba 0b3e
00000250: dbc2 f43d 26af 8f3d 7678 a4bd 4689 95bd
00000260: ea02 a0bd 3bc1 6e3d 41e6 2dbe da6a d83d
00000270: 6b97 983d 3af4 62bd d56b 38be 5578 283d
00000280: b8e4 a9bd 3a71 773e be59 103d b849 ebbd
00000290: 6099 03bd 8e1e 903d f6ad c4bc 9cac 233e
000002a0: fa70 d63d 967d 62be 04d5 8b3c 24af 4a3e
000002b0: 640b 63be 51db 883b 0dfd 003d a2a7 28be
000002c0: 02f7 753e 48d0 323e b07d 5bbe bbfc babd
000002d0: e8ad 773d 1d61 f73d 9363 083e 8faf 9e3d
000002e0: a2b5 39be 1490 15be 6ae0 3abd 8107 773e
000002f0: f1c0 9abd 4b81 fe3d ecef 323d e881 2fbd
00000300: 7947 00be 91a9 803e 52c4 55bd 587a f1bd
00000310: 84f3 253e b338 0bbe ba9e 30be be3e 003d
00000320: 662a 1c3d d12f fabd 3b64 1c3e 67f5 cb3d
00000330: e90d 783e 82e2 303e 011c 6a3c 44b8 303d
00000340: 7c1d d83b 83a5 053e 59ae 243e fab4 793e
00000350: 84d7 2fbd d7ba 233e 835b adbd f2ab ac3d
00000360: 49f4 33be 30cb b43d 0560 55bd 930f d83c
00000370: 3d8d 913d a8af 32be 3cd8 4dbb 793d 8fbd
00000380: c9aa 09be b8ce 0f3e 8afa e3bc 6417 023c
00000390: 65e7 703e c48b 2a3e 002a 8e3e 97d1 d83d
000003a0: cfd0 53be e892 093e c7bc ad3c f2cc 1abe
000003b0: d431 71bd e59c 1c3e 1ccd 733e 10c9 bc3d
000003c0: a71e 063e c06e 4bbc 1159 3b3e 70f5 07be
000003d0: 874d a83d c1d8 7d3c 377f 243e 3b67 00be
000003e0: 3296 013e e716 f53d c125 b4bd 8d6a 0dbe
000003f0: dc4a 2dbe fa93 083e ad87 e13d d75e 12be
0.19371215 -0.17932938 -0.046429504 -0.14306086 0.040711746 -0.0065766512 0.09170977 -0.18103689
-0.086437084 0.14797987 0.2026664 -0.1489134 0.0647598 0.1635754 0.050394017 0.00874039
0.117047556 0.1469634 0.12067904 -0.15980925 -0.010951205 0.0057242946 0.0850998 -0.03142225
0.037534762 -0.014377901 -0.06870426 -0.13386784 -0.11706746 -0.20551614 0.08641391 0.012077228
-0.19295721 -0.10094834 -0.12280856 -0.09919975 0.16689183 0.06547508 0.0020996204 -0.117641926
-0.04586352 -0.13000312 0.009622343 -0.13125384 0.22723097 0.037301347 -0.06917039 0.13129629
0.02710828 -0.089258656 -0.14869916 -0.035290882 0.16331089 -0.19718488 0.014930463 0.034534674
0.034733355 -0.009021676 0.17233936 0.07345677 0.039423738 0.063433826 0.037896704 0.038478587
-0.048381392 -0.01681207 0.15206353 0.12987831 -0.2061759 -0.06912844 0.13433455 0.19207044
0.08288169 0.00947155 0.21741691 0.18520856 0.16578527 0.057545405 0.009658842 -0.20471454
-0.045644455 0.23234648 0.1422192 0.16966906 0.092185296 -0.07955637 -0.13677992 -0.04443386
0.00986501 0.10908983 -0.1979749 -0.032024015 0.11510767 -0.046597637 0.15396358 -0.08268933
0.21560001 0.06418413 0.08164612 -0.039301448 0.08993671 -0.13972487 0.18899001 0.081711784
0.076292835 0.051733233 -0.045767214 0.21528722 0.09444871 0.13130237 -0.22162707 -0.21624808
0.059966974 -0.115954936 -0.17836332 0.10234585 -0.018071309 0.03441985 0.00032617725 0.11503604
-0.14201207 -0.009623609 0.008007331 -0.15060304 -0.19452137 0.028098749 -0.2265176 -0.026065322
-0.11204167 0.054794658 -0.055294834 0.18124564 -0.11411405 0.11002683 -0.20965117 -0.1035224
-0.071933374 0.009875922 0.1352425 -0.045104828 0.19921306 0.070024155 -0.20373082 -0.12215142
-0.03678406 0.09556988 -0.06385706 0.13645184 0.11951228 0.07015829 -0.080307886 -0.073015735
-0.07813056 0.058289748 -0.16982366 0.10567255 0.07450756 -0.055408694 -0.18009885 0.041130383
-0.08295578 0.24164286 0.035241835 -0.1148867 -0.03212869 0.07037078 -0.024008732 0.15983814
0.10470767 -0.2211822 0.017069347 0.19793373 -0.22172314 0.004176535 0.031491328 -0.16470197
0.24020007 0.17462265 -0.21434665 -0.09130236 0.060468584 0.1207907 0.13319235 0.07748329
-0.18135694 -0.14605743 -0.045624174 0.24123956 -0.07556332 0.124270044 0.04368584 -0.042848498
-0.12527265 0.2512937 -0.05218918 -0.11790913 0.16206175 -0.13595848 -0.1724805 0.031309836
0.03812637 -0.122161515 0.1527261 0.09958916 0.24224056 0.17273906 0.014288903 0.04314448
0.0065953117 0.13051419 0.16082133 0.24385443 -0.04293014 0.15989242 -0.0846472 0.084312335
-0.17573656 0.088278174 -0.052093524 0.026374614 0.07107017 -0.1744982 -0.0031409403 -0.06994147
-0.13444056 0.140437 -0.027829427 0.007940147 0.2352577 0.16654879 0.27766418 0.10586851
-0.20685123 0.13434947 0.02120818 -0.15117243 -0.05888541 0.15294226 0.23808712 0.09218037
0.1309763 -0.012416542 0.18295695 -0.1327722 0.08217912 0.015493573 0.16064154 -0.1253938
0.12654951 0.11967259 -0.087962635 -0.13810177 -0.16923088 0.13337699 0.11012206 -0.14293991

net.2.weight f4 [256, 256]
00000000: 57db 153d c80b 983d f298 413d d506 8b3d
00000010: 02d8 bcbd 2d3a b139 cea9 aebc ab1e b4bc
00000020: 46dc 8abd 56ea 4cbc 131b f13d 9c30 5d3d
00000030: 4061 9ebc 5f1e 97bc 56b3 7d3b 7e7a 01bd
00000040: 3b41 56bd 4546 0dbd e5a0 65bd b01f d8bc
00000050: 74bc c43d 8f11 cdb9 d9ae 80bc 14b3 8fbd
00000060: fc26 bf3c ba27 2fbc 6792 463d 93c7 e13c
00000070: 66cb 5cbd 5566 33bd 7243 16bd e47c ff3c
00000080: fef1 543d 6021 92bd 65d8 233d 40af 7abd
00000090: ffc0 63bd b740 b73c 5867 99bc df8d f73c
000000a0: 6286 523c 9149 eebc 5bff 11bd 6049 893c
000000b0: 2145 d53b 4298 633d e307 05be 862e 17bd
000000c0: 7a20 883d b8b7 a9bd d80a bbbc 50b1 5ebd
000000d0: 563f e53b bc7b a83d 235a 8bbd 45d5 fcbc
000000e0: bb50 693d e472 c73c 9679 903b 9fd3 74bd
000000f0: 1ea9 183d 60f4 a83b 2ff8 bab9 9506 c13c
00000100: 8c18 9fbd 3224 debc 812e d9bb ff8d 6dbc
00000110: 18ae 483d 6055 f8bd 831a 70bd 3648 89bc
00000120: 1267 e43c 78ef 57bb 09c5 75bd 0ebc 033d
00000130: 8e79 83bc 278c 1b3d 0bb7 48bb d256 c9bc
00000140: 39e9 59bd e94d 9dbc 41ee c93b c8da 7e3d
00000150: f12e ecbb 2a41 10bd 3127 663d dced d73b
00000160: b15d 303b 613f 643d c280 31bc 2998 bf3d
00000170: 1347 183d 9c81 1cbc 73dc c8bd ae50 ccbc
00000180: 1dab 31bd c32f 50bd c0d1 94bd cd72 be3c
00000190: bf6d 60bd e486 1e3d 257b 093d bbcf 503d
000001a0: c405 c63c 6624 56bc 1238 a0bc 76f6 57bb
000001b0: 5379 eebc 6f07 723d 90c4 aebd 0154 4d3d
000001c0: 999b 79bd 343e 0a3c 0863 81bc 8710 01be
000001d0: 6252 1fbd dad2 e23c d567 f73c d1eb 643d
000001e0: 145c 80bd 9195 483c e8a0 3cbd db7b 4d3d
000001f0: af5a 48bd a9d4 31bd c7d4 b7bc ce2f 8ebd
00000200: 00e3 03bd 83c9 853d 6fcd 18bc a5e0 48bd
00000210: 8949 b53c f670 ba3c 1464 02bd 8746 a2bc
00000220: d63c f7bd 8ce0 ca3c 7380 eabc 29dd 82bd
00000230: e00d f13c 9c64 59bd 2193 54bb da4d 703d
00000240: 7d84 05bd a7e4 56bd 6e72 28bd dbe4 20bd
00000250: c1c1 7c3d 0da5 093d a786 f1bc 8d7d 63bd
00000260: d31b febd 565c d73c 69b7 1dbd 1cd0 63bc
00000270: a6e9 94bd a089 673d db96 bfbc a543 f73d
00000280: 3947 3dbd a436 5ebd fb78 de3c 1026 c3bc
00000290: f6f6 673d 7f02 8d3c 2df0 803d d0ef bf3c
000002a0: 716a f8bc fd20 793c 8f88 c5bb 5cab 9ebd
000002b0: 6bd8 26bb ee36 f03c 5cfb 943c 0634 d93c
000002c0: 94b9 dc3c dd4d 473c 6c01 0dbd 7f6a 08bd
000002d0: 61df 3b3d 0662 9ebd 345c 763d 2922 4fbc
000002e0: d391 1abd 2adb d0bb dab0 0fbd 3f49 743d
000002f0: 8f47 923d 31dc 9fbc 443b dcbd 042f 2c3b
00000300: 7c08 8e3d 490f 77bd bb95 143d 3c5e e2bc
00000310: 9c2b 8b3c 27ec a8bd b739 113b 6143 41bd
00000320: f6de 473c 20da 263d 820a a33c 8432 2fbd
00000330: 0325 3b3b 0c53 ef3c 4009 f9bb dff4 393d
00000340: 629b 2a3d f7b9 5dbc d0e4 21bc 5e4b 7f3d
00000350: fdaf 663c 310e 87bd 682d 3abc f9bd a5bc
00000360: 3a0c fbbd 3b13 223c 9038 58bd b02f b63c
00000370: 49d3 c8bc be47 0bbd efd6 813b 1ae5 f73c
00000380: a9ff 603d 97d9 883d d251 8ebd a976 45be
00000390: 66df 933c 863d a33b 349b 7a3c f24c 12bd
000003a0: 6158 913d be11 e839 41ca a2bc 2dac c9bc
000003b0: 0fab e63d 73d2 6f3c 2240 84bd 0f8c 363d
000003c0: 7f9d 0fbd a33c 63bb 04f3 8dbd e0e4 d23c
000003d0: 9a00 303d deb1 9dbc b95c c53c 75c5 74bd
000003e0: d1a8 103c 14e3 97bd 7af3 4f3d 0279 923d
000003f0: 1da8 00bc 6130 70bd 7048 04bd 526a 89bd
0.036586132 0.07424122 0.047265 0.067884125 -0.09220888 0.00033803415 -0.021321204 -0.02198728
-0.06780295 -0.012507042 0.11772742 0.054001436 -0.019333482 -0.0184471 0.003871163 -0.03161096
-0.052308302 -0.034490842 -0.056061644 -0.026382297 0.09606257 -0.0003911373 -0.015708374 -0.07016578
0.023334019 -0.010690624 0.048479464 0.027560985 -0.053904913 -0.043798763 -0.036685415 0.031187482
0.051988594 -0.07135272 0.04000129 -0.061202288 -0.055603977 0.022369726 -0.018726036 0.030219017
0.012849422 -0.029087814 -0.035643917 0.01675862 0.006508485 0.055565126 -0.1299129 -0.036909603
0.066468194 -0.08286995 -0.02283232 -0.054368317 0.0069960756 0.082267255 -0.068043016 -0.030863414
0.056961756 0.024346776 0.0044090254 -0.05977213 0.037270658 0.005156085 -0.00035661596 0.023562709
-0.07768354 -0.027116869 -0.006627858 -0.014499187 0.048994154 -0.12125659 -0.058619034 -0.016758066
0.027881179 -0.003294913 -0.06000236 0.032161765 -0.016049173 0.037975457 -0.003062668 -0.024577532
-0.053200934 -0.01920219 0.0061624353 0.062220365 -0.0072077443 -0.035218395 0.05618972 0.0065896343
0.0026911313 0.055724505 -0.010833921 0.09355194 0.037177157 -0.009552386 -0.09807672 -0.024940815
-0.043376077 -0.0508268 -0.07266569 0.0232481 -0.054792162 0.03870286 0.033564705 0.050979357
0.024172671 -0.0130702015 -0.019557986 -0.0032953299 -0.029110586 0.05908912 -0.08533585 0.05012894
-0.060939405 0.008437682 -0.015794292 -0.12603961 -0.038896926 0.027688432 0.030200878 0.055888955
-0.062675625 0.012242691 -0.04605189 0.050166946 -0.048914608 -0.0434157 -0.022440327 -0.06942712
-0.032198906 0.06532576 -0.009326323 -0.049042363 0.02212979 0.022758942 -0.031833723 -0.01980902
-0.120721504 0.024765275 -0.028625702 -0.06389839 0.029425561 -0.053074464 -0.0032436328 0.058667995
-0.032597054 -0.052464154 -0.041124754 -0.039280754 0.061708216 0.03360467 -0.029483153 -0.055539656
-0.12407651 0.026289146 -0.03850499 -0.013904598 -0.072711274 0.056527734 -0.023387363 0.12073449
-0.0462105 -0.054251328 0.027157297 -0.02382186 0.056632005 0.017213104 0.0629581 0.023429781
-0.030324193 0.015205619 -0.006028242 -0.07747528 -0.0025458585 0.029323068 0.018186264 0.026514065
0.02694396 0.01216456 -0.034425184 -0.033304688 0.045867328 -0.0773354 0.060146526 -0.012642422
-0.037736725 -0.0063737826 -0.03508077 0.059640165 0.07142555 -0.019514175 -0.107534915 0.002627314
0.06935212 -0.06031731 0.036275607 -0.027632825 0.016988568 -0.082481675 0.0022159645 -0.0471834
0.012199154 0.040735364 0.019902471 -0.042772785 0.0028555996 0.029214405 -0.0075999796 0.045399543
0.04165209 -0.013533107 -0.009881213 0.062327735 0.014080045 -0.06594504 -0.011363365 -0.020232188
-0.122581914 0.00989228 -0.052788317 0.022239536 -0.024514811 -0.034003966 0.0039623897 0.030260611
0.054931317 0.06682127 -0.069492 -0.19283547 0.01805086 0.0049816994 0.015295792 -0.035717912
0.07096935 0.00044263707 -0.019871833 -0.024618233 0.112630956 0.014637577 -0.06457545 0.044567164
-0.03506231 -0.0034673593 -0.06931117 0.025743902 0.042969324 -0.019249853 0.024092065 -0.059758622
0.0088293115 -0.074163586 0.050769307 0.07151987 -0.007852581 -0.058639888 -0.032295644 -0.06709732

net.2.bias f4 [256]
00000000: aae0 4b3c 07f2 8fbd 7d96 8d3d 3355 f2bb
00000010: b9b8 2fbd ba76 d8bc 352c 5b3c 90ce 4fbb
00000020: fe7d 473c bccf 93bd 36fc 7d3b 9635 8b3c
00000030: ec68 b3bc 12ac 7fbc 226c 6cbc 10a0 b2bc
00000040: 9693 c43c ca80 373c 3971 00bd 193c efbb
00000050: 6fdb 62bd 9116 55bd a096 46bd 70b4 1f3d
00000060: 3ffd 3a3d 3cdc 24bd 80d1 86bd c01d 3d3d
00000070: 3f77 33bd 3701 25bd 5b1f 04bc e91d 303d
00000080: f9b3 b43c a7e8 febc 32dd 4fbd cbf7 54bb
00000090: 3408 67bc 5afc 183d 1cf5 3a3d 8850 0d3d
000000a0: adfd 3f3c 87ae 9abb 4741 26bc df7a 65bd
000000b0: ffe7 093d f4fd 983d b00f 8d3c 69e9 be3b
000000c0: 2cea 013d 537c ccbc 546f 8abd 861e 74bd
000000d0: 1686 223d 3764 d5bb d720 923d baea 74bd
000000e0: 2203 023d 3a66 10bd 551c 233d cdfd bbbc
000000f0: f0aa 2bbb 919c 23bd b196 673c 9bfd 86bd
00000100: cd8b 083d 9d1a 63ba ae03 e63c 6e15 b3bc
00000110: df26 e4bc 8ebd cfbc cee4 92bc 9bd8 993c
00000120: 75bc 173d 500b 313d db69 b5bd 20f5 38bd
00000130: d95a e4bc 8695 cc3a 8266 c93c cf2b 273d
00000140: 8341 34bd 3238 0fbd aafa 9ebb cfb8 63bb
00000150: c19b 6cbd 9194 0dbd 948d 26bd 0881 c4bb
00000160: dd69 fd39 e37e 62bd 65be 353d acd4 3cbd
00000170: cd1e 1d3d f769 8cbd 7e0d 62bd fb8c 6c3d
00000180: 52d6 9abc c5bd 22bd a363 abbb ed10 90bd
00000190: c474 7abd 1530 60bd 934d 68bc 7072 1d3c
000001a0: 48d0 83bd c84b 263d 7f03 113c 2a12 8cbd
000001b0: 068c 47bd 0cb1 553d 03e8 9dbd 320b 27bd
000001c0: 769b 64bc 4359 2ebc 0fd1 343d 0510 0d3d
000001d0: 29e6 ddbc 321d ff3c ba99 cfbb 4dda d03a
000001e0: 2eed 76bd 14d8 053d a5eb 883d a765 1abd
000001f0: 1bed f93c 6d40 373d d89a 423d 7232 403d
00000200: 624f 903d 2490 70bd f94a a0bd 8d37 3cbc
00000210: d0fd 9fbc 3d8c 39bd d21d 68bd 2813 4fbd
00000220: 416f a4bd e93e 1cbd 3810 febc bb33 9dbd
00000230: 847b 183d 274d 6fbd f1fd 82bc 92f4 7e3d
00000240: 41c9 35bd 7d77 90bc bd4b 373d 1526 bcbb
00000250: e536 973d 0758 10bc bac1 3fbd 4892 513d
00000260: ef06 343d 6257 223d 6630 b6bc 5319 8abd
00000270: 4a45 99bd 7ab1 c8bb 9b27 373d 7117 83bd
00000280: bddb a0bd 13f2 4e3d dc65 3ebc 1ddc 97bc
00000290: 7902 8fbd c75a d83c a18e 003d 65bb 293d
000002a0: fe4a 253d fc0d 1fbd cb64 263d 6062 4ebd
000002b0: 9c85 7a3c c100 10bd 4fd8 19bd 9e9c 5ebd
000002c0: 2117 2cbd 6f71 b13c 2c96 53bd 6c9e 2abd
000002d0: 1b56 b0bd 404c 6f3d 3ca2 853c 058d 9abc
000002e0: 245f 96bd 46a9 733c a07f 2b3c 449a 9b3c
000002f0: 8df7 af3c 7fc0 1d3d 22f6 7abd 5003 ea3c
00000300: e3fb 083d 7c3c 7bbd fa19 dcbc e670 41bd
00000310: b39c f0bc 9503 7e3d 8a44 84bd 6a15 2b3c
00000320: 8f55 013d 5d7d d73c e6e2 2ebd 6ac7 2ebd
00000330: 9a09 3c3d 24f6 413c 707d d9b8 319c 303d
00000340: 247c 8ebd a653 9fbc 3abb f93c 1ece e5bc
00000350: 5ba3 d93a ac39 403d 66f9 a53b a59e 30bc
00000360: 7b9f 12bd f541 a63d cbd3 983c f03c 653d
00000370: 383a 4f3d 46d9 68bb 541b 723c 4075 91bc
00000380: af8e 1e3d dd0f 463d 1785 efbc a57b 5cbc
00000390: a28d 623d b9c0 32bd 8f7e 9fbc 717a 453d
000003a0: de1f 753d 073d 633d 0ae3 1d3d d0d2 81bb
000003b0: 0434 b13c 3eaf 583c bb35 82bc 1e94 1cbd
000003c0: bfdd ad3c 6d4c 63bd 6e06 513d 871d d8bb
000003d0: fdd0 1b3d 2c94 8abc 0396 133d 38ee c6bc
000003e0: 7476 49bd 4080 ce3c 542f 72bd a186 3ebd
000003f0: 61af 7f3d b4c9 e53c 1554 413d 2980 febc
0.012443701 -0.07028585 0.06913469 -0.0073954104 -0.042900775 -0.0264238 0.013377239 -0.0031708814
0.012176035 -0.072173566 0.0038755066 0.016993325 -0.021900617 -0.01560499 -0.014430078 -0.02180484
0.023996156 0.011200139 -0.031357978 -0.0073008654 -0.05538505 -0.052023474 -0.04848349 0.038990438
0.04565167 -0.040249094 -0.06582928 0.04617095 -0.043814894 -0.04028436 -0.008064116 0.042997275
0.022058474 -0.031116797 -0.050748058 -0.003249633 -0.014101077 0.037350036 0.04564391 0.03450063
0.011718196 -0.0047205123 -0.010147399 -0.056025382 0.033668514 0.07470313 0.017219394 0.0058261645
0.031717464 -0.024961626 -0.067595154 -0.059599422 0.039678656 -0.0065121907 0.0713517 -0.059794165
0.03174127 -0.03525374 0.03982194 -0.02294817 -0.0026194416 -0.039944235 0.014135049 -0.0659134
0.03333645 -0.00086633285 0.028077926 -0.021860804 -0.027850566 -0.025358941 -0.017931368 0.018780043
0.03704496 0.04322368 -0.08858081 -0.045155644 -0.02787535 0.0015608526 0.024585012 0.040813264
-0.04400779 -0.0349657 -0.004851659 -0.0034747606 -0.057765726 -0.034565512 -0.040662363 -0.005996827
0.00048334795 -0.05529679 0.044371027 -0.046101257 0.038359452 -0.06856149 -0.05518865 0.057751637
-0.018901024 -0.03973176 -0.0052303835 -0.07034478 -0.061146513 -0.054733355 -0.014178651 0.009609804
-0.06436211 0.040599614 0.008850931 -0.06839402 -0.04871752 0.0521708 -0.07710268 -0.04078216
-0.01395308 -0.010641399 0.044144686 0.034439106 -0.027087288 0.031141851 -0.0063354643 0.0015934199
-0.060284786 0.03267677 0.066855706 -0.0376946 0.030508569 0.044739176 0.04751095 0.04692311
0.07046391 -0.058731213 -0.078268 -0.011487854 -0.019530207 -0.045299757 -0.056669064 -0.05055538
-0.080290325 -0.038145933 -0.031013593 -0.076758824 0.03722717 -0.058423188 -0.01599023 0.06224496
-0.044381384 -0.017635101 0.044749964 -0.0057418444 0.07383517 -0.00881005 -0.04681561 0.051164895
0.043951925 0.039634116 -0.022239875 -0.067431115 -0.07483919 -0.0061246725 0.044715505 -0.064009555
-0.07854412 0.05052383 -0.011620965 -0.018537575 -0.069828935 0.026410474 0.03138602 0.04143848
0.04035472 -0.038831696 0.040623467 -0.050386786 0.015290644 -0.03515697 -0.037559804 -0.05434858
-0.042014245 0.021660535 -0.051656887 -0.04165499 -0.08610173 0.058422327 0.016312711 -0.018866071
-0.073423654 0.014871901 0.01046744 0.018994458 0.021480346 0.038513657 -0.061269887 0.028566033
0.033443343 -0.06133698 -0.026867855 -0.04722681 -0.029371595 0.062015135 -0.06458385 0.010442117
0.031575736 0.026304895 -0.042696856 -0.042670645 0.045907594 0.01183847 -0.00010370731 0.043117706
-0.06957272 -0.019449066 0.030484784 -0.028052386 0.001660447 0.04693 0.005065131 -0.010780011
-0.035796624 0.08118049 0.018655678 0.055966318 0.05059263 -0.0035529896 0.014777023 -0.017756104
0.038710292 0.048354972 -0.029238267 -0.0134572135 0.055310853 -0.043640826 -0.019469528 0.048212472
0.059844844 0.055478122 0.0385466 -0.0039618984 0.021631248 0.013225375 -0.015894761 -0.038227193
0.0212239 -0.055492807 0.051031522 -0.006595317 0.038041104 -0.016916357 0.036031734 -0.024283513
-0.04918523 0.025207639 -0.059127167 -0.04651511 0.062423114 0.028050281 0.047199327 -0.03106697

net.4.weight f4 [256, 256]
00000000: 6075 02bd 9f05 77bd 17a8 ffbc 9a78 963c
00000010: 6c08 debb 01f4 54bd c8b0 913c 1a37 473b
00000020: f117 9dbc 67d6 aebc 0dbe 6b3c 10f8 57bc
00000030: ca4a 48bd c6f8 6f3d 8555 9bbc f348 953c
00000040: 0ed6 b53a b53f 913b e6eb d23c 751d 293d
00000050: efe2 49bb 0f5e 8b3c cb09 8abd abb7 a0bc
00000060: 7b96 25b9 67a9 59bd 62d5 563d 1d53 3cbd
00000070: 6bfc a0bc c999 a5bc 6e66 4fbd 58ae 6e3d
00000080: f55b 283d 23bd 46bc 0cc6 8a3b 9194 6fbc
00000090: beeb d3bc a5d4 68bd 3630 72bd e6d1 f53c
000000a0: f275 12bd 66ad 053d 909c 1cbd 8f3a a53d
000000b0: a708 e5bc 0065 41bd b865 0cbc 07b1 963d
000000c0: 1006 993d 119a 283c 46ac ac3b 4af2 563d
000000d0: 0ca9 8dbb c9c8 6fbc 7ae8 443d f574 9e3b
000000e0: d0d5 45bd 7f1a 73bd b63f b13c 8f80 ec3c
000000f0: 5cfc 2ebd bede 343c 9bc8 263d 5fd5 df3c
00000100: aa1f 0ebd 17f0 da3b cebd db3b 3a9b d23c
00000110: 394c acbd aba0 203c d4bb 413c 9c20 b7bc
00000120: e718 663d 6f39 2d3b ef3c 063d b891 ab3c
00000130: 24e7 243d 66a3 33bd 77f0 863c e812 1b3d
00000140: 60e6 8a3c ff16 c83b 4644 84bd 412f 8abd
00000150: bf14 383d 4ce2 143c 9d7e 733d f76a 88bd
00000160: 6385 ebbc 6ead 81bd 5987 1cbd 250d 31bd
00000170: 4f72 4cbd 3257 143d 1e85 133c c0bb 0fbc
00000180: dcef 7b3c 2ae9 8b3d ad51 263d a98b 323c
00000190: fe59 473c 7e99 243d 2231 f6bb 336f 043c
000001a0: 4903 8c3c 7654 c23d 579c 92bc 9832 7fbc
000001b0: 1b1d 393d 26d7 393d 83dc 323d 16b3 0bbd
000001c0: caec 8a3c b77d 19bc 33b5 4a3d eca3 dd3c
000001d0: c32e 293c d162 59bd 1105 1bbd 8097 503b
000001e0: 2bd9 16bd 59a7 c33d ff82 7d3d 413e f23c
000001f0: 3708 b83c 3e02 7bbc be2d 58bd 435b 3bbc
00000200: d078 b0ba 564b 96bc 7a4e a33c f561 cd3d
00000210: 23f0 c1bb 6478 f7bc b23e febb 525d efbc
00000220: 1cdf f63c 76d1 4dbd 935e 7a3d d386 f3bc
00000230: 375e eabc 8f20 09bd 36a8 643d e0de 9f3d
00000240: 53e3 d3bc 95fa fb3b 531b 373d d484 1abd
00000250: 066d 52bd 4330 66bc 934b 7e3b d184 2cbd
00000260: 955a 48bc aa1f b93c c8cb 793d b385 7f3d
00000270: 6e7e 1b3d d575 b7bc 9575 6f3c 76aa 4a3c
00000280: 393f 04bd a121 263d 3e24 c63c 630e 273b
00000290: 008d 26bd 254c 14bd 97ab 783d 60ed 32bd
000002a0: b4e5 a23c 8c0c 01bd 6e44 023d fa49 743c
000002b0: 31cd 943c a175 86bc ddc2 2dbd 297c 64bd
000002c0: 661f 2b3d b0ec 2bbc 6334 243d 92d3 ad3c
000002d0: ea2f 873d 1162 b4bc 606c be3b 260f 413d
000002e0: 3211 813b 1fcd 343d 1f1d f03c 669f ddbc
000002f0: fb1d 3fbc bf84 803d f7f5 17bd 185d 753d
00000300: 46c7 c93c 01b9 87bd c4da d3bc 269c 24bb
00000310: 2027 8d3d b687 f0bc 5a13 373d 80de 1f3d
00000320: d3ae e53c bd59 383d 2f62 d3bc e5df 083d
00000330: 06d9 033d 1111 0d3d be12 6e3c 4562 bbbc
00000340: be9e 3d3d ec67 f23b 1f8c 9c3d 9cd6 153d
00000350: af3c a93c 89e1 07bd 5bd6 da3d 658c fd3c
00000360: ea97 bbbb a590 c1bc fe7f 72bd 15cb 90bd
00000370: 7991 6fbd 3c39 b13c c697 2cbd 97d9 353d
00000380: 9544 163d 15a0 193d fa4f 40bd 838b 2bbc
00000390: 2224 643d ffd2 673b a8a2 af3c b534 323b
000003a0: e01b 243e bad6 3a3b 13b1 30bd 1c21 b53c
000003b0: eaab 78bd 6742 f9bc 7e06 bcbb 12cc 873c
000003c0: 4eb9 0fbd 5d00 0abd 58c0 793d 104d 0fbd
000003d0: 9e19 f5bc 2e08 a93d 5c7d e33c 0b8e 4fbd
000003e0: 9d0b 493d 8728 41bd bbce 71bd d944 9f3c
000003f0: da80 b33c 1c16 54bd 9191 eabc 3616 52bd
-0.03185022 -0.060308095 -0.031208081 0.018368054 -0.0067759063 -0.051990513 0.017784491 0.0030397833
-0.019176455 -0.02134247 0.014388573 -0.013181701 -0.04889945 0.05858686 -0.018961677 0.018223261
0.0013872997 0.0044326433 0.02574725 0.041287858 -0.003080543 0.017012624 -0.06740149 -0.01961883
-0.00015791685 -0.05314007 0.05244959 -0.0459777 -0.019651612 -0.020214932 -0.050634794 0.058271736
0.041103322 -0.012130055 0.004235035 -0.014622823 -0.025869247 -0.05684342 -0.05912801 0.030007314
-0.035757013 0.03263607 -0.038235247 0.0806781 -0.027958227 -0.04721546 -0.0085691735 0.07357984
0.074718595 0.010290639 0.00526956 0.05247716 -0.0043231305 -0.014635273 0.04807327 0.0048357197
-0.04829961 -0.05935144 0.021636825 0.028869895 -0.042721137 0.011039434 0.040718656 0.027323423
-0.034698166 0.006681453 0.006705976 0.025708783 -0.08412976 0.009803931 0.011824567 -0.022354417
0.056176092 0.0026431938 0.032772955 0.020943508 0.040259495 -0.043857 0.016472084 0.037859827
0.016955554 0.006106257 -0.064583346 -0.06747294 0.04494166 0.0090871565 0.05944692 -0.06661027
-0.028750127 -0.06331907 -0.038215015 -0.043225426 -0.0499137 0.03621597 0.009003906 -0.00877279
0.015377011 0.06831582 0.040605236 0.010897555 0.012167452 0.040185444 -0.0075131813 0.008083153
0.01709141 0.09488766 -0.017896814 -0.015576027 0.045193773 0.045371197 0.043667328 -0.034106337
0.016958613 -0.009368352 0.04948921 0.027055703 0.01032609 -0.053072754 -0.03784663 0.0031828582
-0.0368282 0.095534034 0.061892506 0.0295707 0.022464855 -0.015320359 -0.052778 -0.011435333
-0.0013463739 -0.01834647 0.019934881 0.100284494 -0.005918519 -0.030208774 -0.0077589387 -0.029219303
0.030135684 -0.050248586 0.06112535 -0.029727375 -0.028609378 -0.033478316 0.05582448 0.07806182
-0.025865233 0.007689784 0.044703793 -0.03772433 -0.051373504 -0.014049592 0.003880237 -0.04211885
-0.012228628 0.022598106 0.060985357 0.062383365 0.03796237 -0.022395054 0.014615436 0.012369743
-0.032286856 0.040559415 0.024187203 0.0025490753 -0.04066181 -0.03620543 0.060710516 -0.04368341
0.019884922 -0.031506106 0.03180354 0.0149102155 0.01816425 -0.016413512 -0.042422164 -0.05578247
0.04177799 -0.010493442 0.040089022 0.021219049 0.06600936 -0.022019418 0.005811259 0.047133587
0.0039388174 0.04414093 0.029310761 -0.027053546 -0.011664863 0.06275319 -0.037099805 0.059903234
0.024631154 -0.066270836 -0.025861152 -0.0025117486 0.06892228 -0.029361587 0.04469619 0.039030552
0.028037464 0.045007456 -0.025803654 0.033416647 0.03218939 0.034440104 0.014530836 -0.022874007
0.046293966 0.0073976424 0.076439135 0.03658162 0.020658819 -0.03317407 0.10685416 0.030950734
-0.0057248967 -0.023628542 -0.059204094 -0.07069985 -0.058488343 0.021633737 -0.04213693 0.044396963
0.0366865 0.03750618 -0.04695127 -0.010470274 0.05569852 0.0035373566 0.021439865 0.002719206
0.16026258 0.0028509335 -0.04313762 0.022110514 -0.060710825 -0.03042717 -0.0057380786 0.0165768
-0.03508883 -0.033691753 0.06097445 -0.034985602 -0.029919442 0.08253513 0.027769737 -0.050672572
0.04908334 -0.04715779 -0.059035044 0.019442009 0.021912027 -0.051778898 -0.028633865 -0.051290713

net.4.bias f4 [256]
00000000: 1e5b 5b3d f06e 37bd 3771 81ba 9c8b 0a3c
00000010: a7af 86bd 16ce 6eba f831 943d 08d4 6d3d
00000020: 9141 9d3c 3e94 013d f5c5 19bd 2ca9 93bd
00000030: 75b5 e0bc 3744 1fbd 0a73 e7bc c988 b4bc
00000040: 37bc 8d3d bfdf 103d e07c b93c 11b3 3cbd
00000050: 4f27 093d 7493 ea3b cf09 8b3a a612 26bd
00000060: 8b82 7e3c e2b2 b0bc a9ff 023c 8299 32bd
00000070: eae8 cb3c 5374 8fbd 3576 683d ca7d 2fbd
00000080: 4eba c43b 6ba5 223d 51b9 fd3b 2d2a 183d
00000090: 6413 49bd 15ec 8abc 77b1 023d 4e4f 2ebd
000000a0: 2501 14bd 29cf 183d 33bd 703d ee97 06bd
000000b0: 5ee6 0e3d 8d30 543d 9c17 da3c 0efa 45bd
000000c0: eaa5 8ebd 77ef 20bd fe3e 4a3c 2a7d 013c
000000d0: c13c 8fbd 3f21 b43c 7c82 2b3d 31ae a0bb
000000e0: e31d f13c a453 f6bc 7b94 413d 4ca9 423d
000000f0: 2767 07ba 9c8e 0b3d 303c adbb d0a3 e53c
00000100: 6e04 79bd 75db 85bd a986 67bd b81d 253d
00000110: 9083 3f3d a1ef 8abc 5722 2fbc ce77 9dbc
00000120: 49e1 9f3d e567 603c 5ea9 1cbd ab6e 0c3d
00000130: b4ec 2dbd 4192 49bc c5f0 96bd 5467 463c
00000140: 5512 c13c 70dd 87bd 3a3e b53b f998 cc3c
00000150: 472e f63c f2f9 ccbc e3fe 903d 675a 6dbd
00000160: 2235 94bd c5d1 7bbc 5b11 01bd 17fd 1dbd
00000170: 1207 1d3d 5753 5ebd 928f e73c 0794 b9bc
00000180: eada fbbc 9722 7dbd 6b06 28bc 5a59 45bd
00000190: be85 873c d8fa 5f3d cc4f a6bd 51d0 3bbd
000001a0: 5fab b9bd b6a6 873d 5bdf 9fbc 972b 773b
000001b0: f060 213b 6164 2bbd 78dc 303c 49db 3abc
000001c0: 1813 acbd 58d5 6e3c c36c 82bd 9ff0 d5bc
000001d0: 07ce e0bb eb7e d0bb 0f9e 00bb 3783 543d
000001e0: dcf7 1fbc 3dee 063b 2ed0 5abd a418 efbc
000001f0: c286 003d a8a9 673b d3d9 443d 59cc 14bd
00000200: 3368 76bd b8de 13bd 7360 dd3c 2cb1 fbbc
00000210: f3ee 33ba 771d efbc d6e1 01bd 9ad7 a23c
00000220: 9f50 5bbc 3c71 6cbd 2623 8dbd c085 72bd
00000230: 6a46 cfbc fe34 173d 68f4 c83c c7bc 93bd
00000240: f389 b0b9 3ef2 efbc 4e23 2abc a8cf 8b3d
00000250: 6c63 90bc 91bf 06bd 3be3 e23c b175 8c3c
00000260: fb23 953c 068b 22bc df50 bcbd 6186 dfbc
00000270: bae9 bdbd e126 14bd 6b0e e7bb d133 203d
00000280: 55d7 6ebd d71d 853a 43d5 0bbd 19af 0fbd
00000290: c4a9 b3bc ecd8 02bd 5f89 993b 3314 ec3c
000002a0: 5987 b6bc 7eef 3abd d6c8 a23d db28 83bd
000002b0: 3eb7 213d 9cc1 8abc 45a6 68bd c836 51bc
000002c0: 6569 ccbd 3713 d0ba 4b80 e03c 0d6b 81bd
000002d0: 6c21 babd 8da1 50bc 6a5c 36bd 21ec c33c
000002e0: fc88 c5bc beaa 2dbd 1200 043d 858b 823d
000002f0: dc28 0dbc febd 7cbc e0da 603c 1ba6 253d
00000300: 1deb 10bd b000 8a3d f6d9 14bd c0cf 91bd
00000310: 89ef 37bb e696 cdbc 58c2 523d 4078 1dbd
00000320: 7478 af3c a865 9c39 abe0 2cbd 4049 0ebd
00000330: e277 3d3c d0f6 0cbd 21e8 a3bd 6d7c 88bc
00000340: 70d4 293d 7bbd 58bd c768 873d ca2d 61bb
00000350: 5a7f a23c 5a90 3ebc 3860 283d 92de aa3d
00000360: 5558 b9bd 257a 9c3c 8762 2abd 05b1 8cbc
00000370: 32ed 7fbd 9d66 86bb 4ddf 90bd 2106 e43b
00000380: 39cc 1f3d 4737 a7bc c17f 303d c718 c2ba
00000390: abd0 3fbd fe9d 8ebc 37f1 2d3d 7520 00bd
000003a0: af88 18bc f726 4c3d 940d 813c 5d14 a3bc
000003b0: 0f24 283d 5111 e33c 6f38 b83c 136b b73a
000003c0: e319 5e3c f73c 9c3c 3f68 d3bc c758 8cbd
000003d0: f054 523d 4cbd 1ebd 8148 773c b6de 44bd
000003e0: c617 28bd 995c 04bd 89ad 3b3d 4670 e53b
000003f0: 4c1c eebc e8f7 6bbd c458 73bd 7c3c aabd
0.053553693 -0.044783533 -0.000987566 0.008456137 -0.06576472 -0.00091096887 0.07236093 0.058063537
0.019196304 0.031635515 -0.037542302 -0.07210001 -0.027430275 -0.038883414 -0.028253097 -0.02203788
0.06920665 0.03536963 0.022642553 -0.04606921 0.033484753 0.007158691 0.0010607782 -0.04054513
0.015534054 -0.021569673 0.007995524 -0.043603428 0.024891336 -0.07004609 0.056753356 -0.04284457
0.0060036546 0.039708536 0.0077430387 0.037149597 -0.049090758 -0.016958276 0.031907525 -0.0425561
-0.036133904 0.03730694 0.058774184 -0.032859735 0.034887664 0.051804114 0.026622586 -0.048334174
-0.06965239 -0.03929087 0.01234412 0.007903377 -0.0699401 0.02198851 0.041872486 -0.0049035777
0.029433196 -0.03006918 0.047260743 0.047524735 -0.0005165212 0.03407155 -0.005286716 0.028032213
-0.06079524 -0.06535999 -0.056524906 0.040311545 0.046756327 -0.016959967 -0.01068934 -0.019222166
0.078066416 0.013696645 -0.03824746 0.03428523 -0.042462066 -0.012302936 -0.07370142 0.012109596
0.023568312 -0.06634033 0.0055310996 0.024975287 0.030051364 -0.025021527 0.07079866 -0.057947543
-0.07236697 -0.015369837 -0.031510692 -0.038571443 0.03833682 -0.054278698 0.028266702 -0.022653593
-0.030744035 -0.061800566 -0.010255436 -0.048180915 0.016543265 0.054682583 -0.08120689 -0.045852963
-0.090658896 0.066235945 -0.019515684 0.003771519 0.002462443 -0.041843776 0.010794751 -0.011404821
-0.08402079 0.014577232 -0.06368401 -0.026115714 -0.006860498 -0.006362786 -0.001962546 0.05188295
-0.009763684 0.0020588778 -0.053421192 -0.029186554 0.031378515 0.0035348926 0.048059296 -0.036327694
-0.060157966 -0.036101073 0.02702353 -0.03072413 -0.00068639143 -0.029188855 -0.031709515 0.019878197
-0.013385921 -0.057725176 -0.0689147 -0.059209585 -0.02530213 0.03691577 0.024530604 -0.07213741
-0.00033672116 -0.029290315 -0.010384394 0.06826717 -0.017625533 -0.032897536 0.027696243 0.017145963
0.018205633 -0.009920841 -0.091951124 -0.027285757 -0.092730954 -0.03616989 -0.0070512793 0.039111916
-0.058310825 0.0010155988 -0.03413893 -0.035079096 -0.021931536 -0.031945154 0.0046855654 0.028818225
-0.022281336 -0.045638554 0.07948463 -0.06404277 0.039481394 -0.016938023 -0.056799192 -0.0127694085
-0.0998104 -0.0015874867 0.027404925 -0.063192464 -0.09088406 -0.012733829 -0.044521727 0.023916306
-0.02411317 -0.04239916 0.03222663 0.063742675 -0.008615699 -0.015426157 0.013724059 0.040441614
-0.03538047 0.067384124 -0.036340676 -0.07119703 -0.0028066358 -0.025096368 0.051454872 -0.038444757
0.021419741 0.00029830378 -0.042206448 -0.034737825 0.011564227 -0.034415066 -0.080032595 -0.016660893
0.04146236 -0.052915078 0.066117816 -0.0034359568 0.019836117 -0.011631096 0.041107386 0.08343233
-0.09050051 0.019101212 -0.04159787 -0.017174253 -0.062482066 -0.004101588 -0.07073841 0.0069587384
0.03901312 -0.0204121 0.043090586 -0.001480841 -0.04682986 -0.01740932 0.04246637 -0.031280953
-0.009309932 0.049841847 0.015753545 -0.01990717 0.041050013 0.027718218 0.022487847 0.0013993703
0.013555977 0.019072039 -0.025806544 -0.068528704 0.051350534 -0.038754746 0.01509297 -0.048063956
-0.041038297 -0.03231487 0.045819793 0.0070019094 -0.029066227 -0.05760947 -0.059410825 -0.08312318

net.6.weight f4 [256, 256]
00000000: effe 513d 0199 7bbd ca57 543b d0bb 273d
00000010: 98a5 e03c 1077 553a 88fa 04be 6f6f 02bc
00000020: 40bd 363d 0a4c debc 20f4 663d 5a00 3b3d
00000030: a0df 85bd 5248 78bc 9e0f 753d c7d6 fdbc
00000040: 9e99 d8bc 38eb ff3c 2469 173d 9ede 23bd
00000050: 7719 3dbd 2ab1 043d 8ff0 8a3d 07db af3c
00000060: 4b7b d6bc 186c d8bd 280e d9bb 4541 0bbd
00000070: 1396 153c 25f0 0a3d 6224 2a3d 8268 433c
00000080: ccdb a9bd 0ee7 5a3d 68fc 86bd baa5 c73c
00000090: 453a 4dbd 5fed a8ba 6c0f 13bc c952 18bd
000000a0: e4ce 3fbc f691 123d 4df6 cc3c d0bf 99bc
000000b0: d359 363d 2fd9 abbd f1e0 2a3d 0bd8 543d
000000c0: 6a4c 8c3d ede4 983d 3b89 b5bb 29c6 1fbd
000000d0: 7b60 ca3c eec7 5abd ec3d 833c d2ff e1bb
000000e0: 33e0 cdbd 1533 39bc e567 17bd 8812 3ebd
000000f0: 7c83 09bd 6af3 e8bb 4d8f cf3d ede7 36bd
00000100: 165f 183d 6b15 1abd bff9 24bd 2e1a 3d3d
00000110: 4387 663d 1ae8 46bb 0049 81bd 50f3 85bb
00000120: 3d7a 04be ad33 24bd a836 403d 41f2 d93b
00000130: da8b 003d 29f5 a43c fb01 e8bb e424 e33c
00000140: 1f96 533c c1df 5f3c cca8 293d d277 a3bc
00000150: c129 3d3d c35d 493d 5cb7 c43c 23db 9f3d
00000160: 783e d93c a996 953c ff69 f33b 1d73 d4bc
00000170: e88d f43c bbbc 993d fdcb 5f3d 5f54 b93c
00000180: a248 973d 78bd 00ba f810 97bc f869 163d
00000190: a20b 2ebb 148c 8abd d7f8 3f3d 32c4 7abc
000001a0: 4765 62bd b29d a3bc d510 a0bc 7c65 293c
000001b0: 2b68 e7bc bbed 8dbd ed60 06bd 2cf2 7c3c
000001c0: 0538 79bd 01cb 3c3c 886b 663d b5e5 edbb
000001d0: 043a 833c b11c 513d 60cc 50bd ce6d 6d3d
000001e0: 4073 20bd 3d04 33bc bc9b aa3c 51b9 303d
000001f0: e42a 80bc 3581 34bd 8e70 ffbb a09f bfbc
00000200: 052c 903d 53db 4ab9 5b40 a5bb 9921 043d
00000210: 0e52 1d3c d519 b1bc d6a5 23bc 048f c93c
00000220: 5876 fdbc 0acc c93c 8937 91bd 2073 613d
00000230: 3352 1cbb a3e4 c9bc dcbf 9fbb d788 043d
00000240: 7e08 dabc b5c9 f5bb 8ce1 f23c 7712 df3b
00000250: f18a f9bc 1cdc 363c 66e2 8dbd cb6f 98bc
00000260: 7a85 283d dfaa d0bd 3389 dcbc 4e96 92bc
00000270: a689 063e d18e 123d 23ca e0bc c518 39bd
00000280: d096 bb3c 802d 653d e5c6 633c ef05 54bd
00000290: 1f8c 22bc 4f65 1dbd de97 c63c fd0d 1bbc
000002a0: 4360 12bc c7fc 783c 5bfd 3ebc 34c5 67ba
000002b0: 16e5 f2bc c0ff f4bb 5f49 af3b b47c fdbc
000002c0: 73e8 febc 2451 4b3d ea41 0d3b df52 8b3c
000002d0: 7c5c 9dbc ffa1 61bd 680a 43bd c778 38bd
000002e0: 6bf4 8abc f710 69bd d086 07be 2f81 d0bd
000002f0: cc00 d3bb 7dc1 953b ebf1 6c3c 9636 7cbc
00000300: 277b b23d 996d 53bc 92d4 adba 6a83 db3c
00000310: d4de 9bbc be79 e53c 0f7e dabb c15a 4dbb
00000320: 913c 61bd 1922 4abc c12c 70bd 8e8b ae3c
00000330: c472 3fbd 9bed 95bd 9080 693d 56ed b1bd
00000340: fdcc bcbc 8306 703c 7b2a 65bd eced 7a3d
00000350: be11 d5bc 61c2 99bc 6f9e 75bd 2e60 00be
00000360: 7488 03bc 6e75 2dba b671 06bd c248 56bd
00000370: 879c a8bc 99ba a43a abc1 783d 318e 72bd
00000380: 1d76 bb3c c161 51bd ddae 8ebc 45db 8dbd
00000390: 9dff f2bc fe1f 05bc ed1a 4fbd 7b27 d4bb
000003a0: fb70 413d b24d 2e3d ce48 f2bb c53c 3ebd
000003b0: aacc 66bc a80b 953b 51e1 50bd aba1 60bc
000003c0: 299e 613d a262 983c 2117 e9bc 13e9 25bd
000003d0: 10bc 64bd 4fd0 5c3d a081 67bd 4589 2f3d
000003e0: aa40 43bd 4897 803d 57ff 843d 61e9 0d3d
000003f0: 17e6 97bd 8aba aa3d 4351 963c 61ab 473d
0.051268514 -0.061425213 0.003240096 0.040950596 0.027422711 0.0008143047 -0.12986195 -0.007961138
0.044614077 -0.027135868 0.05638516 0.045654632 -0.06536794 -0.015153961 0.059829347 -0.030986203
-0.026440438 0.03124009 0.036965504 -0.040007226 -0.046166863 0.03239552 0.06784164 0.021466745
-0.026181838 -0.10567492 -0.006624002 -0.033997793 0.009130019 0.033920426 0.041538604 0.011926772
-0.08293876 0.053443007 -0.065911114 0.024371017 -0.0501044 -0.0012888125 -0.008975845 -0.037188325
-0.011707041 0.03578373 0.02501979 -0.018768221 0.044519257 -0.08391034 0.041718427 0.051963847
0.06850512 0.07465539 -0.005540041 -0.03900734 0.024704209 -0.053413324 0.016020738 -0.0068969512
-0.10052528 -0.011303683 -0.036964316 -0.04640439 -0.03357266 -0.0071090953 0.10134754 -0.044654775
0.037200056 -0.037618082 -0.04027724 0.046167545 0.05628134 -0.0030350746 -0.06312752 -0.004087843
-0.12937255 -0.040088344 0.046927124 0.0066511934 0.031383373 0.020136433 -0.007080314 0.027727552
0.01291421 0.013664187 0.041420743 -0.019954596 0.046182398 0.049161684 0.024013214 0.07805469
0.026519045 0.018260317 0.007428407 -0.025933797 0.029852822 0.075067006 0.054637898 0.02262324
0.073869005 -0.00049110455 -0.018440709 0.036722153 -0.0026557227 -0.06764999 0.04686817 -0.015305566
-0.055272367 -0.019972656 -0.019539276 0.010339137 -0.028247913 -0.06930109 -0.03280728 0.015438598
-0.06084444 0.011523009 0.056254894 -0.007260049 0.016018875 0.051052753 -0.050976157 0.057966046
-0.03917241 -0.010926303 0.020826213 0.04314548 -0.015645452 -0.044068534 -0.0077954 -0.023391545
0.07039646 -0.00019345926 -0.005043072 0.032258604 0.009602083 -0.021618763 -0.009988269 0.024604328
-0.03094022 0.024633426 -0.070906706 0.055041432 -0.0023852705 -0.024645155 -0.0048751663 0.032357063
-0.026615378 -0.007500852 0.029648565 0.006807621 -0.03046176 0.011160877 -0.06927948 -0.018607995
0.04114292 -0.10188841 -0.02692089 -0.017893936 0.13138446 0.03578073 -0.027440136 -0.045189638
0.022899061 0.055951595 0.013902401 -0.05176347 -0.009921103 -0.038426694 0.024242338 -0.009463784
-0.008934083 0.015196986 -0.011657084 -0.0008841336 -0.029650252 -0.007476777 0.0053493227 -0.030943252
-0.0311167 0.04963793 0.002155418 0.01700729 -0.019209139 -0.055086132 -0.047617346 -0.045037057
-0.01696225 -0.056900945 -0.1323502 -0.1018089 -0.006439304 0.0045701847 0.014461975 -0.015393874
0.08714896 -0.012904548 -0.0013262203 0.026796062 -0.019027151 0.028012153 -0.0066678594 -0.003133461
-0.0549894 -0.012337231 -0.05863643 0.02130678 -0.04674031 -0.0732071 0.057007372 -0.08687846
-0.023046965 0.01464999 -0.055948716 0.061262056 -0.026009437 -0.018769445 -0.059965547 -0.1253669
-0.008028138 -0.00066169247 -0.032823287 -0.05231548 -0.02058245 0.0012567817 0.06073157 -0.059217636
0.02288347 -0.051118616 -0.017417366 -0.06926588 -0.029662902 -0.008125303 -0.050562788 -0.006474433
0.047226887 0.042554565 -0.007393933 -0.046444673 -0.014086882 0.0045485087 -0.05099613 -0.01371042
0.055082474 0.01860172 -0.028453412 -0.04050548 -0.055843413 0.053909596 -0.056520104 0.04285552
-0.04766909 0.062788546 0.06494015 0.034646396 -0.07416933 0.08336361 0.018349295 0.048747424
